trained_models/female_under_50_gru.pth (torch, 188969 bytes, 14 tensors)

gru.weight_ih_l0 f4 [192, 20]
000000 bf 17 37 bd 48 cc 92 bb fe 50 7e bd ae 08 95 3d
       -0.04470038 -0.0044799186 -0.06208896 0.07277046
000010 b2 87 2a 3b 28 ec c3 bd 49 ce 86 bd af a6 e2 3d
       0.0026020822 -0.095665276 -0.065823145 0.110669486
000020 14 24 c4 3d f4 e8 ff 3d 49 08 aa 3b 4b f1 c9 3d
       0.09577194 0.12495604 0.005188976 0.09860476
000030 7a 22 cf bd b3 aa 09 bd 46 86 08 bd 5a 75 c5 bd
       -0.10113998 -0.033610057 -0.033331178 -0.09641524
000040 d3 65 e4 bd 7d 98 92 bb 47 20 c4 3d f7 20 f1 bd
       -0.11152234 -0.0044737444 0.09576469 -0.11773866
000050 9d 92 68 bd bc 77 3e 3d 72 dd 87 bd 6c e2 5e bd
       -0.056780446 0.046500906 -0.06634034 -0.05441515
000060 88 63 4f bd 86 84 59 bc e5 67 d6 bd ae 62 82 3d
       -0.05063203 -0.013276225 -0.10469035 0.06366478
000070 95 40 c8 3d 17 4c 99 3d ec 3c be 3d 87 f9 48 3d
       0.09777943 0.07485216 0.09288964 0.049066093
000080 31 2f bb 3c 09 da a7 3d 10 ca 7c bd ed 37 1d 3b
       0.022849651 0.08195884 -0.06171614 0.0023989633
000090 d5 06 c5 3d 84 42 ca 3d 63 3b d1 bd a4 c4 2b 3d
       0.09620444 0.09875968 -0.10216405 0.041935578
0000a0 2d 59 12 3e 08 4e bf 3d 80 75 a7 3d b7 bc 6a 3d
       0.1429183 0.09341055 0.08176708 0.05730888
0000b0 9d ed e0 bd 03 db b9 bc c5 f5 f1 bd 30 2b a7 3c
       -0.10982821 -0.02268744 -0.11814455 0.020406336
0000c0 0b f4 0d be ce cd b6 3b 94 19 81 bd 03 44 a8 bd
       -0.13862626 0.005578733 -0.06303707 -0.08216097
0000d0 9b 81 1f 3d ee 0f b2 3b f9 fc ed 3c 01 2f 9a bd
       0.03894196 0.005434028 0.02905129 -0.075284965
0000e0 62 5b d6 3d c3 52 c9 3c 17 65 77 3b 51 6f 29 3e
       0.10466649 0.024575597 0.0037749463 0.1654637
0000f0 1e 4c 8c 3c 4a 1b b6 bd c1 b2 fd 3b 6f 25 96 bd
       0.01712614 -0.08891924 0.0077422564 -0.07331359
000100 15 c5 a0 bd 34 51 00 bd a9 f0 87 3d 23 7c f9 bd
       -0.078500904 -0.03132744 0.06637699 -0.1218188
000110 1d 2d d6 3d 80 8e 2e 3d 2a 06 88 bd fa af 0c bd
       0.104578234 0.042616367 -0.06641801 -0.03434751
000120 c2 a9 ee 3c 37 2d 22 bd 86 3f 3a bd 2a 19 a0 bc
       0.029133681 -0.0395939 -0.045470737 -0.01954325
000130 a4 0a 8f bd 05 ea ff 3c fa 73 b8 3d 46 83 a5 bd
       -0.069844514 0.031239519 0.09006496 -0.08081679
000140 d4 ac 8d 3d e0 fa 9e 3d 8b 92 a6 3d 91 1b f6 bd
       0.0691773 0.07762694 0.081334196 -0.120169766
000150 82 a4 59 3c ce 64 d7 bd 2f be a6 3d ed 2f f2 bc
       0.013283851 -0.10517274 0.081417434 -0.029563868
000160 9f 47 0a be da a0 02 bd 30 38 2d 3d f4 f2 6e 3c
       -0.13503884 -0.03189168 0.042289913 0.014584292
000170 09 47 9d 3c 31 6e b7 3d 24 cd bc bd ee b5 04 be
       0.019198911 0.08956564 -0.09218815 -0.12960026
000180 f6 8e 07 bd 86 62 cf 3c c6 17 ac 3d 61 a6 1a bd
       -0.033095323 0.025315534 0.08402972 -0.037756328
000190 5b 23 f6 bd e2 2b 8f bd b2 b0 b9 bd 2d 4c ae 3d
       -0.12018462 -0.06990792 -0.09066905 0.08510623
0001a0 97 f3 e0 3d b4 bd aa 3c 34 ba 62 3d 4b b3 0d bc
       0.10983961 0.02084241 0.05535336 -0.008648704
0001b0 db eb 4e bd 79 a9 ca bc ee 22 08 be 55 c7 66 bd
       -0.050517898 -0.024739014 -0.13294575 -0.05634244
0001c0 b8 b4 49 3d d1 cd 91 bd 2b 65 b6 3c 36 58 90 3c
       0.049244612 -0.071193345 0.022265038 0.017620187
0001d0 4c bd 0d bd ee 53 8b 3c 97 74 6f bd 54 29 08 3e
       -0.034604356 0.017007794 -0.058460798 0.13297015
0001e0 7b 25 ff 3b 71 25 ad bd 32 40 e3 3c 51 90 8e 3d
       0.0077864504 -0.08454407 0.027740572 0.0696112
0001f0 24 96 97 3d d4 39 a4 3d 6f f1 2b 3d 85 d9 6e bd
       0.07401684 0.08018842 0.041978296 -0.05831291
000200 c9 df 8f 3d 0e 57 85 bd 30 98 d1 3d ae bd a5 bd
       0.070251055 -0.06510745 0.102341056 -0.08092819
000210 76 13 86 bc 27 33 f2 bd 3f 07 0c bd 7a e3 a5 bd
       -0.016366702 -0.11826163 -0.034186598 -0.08100028
000220 95 a0 cc bd d4 f0 9a bd 83 06 bc 3d 29 47 a9 3d
       -0.09991566 -0.075654656 0.091809295 0.08265526
000230 c9 8c 10 bd 96 e0 f1 3c 62 60 00 3d 5f f6 9d bc
       -0.035290513 0.029526036 0.031341918 -0.019282518
000240 c4 9c 83 bc bc 82 b0 bd b6 b4 85 3d 9b c1 89 bc
       -0.016065963 -0.086186856 0.065286085 -0.016815951
000250 df 49 13 3e 52 f3 84 bd 22 04 da 3d e6 79 a9 3d
       0.14383648 -0.06491722 0.106453195 0.082752034
000260 0b 01 ec 3d a0 c8 bc bd 14 89 d7 3c d8 5e f0 ba
       0.115236364 -0.09217954 0.026310481 -0.0018338813
000270 09 29 63 bd 8e 45 10 3e 88 b5 91 3c b9 f1 54 bd
       -0.055459056 0.14089033 0.017786756 -0.051988337
000280 f2 bb 0d 3d 3a f9 a8 bd 82 3e 0c 3d 63 61 6d bd
       0.034603067 -0.08250661 0.0342393 -0.057954203
000290 8c a8 cb 3d e7 d1 f8 3d b8 d7 b0 bd f9 92 76 3d
       0.09944257 0.12149411 -0.08634895 0.060198758
0002a0 e8 0a 87 3d cb 4b fd 3c da 90 0b 3e 6e 2e 33 bd
       0.06593877 0.03091993 0.13629475 -0.04374545
0002b0 e2 4e e8 3d 0c 0b 63 bc 3c f4 a5 bc 12 41 fb 3c
       0.11343171 -0.013857614 -0.020258062 0.030670676
0002c0 f7 23 f7 3d 0b fc 1c be 36 80 e8 bd 11 1c b9 bd
       0.120674066 -0.15330522 -0.11352579 -0.09038556
0002d0 02 55 a8 3d fb 81 80 3c 6b 25 15 3d dc 9e aa 3d
       0.08219339 0.01568698 0.036412638 0.08331081
0002e0 01 25 bf 3d ba 0c a5 bd b7 0f 46 bd 96 cd fc bc
       0.0933323 -0.08059068 -0.04835483 -0.03085975
0002f0 0c 45 23 3e 30 65 34 3d 3d a4 95 3d 84 b6 00 3e
       0.15944308 0.044041812 0.073067166 0.12569624
000300 c8 40 b0 bd e5 01 96 3b 03 7e f7 3d c3 b2 3b 3b
       -0.08606106 0.0045778626 0.12084582 0.0028640486
000310 2b 42 c5 3d ee be e7 bc ef 48 46 3d 48 8a 93 3d
       0.09631761 -0.028289285 0.0484094 0.072041094
000320 42 e1 10 3a 27 aa 5c 3d 51 1a c9 3d 36 ae 81 3d
       0.000552673 0.053873207 0.098194726 0.06332056
000330 b4 ab 86 3c 4a 0d 19 bd 56 12 ed bc d1 d2 16 bc
       0.016439296 -0.03736619 -0.028939407 -0.009205536
000340 74 55 4c 3d 56 a7 65 bd 6d 09 8e bd 79 a9 17 3e
       0.049886182 -0.056067787 -0.069353916 0.14810742
000350 49 e1 46 bc a3 e1 06 3e 60 39 c6 bd d6 f6 4f bd
       -0.012138673 0.13172011 -0.09678912 -0.05077251
000360 a3 78 c6 bc ca 0f 9a 3d fe a0 a4 3d 22 0d 20 3e
       -0.024227446 0.07522543 0.08038519 0.1563001
000370 4b 01 93 3d 9a 8e 71 bd 17 99 96 3d fa 7e 74 bd
       0.07177981 -0.058973886 0.07353418 -0.059691407
000380 c9 96 cd 3d 73 d9 a7 bd cf 82 98 3d f6 4a c5 bc
       0.100385256 -0.08195772 0.07446825 -0.024083596
000390 92 72 9d 3b 21 34 0c be be 77 53 3c 50 7e ba 3c
       0.0048049176 -0.1369176 0.012906967 0.022765309
0003a0 5a be 1a bc ef 8d 5f bd 97 60 b5 bc 66 42 0c be
       -0.009444797 -0.054578718 -0.022140784 -0.13697204
0003b0 54 27 66 3d ad d6 1c be 3b e1 0c be 18 5c 8c bd
       0.05618985 -0.15316267 -0.13757794 -0.06853503
0003c0 b3 7b 16 3b 78 5b 75 3c 17 8b d5 bd 9b fe c0 3d
       0.0022961914 0.014975421 -0.1042692 0.09423562
0003d0 47 ed a2 bd 0f c1 f1 bd 17 9a 96 3d b8 86 2f 3d
       -0.07955413 -0.11804401 0.07353609 0.042853087
0003e0 b2 35 d2 bd 87 70 4d bd ec d1 8a bc 0f 3a b3 bd
       -0.10264148 -0.050156143 -0.016945802 -0.08751308
0003f0 c6 06 fa bd a8 8e 8a 3d 4d 70 0d 3b 5c 47 a7 3d
       -0.12208323 0.06765491 0.002158183 0.081679076

gru.weight_hh_l0 f4 [192, 64]
000000 ea 1c d1 bd a1 69 a8 3d c8 bb 32 be 02 b9 15 bd
       -0.10210593 0.08223272 -0.17454445 -0.03655339
000010 db 42 63 3d 64 7f 07 bb 62 c6 95 bc ce 45 b6 bd
       0.05548368 -0.0020675296 -0.018283073 -0.08900033
000020 3c 76 4f 3a 06 9a 5a 3b 67 8a 02 3d 1b 93 82 bd
       0.00079140416 0.0033355965 0.031870272 -0.063757144
000030 a3 b7 00 bc 5e 95 b9 3d 7d b7 3c bc 73 f8 90 3d
       -0.007856282 0.09061693 -0.011518356 0.07078638
000040 67 ac 7c bd 65 60 de bb 9e 91 c2 3c df 8e b7 bd
       -0.061687853 -0.0067863935 0.023751076 -0.089627974
000050 0d c8 aa bd 94 a7 67 bd 01 b4 b3 bd 52 34 b1 bc
       -0.08338938 -0.0565563 -0.087745674 -0.021631394
000060 bb a5 83 3d 73 de f0 3d e5 36 03 3d 7e ce 06 3e
       0.06428095 0.11761179 0.032034773 0.13164708
000070 38 a0 86 bd f6 83 11 bb 7d 09 d0 bd 9e ba 1e bd
       -0.06573528 -0.00222039 -0.1015806 -0.03875219
000080 f9 79 5d bd 41 96 07 3d f3 98 c7 bb 14 3b 08 3e
       -0.0540714 0.033102278 -0.006091231 0.13303787
000090 ea 3a 05 3e 80 2c 14 3d 75 c9 b6 bd b2 61 8c 3c
       0.13010755 0.03617525 -0.08925144 0.017136429
0000a0 01 6e e3 3c 1e 52 a2 3d 7e 58 d2 bc 63 b3 da bd
       0.027762415 0.07925819 -0.025676962 -0.106787466
0000b0 2e d9 91 3c c3 bb 3f 3d aa 8c 37 3d 64 19 2f 3d
       0.017803755 0.046809923 0.044811882 0.042748824
0000c0 20 cf a4 bd 91 b9 0f be db 68 8d 3d 23 4e 1f be
       -0.080473185 -0.14035632 0.06904765 -0.1555715
0000d0 72 00 57 3d 03 0b de bd 1b 50 73 3c c6 68 65 bd
       0.05249066 -0.10841944 0.014850642 -0.056008123
0000e0 8f 19 d7 bd fe ea 06 bd 5e d0 ed bc 86 db 0e bd
       -0.10502922 -0.03293895 -0.029030021 -0.034877323
0000f0 81 b9 c3 3d 5a 10 05 bd a3 ac 0d be 8f 26 2e bc
       0.095568664 -0.032486297 -0.13835387 -0.01062931
000100 e2 ee 51 3c eb a8 fd bb 8c 30 df b9 ba bd a1 bd
       0.012813302 -0.007741084 -0.00042570045 -0.078975156
000110 c7 3b a5 bd 12 04 de bc 72 05 0f bd ab 0e 8e bd
       -0.08068042 -0.02710155 -0.034917302 -0.069363914
000120 e4 77 39 bc b1 72 85 3d f2 a0 1e be 7c b3 4f bc
       -0.011320088 0.06516016 -0.15491083 -0.01267707
000130 b4 f0 cc 3c 6c 46 f2 bd 4b 92 32 3d f5 10 2e 3d
       0.02501712 -0.11829838 0.043596547 0.04249664
000140 14 4a 63 bd da fc 7a 3d 66 d8 db 3c 43 40 95 3d
       -0.05549057 0.061276294 0.026836585 0.072876476
000150 30 84 22 bd e0 f5 13 bd 4d 16 44 bc af 65 c8 bd
       -0.039676845 -0.036123157 -0.011968208 -0.097850196
000160 2e 8f d4 bd 49 18 08 bd 75 40 8c bc 8b b2 e1 3d
       -0.10378872 -0.033226285 -0.01712058 0.110203825
000170 18 21 09 bd 4a f2 8b 3d 9f 0c 5b 3d 03 11 76 bd
       -0.033478826 0.06833322 0.053478833 -0.060074817
000180 bd 34 36 3e 67 a8 88 bd 1c c8 93 bd 37 79 e7 bd
       0.17793556 -0.06672745 -0.07215902 -0.11302417
000190 06 ae e3 3c f5 a2 ba 3c 94 f0 d7 3c 7f 1d 35 3d
       0.027792942 0.022782782 0.026359834 0.044217583
0001a0 05 e0 e0 bc 71 d4 a9 bd f5 f2 1c 3e cc 4d 55 bb
       -0.02745057 -0.08292473 0.15327056 -0.0032547591
0001b0 75 cb 64 bd a3 17 07 bd ab a4 7e 3c 68 12 43 bb
       -0.055858094 -0.032981526 0.01554219 -0.002976561
0001c0 69 5a ce 3d a5 5d 1a 3e 0e 73 bc bc de 82 06 3e
       0.10075838 0.15074785 -0.023004081 0.1313586
0001d0 8e cf 13 3e 0e f8 de 3c ff 38 9c bd d6 69 c6 3d
       0.14434645 0.027217891 -0.07628059 0.09688155
0001e0 2c e4 97 3d e9 2d c4 3d 61 b6 76 3d 01 53 78 3d
       0.07416567 0.09579069 0.060232524 0.060626034
0001f0 f1 bd 8d bd c9 1e 5e 3c 68 3f a0 3c dd 1b 6c 3d
       -0.06920994 0.013557144 0.019561484 0.05764376
000200 0e 88 29 ba 92 c6 b4 3c 98 55 05 bd 08 69 87 3d
       -0.0006467112 0.022067342 -0.03255233 0.0661183
000210 af 62 3b 3d 66 98 2c 3d 40 ec 19 3e e1 03 0a be
       0.04574841 0.042137526 0.15031528 -0.13478042
000220 cf 76 79 3d 54 87 42 3d 3a 2e 30 3d 47 ab 98 3c
       0.06090432 0.04749234 0.043012835 0.018636359
000230 3e 3f ba 3d 5d e6 c5 3d 37 9b 90 bd a5 fc 15 3c
       0.09094094 0.09663079 -0.07060855 0.009154473
000240 53 22 4b bc ed b9 6b 3c ec 72 ef bc 16 c0 ee 3d
       -0.01239832 0.01438759 -0.029229604 0.11657731
000250 6a 2d bb bd 10 de 24 3c c3 c0 e4 bd b1 15 0e bd
       -0.091395214 0.010062709 -0.11169579 -0.034688655
000260 01 c1 ff bd f9 63 56 3d 8e 55 03 be d8 e6 ab bd
       -0.124879844 0.052341435 -0.12825605 -0.08393639
000270 84 64 b7 3d 00 6c c1 3d 31 18 8b bc ca e9 a0 3d
       0.08954719 0.094444275 -0.016979309 0.07857092
000280 5a 44 c6 bd a9 b7 b7 bd a1 7f 97 bc 9b e4 18 bd
       -0.09681006 -0.08970577 -0.018493475 -0.03732739
000290 4b de b7 bd e1 f3 a9 3d ff 3d c9 3d 1a e9 97 3d
       -0.08977946 0.08298469 0.09826278 0.074175075
0002a0 b8 70 95 bd 3b 48 8a 3c 15 51 1b bd f6 af ce 3d
       -0.0729689 0.016880145 -0.037919123 0.10092156
0002b0 4c e4 bb bc 97 ce b0 bb d6 dc b1 bd b6 b0 e0 3d
       -0.022936009 -0.005395721 -0.08684699 0.10971205
0002c0 8a ca 09 3e 8f 27 ce bd 3e 50 a9 3d d2 d9 d1 bd
       0.13456169 -0.10066139 0.08267258 -0.10246624
0002d0 e9 b3 bb 3d df 00 8f bd b1 92 b2 bd 1e 83 08 be
       0.091651745 -0.06982588 -0.087193854 -0.13331267
0002e0 ac ea 36 bb 64 53 f9 bd ab d9 44 bd 0c 6d 41 bd
       -0.0027910871 -0.121741086 -0.048059147 -0.047223136
0002f0 4e 91 a0 bd a6 39 28 be 84 e4 b6 bd 88 7a 9d 3d
       -0.07840215 -0.16428241 -0.08930305 0.076893866
000300 8b 84 4b bd ed 75 a9 bc 69 84 ba bd 88 0a b4 bd
       -0.04968695 -0.020686114 -0.091072865 -0.08791071
000310 0a 3d fa 3d da 67 13 3e ac 49 fb bd 1f aa 58 3d
       0.122186735 0.14395085 -0.12269911 0.052896615
000320 90 03 c6 3d 59 8b a7 bd f7 57 0b bc 06 6e cb bd
       0.09668648 -0.08180875 -0.008504859 -0.09933095
000330 fc b0 d0 bd d3 19 52 bd 17 29 9d 3b 64 51 76 3d
       -0.10190007 -0.05129416 0.004796158 0.060136214
000340 6d 79 3c 3d 39 58 c8 bd 2f 84 ea bd e5 97 89 3d
       0.04601424 -0.09782452 -0.11450993 0.06718425
000350 52 d8 d6 bb d3 b3 a5 bc e6 ca 89 3d a9 a8 90 3d
       -0.006556549 -0.020227348 0.06728153 0.07063419
000360 8d b4 bf 3d fa bd c0 bc a8 2f 84 3d f3 e5 cc 3d
       0.09360609 -0.023528088 0.06454402 0.10004797
000370 bc 8a 2b 3c 37 43 58 3d 99 85 a7 3d 4f 37 b0 bd
       0.010470089 0.052798476 0.081797786 -0.08604299
000380 83 d2 42 bd 80 28 60 bd 9c f5 e4 3d ad ac 98 bc
       -0.04756404 -0.054726124 0.11179659 -0.018637026
000390 43 ca 8a bd 0f e0 91 bd d3 d0 6d 3d 86 e5 c2 3c
       -0.067768596 -0.07122814 0.05806048 0.023791086
0003a0 30 e9 38 3d 85 e2 b6 3d c2 02 a6 bd d5 1b 1b 3d
       0.04514426 0.08929924 -0.08105995 0.03786834
0003b0 9d 3e 80 bd 5c fc ab 3c e3 cf 10 3d da aa df 3d
       -0.062619425 0.020994358 0.035354506 0.10921259
0003c0 98 d1 f5 bd af c0 f9 ba ce b2 a4 bd f0 f2 c4 3c
       -0.120028675 -0.0019054617 -0.08041917 0.024041623
0003d0 12 46 26 bd 0c 10 ed 3c 43 b4 ab bd c6 2e 72 bc
       -0.040594168 0.028938316 -0.083839916 -0.0147816595
0003e0 7c 49 be 3d 0a 91 26 3d 39 cd 62 bd 90 e9 52 3d
       0.0929136 0.040665664 -0.055371497 0.051492274
0003f0 c7 a2 2d bd ad 72 ce 3d 75 51 8b 3d 5f 0a 04 3e
       -0.042391565 0.100804664 0.06802646 0.12894581

gru.bias_ih_l0 f4 [192]
000000 c5 ce b6 bd a9 41 28 bd 4f 0b 03 3e e4 25 ce 3d
       -0.08926157 -0.041078243 0.12797283 0.10065821
000010 04 39 2c bd 39 e1 22 bd d2 89 d2 bd ae 3d 69 3d
       -0.04204656 -0.03976557 -0.102801934 0.056943588
000020 08 24 8c bb 2d 52 d7 3d 92 14 c3 bc e0 47 c3 bd
       -0.004276756 0.10513721 -0.02381352 -0.095351934
000030 b4 2a f7 bd 5d cc 07 bc 1a c8 bb bd b2 ef 5e 3d
       -0.12068692 -0.00828847 -0.09169026 0.05442781
000040 0f c8 f4 3d 97 f8 b0 3d 5e 26 2f bd a3 b1 be bd
       0.11952221 0.08641165 -0.0427612 -0.09311225
000050 83 7a 3c bd 04 66 18 bc d8 e1 f6 3d 4d 6e 7e bd
       -0.046015274 -0.009301666 0.12054795 -0.06211691
000060 b3 cc 00 3e 49 29 23 bd 64 0f 90 3d f0 30 03 3e
       0.12578087 -0.039834294 0.070341855 0.12811637
000070 a1 9c 68 bd 51 77 16 bd f0 93 bc 3c 27 a6 61 bd
       -0.056789998 -0.036734883 0.02301976 -0.055090096
000080 59 e9 20 3e f8 70 1d 3e 22 c4 cc 3d 43 94 29 bd
       0.15714015 0.15375125 0.09998347 -0.04140116
000090 02 4c 1f 3e 37 5a 88 bc a7 05 c8 3d dd cd 82 ba
       0.15556338 -0.01664458 0.09766703 -0.0009979565
0000a0 5a 6f ad 3c d9 8f 1f 3e 85 9a ee bd 1b c8 51 bb
       0.02117126 0.15582217 -0.11650566 -0.0032010141
0000b0 02 68 b6 bd e5 6a 89 bd e9 fe fd bc 7f bd 86 bd
       -0.08906557 -0.06709842 -0.03100534 -0.06579112
0000c0 8a db 03 3d 51 a6 52 bd 46 2e 66 bb 5d 4c e3 3d
       0.03219179 -0.051428143 -0.0035122796 0.110985495
0000d0 85 93 8a 3d ca 60 10 bd a7 11 1a 3e 6d 4c 6d 3d
       0.06766418 -0.035248555 0.15045796 0.057934213
0000e0 39 64 66 3d d3 be 66 bd a5 43 82 bd 9a 0d 95 bd
       0.056247924 -0.056334328 -0.063605584 -0.07277985
0000f0 be 03 6d bd b2 86 f7 3d 52 5d d3 bb 47 b9 ae bc
       -0.057864897 0.12086238 -0.0064503336 -0.021328581
000100 00 0a 7b bc b6 90 cd 3c 3f dd 37 3e 5b 98 b2 bd
       -0.015322208 0.025093418 0.17955492 -0.08720466
000110 66 1b b8 bd f1 96 2b bc 8f 69 c1 bd a3 3a 3b 3d
       -0.08989601 -0.010472999 -0.09443962 0.045710217
000120 c1 fc 50 bc 06 34 66 bd d2 69 91 bd 64 a1 be bb
       -0.012755574 -0.056201957 -0.07100262 -0.005817579
000130 fe d2 ca bd 5e 2b 1b bd be 48 9a bc d5 19 06 3b
       -0.09903525 -0.037883155 -0.018833514 0.0020462174
000140 7b aa 25 3b b6 19 f5 3c 59 fa e3 bd dc 6d 09 bc
       0.0025278616 0.029919486 -0.111317344 -0.008388009
000150 07 27 bc 3d a3 5b 06 bd b9 a3 d6 3c 1f 7f f5 3d
       0.091871314 -0.032802235 0.026201116 0.11987137
000160 0a 8f 9c bd 51 2d 8d bc bc 0e 8a 3c e8 ac c6 bd
       -0.0764447 -0.017233523 0.016852729 -0.09700948
000170 16 51 9d 3d 43 2b 46 3c 25 e9 86 bd 63 63 ae 3d
       0.076814815 0.012095275 -0.065874375 0.0851505
000180 15 36 7d bd 3d 3d 8f 3c ed 23 3a 3c 43 ca b4 3c
       -0.061819155 0.017485255 0.011361104 0.022069102
000190 6e 7a de 3d 26 08 bf 3d 71 78 86 3d f0 d8 1d 3e
       0.10863195 0.09327726 0.06565941 0.15414786
0001a0 85 9d 33 bd e9 e6 34 3e 2e ee 3d bd 18 28 0d 3d
       -0.043851394 0.1766621 -0.046369724 0.034462065
0001b0 e3 15 f0 3d ee 41 14 3d 9a c1 af 3c e5 10 1d bd
       0.117229246 0.036195688 0.021454621 -0.03834619
0001c0 e9 46 1e bd 90 1d 5a 3d 21 44 f6 bd a3 d3 bc bc
       -0.038641844 0.05325085 -0.12024713 -0.023050135
0001d0 9a b1 c5 bd c1 18 62 3e aa 05 c8 3c 20 d1 ba bc
       -0.096530154 0.22079755 0.024416763 -0.022804797
0001e0 62 28 19 bd a8 0c 34 3a 82 96 29 bd a3 b6 d4 bd
       -0.037392028 0.0006868341 -0.0414033 -0.10386398
0001f0 17 07 43 bd 69 28 19 3e 20 09 af 3d 43 71 a4 3d
       -0.047614183 0.14956822 0.08546662 0.080294155
000200 d3 86 62 3d ba 61 94 bd e4 21 d7 bc e6 15 77 3d
       0.05530436 -0.07245202 -0.026261277 0.06032362
000210 ab fc bf bd 7e 19 1e 3d 8a 05 c8 3d 58 1f 7e bd
       -0.093743645 0.03859853 0.097666815 -0.06204161
000220 52 15 f6 3d 50 83 ea bd 82 25 9e bc b1 43 06 bc
       0.12015785 -0.11450827 -0.019304994 -0.00819485
000230 99 63 d5 bd 64 5b 80 3c 49 30 43 bb 7e a9 a5 3c
       -0.10419387 0.015668578 -0.002978342 0.020222422
000240 e9 db 5e bd f3 23 a7 bd 69 e5 04 bd eb f4 52 3d
       -0.05440894 -0.08161154 -0.032445345 0.051503103
000250 b2 11 f0 bd c5 75 6c 3d 49 55 b8 bd ae d0 96 3d
       -0.11722125 0.0577295 -0.09000642 0.07364021
000260 28 8b b3 bc 2f 9c e3 bd 3a e5 89 bd 6b a1 ae 3d
       -0.02191694 -0.11113774 -0.067331746 0.08526882
000270 34 ac 39 3b 41 87 b1 3c 95 11 fd 3c f5 cd 5f 3d
       0.00283314 0.02167094 0.030892173 0.054639775
000280 1d 53 d6 bc af 08 84 bd 8a 64 f4 bc 91 5c 6d bd
       -0.026162678 -0.06446969 -0.029833097 -0.057949606
000290 ae 15 2e 3d 10 e5 38 bc 62 93 bc 3c b2 9a 93 3d
       0.042501144 -0.0112850815 0.023019496 0.0720724
0002a0 fc e2 33 bd 12 46 dd bd dd fd 02 3d cc cc c9 3d
       -0.04391764 -0.108043805 0.031980384 0.09853515
0002b0 50 55 70 3d e8 57 82 3d 96 94 80 bd 0b b0 92 3d
       0.05867511 0.06364423 -0.062783405 0.07162484
0002c0 8b b3 bf bd a0 7e 6d bd 88 07 c6 3d 5c d1 98 3d
       -0.09360417 -0.057982087 0.09669405 0.07461807
0002d0 c0 02 b2 3d 25 11 5b 3d 16 60 38 bd 14 d4 98 3b
       0.08691931 0.053483147 -0.04501351 0.0046639536
0002e0 cf 89 73 bd ed e4 32 bc b7 4c c2 3d e2 8b 42 3d
       -0.059457596 -0.010918838 0.094872884 0.047496684
0002f0 91 65 db 3d 3a 46 03 be 80 9f c1 3b 36 a1 86 bd
       0.10712732 -0.12819758 0.0059089065 -0.06573717

gru.bias_hh_l0 f4 [192]
000000 a4 16 13 3d 87 d5 f3 3d f3 21 ea bc 15 42 fa 3c
       0.035910264 0.119059615 -0.028580641 0.030549088
000010 a0 cc 59 bd c8 75 f2 3d f2 28 d9 bd 02 97 24 3e
       -0.05317366 0.11838871 -0.10603513 0.1607323
000020 d4 b0 4d 3d 89 4b 14 3d 01 82 34 3d 36 62 bc 3b
       0.050217465 0.03620485 0.044069294 0.0057490123
000030 04 28 f0 3d 0e ba c1 bd ea 5b 1e 3d f7 4f 25 bd
       0.117263824 -0.09459315 0.038661875 -0.040359464
000040 38 87 4b bd fe e9 35 3d de 8a a6 3d 1a cb 8c bc
       -0.0496895 0.044412605 0.081319556 -0.01718669
000050 d1 0b dd 3d 68 0e 54 3e f8 e1 44 bd b1 cd 33 3c
       0.107932694 0.2070862 -0.048067063 0.010974334
000060 9d ba 7b bd 1d 42 79 bd e5 f6 ae 3d 0a d4 d4 3d
       -0.061457265 -0.060854066 0.08543185 0.10392006
000070 a9 8b bd 3d be 65 e7 bd 6f 22 ac 3d c3 e9 69 bd
       0.09255154 -0.11298703 0.08405005 -0.0571077
000080 ef b7 5f bd f4 67 d7 3d 1d 01 4e bd 5c 8e 65 bc
       -0.054618772 0.10517874 -0.05029403 -0.014010992
000090 92 7c 20 bd 50 af 67 bd 82 a0 af bc c4 97 69 bc
       -0.0391813 -0.056563675 -0.02143884 -0.014257375
0000a0 59 72 73 bd 8b 13 de bb cc 2e 4e 3d 3d 30 bd 3d
       -0.059435222 -0.006777232 0.050337598 0.09237716
0000b0 b8 13 4a bd b5 84 8f 3d f2 ab 20 bd 38 d9 de bc
       -0.04933521 0.07007734 -0.03922648 -0.027203187
0000c0 da 12 b5 3d 92 6b 73 3c d5 ab 29 bc 0d 8d 86 bd
       0.08841486 0.01485719 -0.010355909 -0.06569872
0000d0 eb 7f ef 3d 61 45 3d bc 23 d2 ec bc 99 b1 db bd
       0.1169432 -0.011552186 -0.028908795 -0.107272334
0000e0 60 7f 00 3e 05 9a af bd 84 35 40 bd 81 13 29 bc
       0.1254859 -0.08574299 -0.046926036 -0.0103195915
0000f0 64 e7 2a 3d 03 0a cd 3d f3 d4 be bd 16 e0 b7 bd
       0.041724578 0.10011675 -0.093179606 -0.08978288
000100 28 14 ab bd 16 19 98 3d 89 1c 40 bd 60 47 30 be
       -0.08353454 0.0742666 -0.046902213 -0.17214727
000110 0b 06 c6 3b c0 9d 3e 3c 56 eb 81 3d 9e d7 c6 bc
       0.006043201 0.01163429 0.06343715 -0.024272736
000120 44 48 74 3c 63 61 53 bd 70 75 30 bc c4 d5 ca bd
       0.014909808 -0.051606547 -0.010770187 -0.09904054
000130 9d 1f 53 3c 8e d3 39 3d a8 b1 75 bd db d0 07 be
       0.012885955 0.04536777 -0.05998388 -0.13263266
000140 c9 fe ca bd 6b 0d 92 bd 79 f4 e6 bc c9 e4 19 3c
       -0.09911878 -0.071314655 -0.028192746 0.009392926
000150 19 0d 13 3d f8 f7 97 3d dc 4f 21 3d 7c 5d 3c 3e
       0.035901163 0.07420343 0.0393828 0.18395036
000160 e5 ef 39 3d 32 80 6f 3c ab 3d 1a 3d 4c dd 04 3e
       0.045394797 0.0146179665 0.037656467 0.12975043
000170 a8 a2 b2 3c 9a bc b6 3c 4a 78 b2 bc 6c dc c0 bc
       0.021806076 0.02230673 -0.021785874 -0.023542605
000180 c6 dd fc 3d 21 65 27 3e 4c 07 d3 3d 32 e1 b7 3d
       0.123469874 0.16347171 0.10304126 0.089784995
000190 25 ec 10 3e 0f 6e 9a ba 68 0a f2 3d 9d d2 51 3d
       0.14152582 -0.0011782068 0.11818391 0.051226247
0001a0 7c 0b 1f 3d 1b c1 3b 3e a4 02 0c bd 3f 3b 59 bd
       0.03882931 0.18335383 -0.034182206 -0.053035017
0001b0 c1 50 30 3e e4 63 8c bd 38 7b e1 bb 59 c5 2c bd
       0.17218305 -0.0685499 -0.006881144 -0.042180393
0001c0 bf eb 28 3d 1a cc 1e 3e 40 8c a2 bd 9c ec 5b 3c
       0.04124045 0.15507546 -0.07936907 0.013423111
0001d0 b8 63 90 3d 03 1d 13 3e 54 f3 c8 bd db 80 3d bc
       0.0705027 0.14366536 -0.09812036 -0.011566366
0001e0 bd 81 40 3d 55 eb 9a bd c8 42 19 3d 23 10 02 be
       0.046998728 -0.07564417 0.037417203 -0.12701468
0001f0 11 da 49 3d 2a 65 4a bc 8e 91 ee 3d d6 f4 a9 3c
       0.04928023 -0.012353221 0.11648856 0.02074663
000200 15 5f 18 3d 99 e1 40 bd f5 c5 ab 3d e1 ee 9f bd
       0.037200052 -0.047090147 0.08387367 -0.078092344
000210 93 91 18 3d 96 24 9f bd f5 cf ef bd 1c 8b e2 3d
       0.037248205 -0.0777065 -0.117095865 0.11061689
000220 1e 9a 87 bc d7 c2 92 bd 66 a7 ef 3d 9e 17 03 bd
       -0.016552981 -0.07166069 0.117018506 -0.032004945
000230 71 9f 2a 3d 22 b5 ac 3b b5 90 ba bd ff 4e db bd
       0.04165596 0.005270616 -0.09109632 -0.10708427
000240 68 3f bc 3b 9e ab 72 bd 22 41 00 3e 83 b0 4f bd
       0.0057448633 -0.0592457 0.12524846 -0.050705444
000250 63 fa b6 3d fd 9b 52 3c 15 41 41 3c 6c a6 01 3b
       0.08934476 0.012854573 0.011795302 0.0019783033
000260 62 2d 2f 3d ef 64 f8 bd 78 b8 db bb 79 70 06 be
       0.04276789 -0.121286266 -0.00670534 -0.13128842
000270 54 8b 03 be ca bb d6 bd f9 85 96 bd a0 25 c4 3d
       -0.12846118 -0.10485037 -0.07349772 0.09577489
000280 c8 ac 7f bd 41 a7 9d 3c 64 f3 ef bd 35 a4 f5 bd
       -0.062420636 0.019244792 -0.11716345 -0.11994211
000290 90 bb 43 3d 5e d1 20 bd 0c 1b 17 bd 10 b8 ce bd
       0.047786295 -0.039262168 -0.03689103 -0.10093701
0002a0 b1 d2 40 bd 61 df df 3d ed 30 ff bd 80 a4 cc 3d
       -0.04707593 0.10931278 -0.12460504 0.099923134
0002b0 67 69 7b bd e2 cd da 3c 34 fd 6f 3d 61 12 dc 3d
       -0.061379816 0.0267095 0.058591083 0.10745693
0002c0 88 14 56 3c 83 7d f8 3c 20 3c 19 3a a4 79 c0 bd
       0.0130664185 0.030333286 0.0005845446 -0.09398201
0002d0 fc 05 6a 3d 2b bf 27 3d f2 2a 85 3d 62 81 33 bd
       0.057134613 0.040953796 0.06502332 -0.04382456
0002e0 2b f2 ae bd 82 8d c2 3d da f3 ea bc 72 16 e0 bc
       -0.085422836 0.09499647 -0.02868073 -0.027354453
0002f0 7b fb 02 3e 8b 66 90 3d a3 1c 86 3d 90 4f 49 3d
       0.12791245 0.070508085 0.06548431 0.049148142

gru.weight_ih_l1 f4 [192, 64]
000000 2e 73 d9 bd 17 39 90 3d df 9a 76 bd eb 22 e6 bd
       -0.10617672 0.07042139 -0.06020629 -0.11237129
000010 b5 63 0f 3d 18 0c 8d bd 92 f4 4d 3d 55 fa 62 bd
       0.035007197 -0.06887072 0.05028207 -0.055414516
000020 ed 23 de bd 01 12 d8 3d fe 6a 1f 3e 85 9c 05 3d
       -0.10846696 0.10550309 0.15568158 0.03261997
000030 c0 c3 b5 b7 ca 88 54 3c 11 57 9b bc 86 d8 00 3e
       -2.1668035e-05 0.012972066 -0.018962415 0.12582597
000040 9c 97 83 3d 62 36 fd bd e0 0d 1c bd d5 f4 97 3c
       0.064254016 -0.12363888 -0.03809917 0.018549362
000050 aa a6 a9 3d c4 a6 ce bd 70 36 8b 3d 72 a7 9d 3d
       0.08283742 -0.10090402 0.067974925 0.07697953
000060 95 6a f1 bd 99 92 6b 3d 8c 9b 94 bc 4d c2 f4 3c
       -0.11787907 0.057512853 -0.018140577 0.029877806
000070 8b 26 88 bd e3 54 db bb dc de 3d bd e6 1a 8d 3c
       -0.066479765 -0.006693469 -0.046355113 0.01722474
000080 e3 9c 88 bc 9e 9e 5f 3d b3 53 05 be 56 62 51 bb
       -0.016676372 0.05459463 -0.1302021 -0.0031949482
000090 fd ac c7 3d b4 84 c0 bc fc 6b 87 bc 19 4f ef bb
       0.09749792 -0.023500778 -0.016530983 -0.0073031303
0000a0 64 ee 62 3d 8f 9a 03 3e 94 bf 29 be a4 15 1a 3d
       0.05540313 0.12851928 -0.16576988 0.037618294
0000b0 81 b4 35 3c db 87 2b 3d 94 d8 b0 bd c3 50 30 3e
       0.011090399 0.04187761 -0.08635059 0.17218308
0000c0 5b 01 44 3c c9 3a d9 3c 28 80 04 3e 12 cb e1 3c
       0.011963214 0.026517289 0.12939513 0.027562652
0000d0 b5 7f af 3d 41 69 4c bd 33 73 01 be ad d5 d1 bd
       0.0856928 -0.049905065 -0.12641601 -0.102458335
0000e0 b0 e8 08 3e da 05 db bc cf 5c 12 3e 47 ce d1 bd
       0.13370013 -0.026736189 0.14293216 -0.102444224
0000f0 7a c8 b3 bd 5b af 28 3e 93 07 d1 3c da 0d f7 bd
       -0.08778472 0.16473143 0.025516307 -0.12063189
000100 7e 9b bc 3d 70 ba 9f 3d d8 ed 08 3d af ee 96 bd
       0.09209345 0.07799232 0.03342995 -0.07369744
000110 72 cf 6d 3d da e5 93 bd 35 19 c9 bd eb 19 1a bd
       0.058059163 -0.07221575 -0.09819261 -0.037622374
000120 64 ad 0a 3d d2 f9 a4 bd fe 71 09 bd 4a a7 40 bd
       0.033856764 -0.08055462 -0.033555977 -0.04703454
000130 86 f7 ad bc ad 5b 37 bd 2c 8e 37 3d 1b 9f c3 bc
       -0.021236192 -0.044765163 0.04481332 -0.023879578
000140 41 8e 32 bd 43 eb 22 bd fe 70 08 bd db 63 9c bc
       -0.043592695 -0.039775144 -0.033310883 -0.019090584
000150 28 12 fe 3b 1d 94 4f 3d 29 ae e1 bc 79 2c 9e bc
       0.0077536292 0.05067836 -0.027548866 -0.019308316
000160 3b 85 aa bc 9a 02 d3 3d e9 51 97 bd 9b 24 cf bc
       -0.020815482 0.103032306 -0.0738867 -0.02528601
000170 8f 9b 65 3d 46 e1 eb b9 52 95 f3 3d 1d b8 36 bc
       0.056056555 -0.00044990535 0.11893715 -0.011152294
000180 e1 07 fa bd 0c 88 2c bd 5b 00 72 bc df 48 a6 bd
       -0.12208534 -0.042121932 -0.014770593 -0.08119368
000190 9a 7a 8e 3d 51 20 95 bc 11 a6 f2 bd 62 29 39 3c
       0.06956978 -0.018203886 -0.11848081 0.01130137
0001a0 bb ce 24 3d 54 fc a6 3d 7c 23 e4 bd 86 7a ba 3d
       0.040236216 0.081535965 -0.111395806 0.09105401
0001b0 ba fe 1c 3c cd cd af bd 09 0a 48 bc 96 75 62 3d
       0.009582216 -0.08584175 -0.012209424 0.05528792
0001c0 fd a4 96 3d 6b 52 d0 bd 95 1b 7c bd c1 a2 39 bc
       0.07355688 -0.1017197 -0.06154974 -0.011330307
0001d0 02 56 f6 3d ff c7 b0 bd 6a 46 4b bd 6e 62 d2 3d
       0.120281234 -0.08631896 -0.0496277 0.1027268
0001e0 1d 9b 6d bd 66 16 31 bd 0e 7e b5 3d 5d 8c 06 3e
       -0.058009256 -0.04323425 0.08861934 0.13139482
0001f0 f2 66 dd 3d 26 1d 95 3d f8 fb 35 3d 20 8a e2 bd
       0.10810651 0.0728095 0.04442975 -0.110615015
000200 81 38 9b bd 14 93 e6 bd c8 3d d0 bd 37 49 3d 3d
       -0.07579137 -0.11258522 -0.10168034 0.0462124
000210 00 3b 1a bc ae f8 9e bd 04 d5 bf bd e6 e7 8c bd
       -0.009413481 -0.07762276 -0.093668014 -0.068801686
000220 3c 14 bb bd 27 bc f1 bd e3 4d 82 bc 24 e4 58 3d
       -0.09134719 -0.11803465 -0.01590628 0.052951947
000230 a0 be 53 bd 37 2b c0 3d 61 5a d5 3d e8 5b 71 bc
       -0.051695466 0.093832426 0.10417629 -0.014731385
000240 f6 60 6d 3d e7 b0 67 bd 1f 47 7e 3c 0e 97 e3 bd
       0.057953797 -0.05656519 0.015519886 -0.11112796
000250 97 7a f3 bd 16 61 df bd 0e 37 d4 3d f2 76 76 3d
       -0.118886165 -0.109071895 0.10362063 0.06017203
000260 de bb c0 bc a9 67 b4 3d dd f7 2a 3d f6 c6 39 bd
       -0.023527082 0.08808834 0.041740287 -0.04535576
000270 2d 4d ae bd ff 96 b1 3d cb c3 b6 bd e7 04 40 bd
       -0.08510814 0.08671378 -0.08924063 -0.046879675
000280 ad 01 d6 3c 80 db e9 bd 25 3a 24 bc b2 e4 db bd
       0.026123846 -0.114188194 -0.010023628 -0.107369795
000290 f2 e8 91 3d b8 9c 55 bd 6b 97 5e 3d 73 06 c0 bd
       0.07124509 -0.05215141 0.054343622 -0.0937623
0002a0 ac 86 5f 3d b8 3c 54 3d a0 d3 8d 3d 75 0e 8b bd
       0.054571792 0.05181572 0.0692513 -0.06789867
0002b0 ec 2c a3 bd b2 ee 7a bd 8b cd d6 3b 9b a1 cf bd
       -0.079675525 -0.061262794 0.0065552644 -0.10138246
0002c0 6f d9 3b 3d 73 05 d8 3c 7e 3a 9b 3d 72 3f 25 bd
       0.045861658 0.026369786 0.07579516 -0.04034371
0002d0 c9 6c b1 bd 45 c1 10 bd 41 49 06 3e 42 ac 1e bd
       -0.08663327 -0.035340566 0.13113882 -0.038738497
0002e0 a7 16 78 3c 87 74 fa 3c 74 3b e0 3d 51 ec f5 3d
       0.0151421195 0.030573143 0.1094884 0.120079644
0002f0 96 f3 40 3c d0 41 8d 3d c6 84 d1 3d b2 02 89 3c
       0.011776825 0.06897318 0.10230403 0.016724918
000300 c2 46 f3 3d ff dc f4 bd 5e da 19 3d e3 8a 54 bd
       0.1187873 -0.11956214 0.037561767 -0.051890265
000310 b1 ff 99 bd e7 43 50 3c c5 1a d5 bc 23 20 ad bd
       -0.075194724 0.012711502 -0.026013741 -0.08453395
000320 11 ea 60 bd f0 23 9f bc 4f 9a f6 bd bb a4 2e bd
       -0.054910723 -0.019426316 -0.12041151 -0.042637568
000330 71 bd b3 bd 9e e9 f4 bd 84 f4 01 be 55 f4 48 bc
       -0.087763675 -0.119586214 -0.12690932 -0.012265285
000340 74 ac dc bd 5f 3a cf 3d c4 d9 5d 3d d6 bf 58 3d
       -0.1077508 0.10118555 0.054162756 0.052917324
000350 7c 63 e3 bd 1f c1 05 3d 44 82 3c 3d a5 ad aa bd
       -0.111029595 0.032654878 0.04602267 -0.08333901
000360 14 0f c1 3d 5e 1f eb 3b 70 6b 26 3d 1f 51 38 3d
       0.09426704 0.00717537 0.040629804 0.044999238
000370 0b 38 cc 3c 6b b2 be bd d6 f4 86 bd e7 2e bd 3d
       0.024929067 -0.09311374 -0.065896675 0.092374615
000380 49 94 02 3e 91 fe 7e bd 15 37 0b 3d 7c 2c db 3d
       0.12751879 -0.062254492 0.033988077 0.10701844
000390 75 5b 44 3d 90 d0 07 bd 17 a0 a2 3c 43 63 4f bd
       0.047938783 -0.033157885 0.019851727 -0.050631773
0003a0 86 46 f6 bc ff ce f1 bb f8 15 07 3d f2 f7 df bd
       -0.030062925 -0.007379412 0.032979935 -0.10935964
0003b0 7a d2 6c bd 61 3e d5 bd 4e 88 93 3d fa d7 eb 3d
       -0.057817914 -0.104122885 0.072037324 0.11515804
0003c0 8a 93 0b 3c 6e 3a b7 bd e3 ec 74 3d 74 9c 94 3d
       0.008519063 -0.089466915 0.059796225 0.072564036
0003d0 e2 b6 fb bb a4 21 b8 3d 1a 09 ed bd 8a 60 e8 bd
       -0.0076817134 0.089907914 -0.115740016 -0.11346538
0003e0 77 52 a0 bd 9e 2e af bd ad 9f b0 bd 58 92 cd 3d
       -0.07828229 -0.085538134 -0.08624206 0.100376785
0003f0 f9 6e 9e bd 5c 7c 19 3d 06 46 e5 3d da 7a 64 3d
       -0.0773601 0.037472114 0.111949965 0.055781223

gru.weight_hh_l1 f4 [192, 64]
000000 e9 61 ed 3d f3 26 0c be 90 d5 a4 bd ab e5 09 be
       0.115909405 -0.13686733 -0.08048546 -0.13466518
000010 63 93 2a bd c4 82 cb 3d ee 5e 2b be 14 00 83 bd
       -0.041644465 0.09937051 -0.16735432 -0.06396499
000020 ec a0 cf bd dd 56 a1 3d 55 f9 7e bd 42 41 41 3e
       -0.10138115 0.07877896 -0.0622495 0.1887255
000030 ce 82 08 3e 1b fe 0d bd 6f 47 15 be 83 90 df bd
       0.13331148 -0.034666162 -0.14578031 -0.10916235
000040 ec 28 06 3c c1 fb 14 3e 32 bc a7 3c e3 dd 83 bd
       0.0081884675 0.14549161 0.02047548 -0.06438806
000050 2e 93 66 bd db 39 d4 bd 01 d0 a7 3d 40 68 26 be
       -0.056292705 -0.103625976 0.081939705 -0.16250706
000060 e5 1b 6b 3d 8d 13 90 3d 51 59 0c bd 7f 48 ad bd
       0.05739965 0.07034979 -0.034264866 -0.08461093
000070 20 d4 a1 bd f1 10 6a 3d ba f8 1a bd d6 23 0a be
       -0.07901788 0.057145063 -0.03783486 -0.13490233
000080 c3 b5 2d 3d 9b a2 39 bc 4d 1a 46 bc 42 3c e3 3d
       0.04240967 -0.011330272 -0.0120912315 0.11095478
000090 33 f0 3b bd 66 fb 8a bd 50 52 a8 bd 49 a1 9f 3d
       -0.04588337 -0.06786232 -0.08218825 0.077944346
0000a0 0f 56 d5 3d 20 a7 cb 3c fe f1 c0 bd b3 d7 e6 3c
       0.10416805 0.024859965 -0.09421156 0.028179025
0000b0 44 f4 3c 3e 0c 06 98 3d e8 2f 96 3d 59 a4 1e bc
       0.18452555 0.07423028 0.07333356 -0.009682738
0000c0 93 5b 31 bd 12 0c 29 be 89 a4 dd 3d 6e 3d 86 bd
       -0.043300223 -0.1650851 0.10822398 -0.065546855
0000d0 66 eb 49 3e 77 92 b7 3b 29 32 12 3e 76 5d 21 bd
       0.19718704 0.0056021768 0.14276947 -0.039395772
0000e0 36 da 3e 3d 32 8f 40 be 80 7b 2e bd 63 28 b7 bd
       0.04659482 -0.18804625 -0.042598248 -0.0894325
0000f0 84 2c 09 3e c9 cb 00 3e 6b 54 92 3d 07 36 bd bd
       0.13395888 0.12577738 0.07145008 -0.092388205
000100 e0 80 e6 bc b8 a1 30 3c 07 4d 45 bd 32 12 a5 3d
       -0.028137624 0.010780744 -0.048169162 0.08060111
000110 5c a7 84 3d bf 2e 51 3d 48 a9 6a 3d 77 24 08 be
       0.06477234 0.05106997 0.057290345 -0.1329516
000120 1d 36 f4 bd 8c fb 94 3d 71 f2 ca 3d 92 de a0 bd
       -0.11924384 0.07274541 0.09909523 -0.07854952
000130 74 6e 8d bd 96 42 87 bd fa 62 ad bd 73 a7 55 3c
       -0.06905833 -0.06604497 -0.08466144 0.013040411
000140 26 fb e1 bd 1b c6 0f 3e 7f c9 82 3d 9b dc 01 3e
       -0.11034231 0.14040415 0.063860886 0.1268181
000150 8a 96 c7 bd fe 57 29 3c df 99 9e 3c 2c c6 b1 39
       -0.0974551 0.01033592 0.01936048 0.0003390772
000160 d4 4b f1 bc 21 47 b8 3d 45 95 9f bc 61 8e 77 bd
       -0.029455103 0.08997942 -0.019480357 -0.060438517
000170 0d 7a a3 3d a1 3e 70 3d 84 2c 16 be e7 d0 5c bd
       0.07982264 0.058653478 -0.14665419 -0.053910162
000180 cd ce 3c 3d 17 ed f8 3c 31 68 44 bd 9e a5 5f bd
       0.046095658 0.03038649 -0.047950927 -0.054601304
000190 9a 04 01 be 1b 34 4f 3d 4f 79 30 3d 6e 21 2f bc
       -0.12599412 0.0505868 0.04308444 -0.010689123
0001a0 a8 6b 9a 3d 4e 88 7b 3d 8e 12 60 bd 83 13 4e ba
       0.07540065 0.061409287 -0.054705195 -0.0007861184
0001b0 35 04 ea 3d 8a 57 c8 bd 64 f3 b4 3d 58 48 78 3c
       0.11426584 -0.09782322 0.088354856 0.015153967
0001c0 a6 2c 4a 3d ad e2 f1 bc 90 8d dc 3c 99 59 ac bd
       0.049358986 -0.029527033 0.026922971 -0.08415527
0001d0 a5 b0 eb 3d e3 a9 7b bd 23 0e c3 3c 53 b0 44 3d
       0.11508302 -0.061441313 0.023810452 0.04801972
0001e0 2a 1f dc bc 54 5e 70 3c 35 10 80 3d 06 6f e9 3c
       -0.026870329 0.014670927 0.06253091 0.028495323
0001f0 17 86 0c be d8 4c 48 3d 6d f9 ea 3c bf 4f c4 bd
       -0.13723026 0.04890141 0.028683389 -0.09585523
000200 7c fb e0 3b b9 06 80 bd d2 5a ef bc 3b 70 b3 3d
       0.006865917 -0.06251282 -0.029218111 0.08761641
000210 62 6a 68 3d 7e 18 75 3c 7d 6d 8e bd 35 e3 b9 3d
       0.05674208 0.014959453 -0.06954477 0.090765394
000220 05 0c 8b bd 08 a7 3d 3d 7f f9 05 bd b1 a0 fe bc
       -0.06789402 0.04630187 -0.03270864 -0.031082483
000230 a5 37 8b bd 1c 80 00 3d ab 24 07 bc 80 1a b9 3d
       -0.06797723 0.031372175 -0.008248488 0.090382576
000240 f7 29 9f bd df 55 bb bd 44 b2 f7 3d a0 be f8 bc
       -0.07771676 -0.09147238 0.12094548 -0.030364335
000250 1a b8 80 bd 05 e5 34 bd 24 41 9a 3d 56 38 18 3d
       -0.062851146 -0.044163723 0.07531956 0.0371631
000260 34 8b 0a 3d b4 bf 86 bd bb 34 ec 3d 04 8f da 3c
       0.03382416 -0.06579533 0.11533495 0.026679523
000270 30 fd 24 bd 0c ec 51 3c f7 7b 8f 3d f7 25 d1 bd
       -0.04028052 0.012812626 0.07006066 -0.10212319
000280 cc 95 0b 3d df 95 a7 bd 07 50 ba 3c a5 fb 9a 3c
       0.034078404 -0.081828825 0.022743238 0.018918822
000290 f1 57 cd bc 66 2a d0 bd cd cc c6 3d 2d 2d 1c bd
       -0.025066348 -0.10164337 0.097070314 -0.03812902
0002a0 a6 50 e1 bd 4f 35 f6 bd e7 ab 8e 3d 0b 45 9e 3d
       -0.110017106 -0.120218866 0.069663815 0.07728013
0002b0 2a 28 be 3d 92 f9 8b 3d 35 9a d5 3d 6a 03 f4 bc
       0.092850044 0.06834711 0.10429803 -0.029786784
0002c0 8d ab 3d bd 98 56 b7 bd 51 9b 55 3d d3 f8 ba 3d
       -0.04630618 -0.08952063 0.052150074 0.09129491
0002d0 91 10 7b bd 9a 6a ab bd 12 1b c1 bd 74 82 4d 3d
       -0.061295096 -0.08369942 -0.094289914 0.050173238
0002e0 cc 8c b5 bd ac 1c 4a 3d 49 20 e0 3c f0 45 5d bc
       -0.088647455 0.04934375 0.027359145 -0.013505444
0002f0 ac d4 01 3c ba c1 bf 3d 07 ac ea 3c dd 4e 18 bd
       0.00792424 0.09363122 0.028646482 -0.037184585
000300 f7 69 52 bd e8 0b b1 bd 1c 45 ff bd a7 58 8e 3b
       -0.051370587 -0.08644849 -0.124643534 0.0043440643
000310 00 58 c3 3d 2e d8 1b bb 06 af 0f 3d cc a8 10 bd
       0.09538269 -0.0023779976 0.035079025 -0.035317227
000320 49 54 a9 bb c1 16 11 be 5a 5c b1 bd 6f 36 6a 3c
       -0.0051675183 -0.14168836 -0.08660193 0.014295205
000330 4a c1 e1 3d 9a d1 ea bc 59 85 bf 3d 8e 08 0b 3d
       0.11023195 -0.028664399 0.09351606 0.033943705
000340 a9 5f ab 3d 5d f9 5b 3d b7 c3 84 3d 52 24 36 bd
       0.08367855 0.05370461 0.06482642 -0.04446823
000350 05 10 7f bd e6 bf d3 3d d9 6d 57 3d e7 c5 0e 3d
       -0.062271137 0.10339336 0.052594993 0.034856703
000360 66 09 6f 3d 80 17 59 bd 85 dd 85 3d 65 29 73 3d
       0.058358572 -0.053000927 0.06536392 0.05936565
000370 9d fe 03 bd 2a fa e6 bd a8 0d 96 3d ac 44 f2 3d
       -0.03222524 -0.11278184 0.073268235 0.11829504
000380 9d 57 89 bd 3c e0 10 be c1 1b b8 bd ea 75 ce bd
       -0.06706164 -0.14148039 -0.08989669 -0.10081084
000390 7f 45 6b 3d e1 52 07 3e 31 61 3a bd 9a 87 e6 bc
       0.057439324 0.1321521 -0.045502845 -0.028140832
0003a0 ed e9 08 bd a0 68 0b 3d 38 d6 fb bd 39 ce 4e bc
       -0.033426214 0.034035325 -0.12296718 -0.0126224095
0003b0 02 56 0e bd 52 b8 ba bd 82 92 e5 bd 67 8d 8d bd
       -0.034749992 -0.091171876 -0.11209585 -0.06911736
0003c0 06 43 dd bb 19 24 47 bd 8b d6 92 3d 77 ff 8e bd
       -0.0067523746 -0.04861841 0.07169827 -0.0698232
0003d0 5b 1f 7c bc 9d 35 53 3d ba e3 fb bd 63 f4 1c 3d
       -0.015388335 0.0515648 -0.12299295 0.038319003
0003e0 73 f1 6d 3d f1 e5 50 3d d6 7d 26 bd e3 1f 9b 3d
       0.058091592 0.05100054 -0.04064735 0.07574441
0003f0 0c 77 f1 bd 97 e1 cb bd 9c 82 0c be 83 4e ad 3d
       -0.117902845 -0.09955137 -0.13721699 0.084622405

gru.bias_ih_l1 f4 [192]
000000 d6 5c 86 bd f8 68 9c 3d 5e ef a7 bd 4c c4 ee 3d
       -0.06560676 0.07637209 -0.081999525 0.116585344
000010 6c b1 af 3d 1c 1a 48 3b 31 4e cb bd f7 e0 ad bd
       0.085787624 0.003053314 -0.09927023 -0.08490174
000020 2e af d6 3d 8f 11 93 bd 60 28 87 3d 2e a3 f9 bc
       0.104826316 -0.071810834 0.06599498 -0.030473318
000030 e3 98 79 3c f7 8d ef 3c 85 42 d4 3d b4 ca 7a bd
       0.015234205 0.029242499 0.1036425 -0.06122847
000040 07 8c e0 bb 13 90 ae 3d ec 3b 76 3c 1b 25 8b bd
       -0.00685263 0.08523574 0.015028935 -0.06794187
000050 e1 4e 44 3d 56 70 82 bd dd c3 b1 bd 5e 3a f1 bb
       0.047926787 -0.06369083 -0.08679936 -0.0073616942
000060 c0 ec ac 3c 29 6d 35 bd 1d 9d cb 3d 10 fc ba bd
       0.021108985 -0.044293556 0.09942076 -0.09130108
000070 bd c4 af 3d 13 a3 28 3c 89 91 26 3d 3d 10 04 3e
       0.08582447 0.010292786 0.040666137 0.1289682
000080 9e d8 10 3d fa 02 88 3d 81 0f b4 3d 07 8a d4 3d
       0.035362832 0.06641193 0.0879202 0.10377889
000090 84 8e be ba f1 c5 a3 bd e6 fd db 3d 28 85 c4 bd
       -0.0014538323 -0.07996739 0.10741787 -0.0959571
0000a0 7b 57 bb 3d a9 9c 7d bc d3 98 4f bd 81 ae ce 3d
       0.09147545 -0.015479245 -0.050682854 0.10091878
0000b0 ad 4d af bd e3 39 e6 bd d0 74 cf 3d 10 c1 01 3e
       -0.08559737 -0.1124151 0.10129702 0.12671304
0000c0 8d a4 d9 3c 27 4a c5 bd 17 88 8b 3a 9d e4 c5 bd
       0.026567722 -0.09633284 0.0010645416 -0.09662745
0000d0 69 40 01 bd 0b 9c 3b bc 25 15 79 bd a1 ee 5f 3d
       -0.031555567 -0.011450778 -0.06081118 0.054670934
0000e0 6b 6e be 3d d2 f6 09 3d 55 75 a2 bd e0 14 3c 3d
       0.09298404 0.03368265 -0.079325356 0.045918345
0000f0 57 27 3a 3d 19 b5 d8 bb 77 8a 3c bd 44 e5 04 3d
       0.045447674 -0.0066133854 -0.046030488 0.032445207
000100 52 73 00 bc 5c 87 04 3e 30 48 e7 3d 84 5e cf 3c
       -0.0078399945 0.1294226 0.112930655 0.025313623
000110 fe 40 31 bd 04 5b 59 3d 1b 82 99 bd 61 22 10 3e
       -0.043274872 0.053065315 -0.07495519 0.14075615
000120 61 c5 0f 3e de f4 9e bd 23 3a 80 bd 3e c6 b7 bc
       0.14040138 -0.077615485 -0.06261089 -0.022433396
000130 83 f1 4d bd d1 84 94 bd 62 47 9d 3d ca ed 4c 3d
       -0.05027915 -0.07251895 0.07679631 0.05003146
000140 eb f1 f9 bc af da 40 3b 7c d4 06 3e 85 0b 10 3d
       -0.030510863 0.002942722 0.13166994 0.035167236
000150 7f 27 9c bd 68 a0 02 3d b7 d5 ae 3d 0e 10 96 bb
       -0.07624721 0.031891257 0.085368566 -0.0045795506
000160 0b bc d8 bc 8b 26 51 3d 87 93 59 bd d8 a3 b9 3d
       -0.026456853 0.051062148 -0.05311921 0.09064454
000170 4d 7d dd bd a4 a0 93 3d 73 f3 fe 3d 32 4c c3 3d
       -0.10814915 0.07208374 0.12448778 0.095360175
000180 96 58 ec bb 57 81 36 3d 40 b3 32 3d 84 f8 a9 bc
       -0.0072127087 0.04455694 0.043627977 -0.020748384
000190 ed 26 d3 3d 7c 47 0a 3e 9c f5 6b 3b c3 8f ce bc
       0.10310159 0.13503832 0.003600455 -0.025215035
0001a0 ff c2 bb 3d 42 f7 b0 3d 1d 6b f3 3d 68 a6 8a bd
       0.09168052 0.08640911 0.118856646 -0.06770021
0001b0 36 c2 2b 3e 1b e9 f2 3d e2 53 75 bd 52 20 08 3e
       0.16773304 0.118608676 -0.05989445 0.13293579
0001c0 11 ce 28 bb ab 8b f5 bc 62 e1 05 bd bb bf 11 3d
       -0.002575759 -0.029973825 -0.032685645 0.03558324
0001d0 9d 80 ec 3d 4a 5c 51 3d a2 c3 b2 3c 1c 09 c5 bc
       0.115479685 0.051113404 0.0218218 -0.024052195
0001e0 a6 d8 c7 bc ee 94 03 3e 4b c1 ae 3d db 1b b6 3b
       -0.024395298 0.12849781 0.085329615 0.00555752
0001f0 e0 1b 59 bd 4d 84 e2 bd da c2 e7 3d 8e 70 d4 bd
       -0.0530051 -0.110603906 0.11316462 -0.103730306
000200 9c d3 df bc 11 45 bf 3d d1 8b a1 bd 60 42 11 3c
       -0.027322583 0.09339345 -0.07887996 0.008865923
000210 a2 fc 8a bc a1 9c de bd 4d 10 e8 bd 64 68 b8 3d
       -0.016966168 -0.10869718 -0.11331234 0.09004286
000220 14 8a 7a bd 23 40 95 bd 9d 79 6f bd fe 6b 0c 3d
       -0.061166838 -0.07287624 -0.05846559 0.034282677
000230 56 6f fd 3d ab fd b8 3d 9f fc 8a 3c 93 da ab bb
       0.12374751 0.09032758 0.016966162 -0.005244562
000240 e1 a4 0b bd be f4 73 3c e5 51 a7 bd 5a 28 84 bd
       -0.034092788 0.014889894 -0.08169917 -0.06453009
000250 8a 95 73 3d 91 b1 41 bd 41 09 ec bd 59 b6 b1 bd
       0.059468783 -0.04728848 -0.115252025 -0.08677358
000260 80 15 00 be 4b 6d ae bc fa 35 36 3d cb e3 d6 3d
       -0.12508202 -0.02129235 0.04448507 0.10492667
000270 a9 0e 90 bc 1e 0c 00 3e be 88 ec bd b4 6a 6d bd
       -0.017585116 0.12504622 -0.11549519 -0.05796309
000280 5f bc da 3d b1 0b 9b 3c 0b a8 83 bd 5c 2d 14 3d
       0.1068046 0.018926473 -0.06428536 0.03617607
000290 03 5d 05 3d e8 c2 d6 bc 51 b3 9d bd dd 95 81 3d
       0.032559406 -0.026215985 -0.077002175 0.06327412
0002a0 f2 9b d7 3d ff 02 94 3d 1f 5a 6c bd 61 01 3f bc
       0.10527791 0.07227134 -0.057703134 -0.011658044
0002b0 2e 23 5c bd cd 50 9b bd bb c0 c0 3d b8 ba 89 3d
       -0.053744487 -0.07583771 0.094117604 0.06725067
0002c0 ad c3 d1 3d 70 77 bd 3d 84 3e 1a 3a 75 0c 56 3d
       0.102424 0.092512965 0.00058839493 0.052257974
0002d0 a6 e6 71 3d f5 39 c0 bd b0 29 1d 3c ca 78 95 bd
       0.059057854 -0.093860544 0.009592459 -0.07298429
0002e0 69 bb 11 3c 17 92 1f bd b6 2e e3 bc 21 47 ac bc
       0.00889478 -0.03895768 -0.027732234 -0.02103001
0002f0 1f 97 d2 bd 31 9d 48 bd 30 97 84 bb 65 c3 28 bd
       -0.1028273 -0.048978034 -0.0040463433 -0.041201968

gru.bias_hh_l1 f4 [192]
000000 44 b7 bf bc f9 ae 80 3d 6b eb f5 bc ee f9 78 3d
       -0.023402818 0.062833734 -0.030019483 0.060785227
000010 ce 68 cd bb bf ef 63 bc 64 c3 61 3d eb cb 51 3c
       -0.006268597 -0.01391214 0.05511798 0.0128049655
000020 59 de db 3c 99 88 08 3d 63 06 45 3c 24 e1 ac 3d
       0.026839422 0.033333395 0.0120254485 0.0844138
000030 7b de 8b 3d 53 a9 96 3d fd 44 00 3c c4 c2 a3 bd
       0.06829544 0.07356515 0.007828948 -0.07996133
000040 dd 9f f1 b8 ad 82 fd bd 3d 02 e5 bd 4f 89 2f 3d
       -0.000115215524 -0.1237844 -0.111820675 0.042855557
000050 37 5a 16 3d 2e 8f 1a bd ec de 03 3e f5 89 84 bb
       0.03670713 -0.037734203 0.12878007 -0.004044766
000060 81 b8 99 bc cb 11 94 bd b5 f1 ee bd 78 c3 49 3d
       -0.018764736 -0.07229956 -0.11667196 0.04925868
000070 e1 9c b2 bd 69 af e7 bd e8 f3 8b bd 25 97 78 bd
       -0.087213285 -0.11312754 -0.06833631 -0.060691018
000080 83 80 b2 3d ea c1 08 3e f3 e3 05 3e 4f 61 ee 3d
       0.08715918 0.13355222 0.13075237 0.11639654
000090 a5 0a 61 bd c6 36 4e bd fb 0b 6f bd ce b8 21 3d
       -0.054941792 -0.050345205 -0.058361035 0.039482884
0000a0 c3 59 45 3d f6 87 d4 bd be b7 cd 3d 82 1a e1 3c
       0.048181307 -0.10377495 0.10044812 0.02747846
0000b0 eb df ba bb 80 b4 0d 3d ae 62 06 3e 47 5d a4 bd
       -0.0057029626 0.034595966 0.13123581 -0.08025604
0000c0 49 ae d8 bd 50 38 48 3c d3 2e 62 bd 71 b4 88 bd
       -0.10580117 0.012220457 -0.055220436 -0.066750415
0000d0 d6 0e 4f bd 8f 4d 0a bc b0 32 55 3c 18 88 dd 3c
       -0.050551258 -0.008441343 0.013012573 0.027042434
0000e0 66 a3 3f 3d 2e 52 a9 3d f7 07 04 bd 6c 8f 1b 3c
       0.04678669 0.08267628 -0.03223416 0.009494644
0000f0 00 6a 38 bd fb 46 a3 bd 2d a0 84 bc f1 29 1c bd
       -0.045022964 -0.07972523 -0.016189659 -0.038125936
000100 6b 08 da 3d 8c 6c 2d bd b4 5a ec bd b4 4e 59 3c
       0.10646137 -0.042339846 -0.11540738 0.013263393
000110 80 60 d3 bd 65 df 12 3d 7b b5 4c 3c 6d 05 76 bd
       -0.1032114 0.035857577 0.01249444 -0.06006377
000120 6d 46 46 3c f5 bb 6a bc b9 3a 34 3e 75 5d 0b 3e
       0.012101752 -0.014327039 0.17600526 0.1360987
000130 6b 44 e9 bc 81 18 3f bd 78 d4 1f 3d a9 8b 79 bd
       -0.028475007 -0.046654228 0.039020985 -0.060924206
000140 3d d5 9d 3c ed 25 1b 3e 7e 20 55 39 a4 3e 86 bd
       0.019266719 0.15151186 0.00020325367 -0.065549165
000150 0f db 88 bc e3 7d 38 3e d8 3c 11 3d 07 9d 89 bd
       -0.016706018 0.18016772 0.035458416 -0.06719404
000160 38 bd d7 bd 59 e3 13 3e 8f fa 1b 3e b9 5a 95 3d
       -0.105341375 0.14442195 0.152323 0.072926946
000170 5f 2e 82 bd d7 fd 72 3d 69 af 22 3e df fd fc 3a
       -0.06356501 0.05932411 0.15887226 0.0019301734
000180 7a 04 f9 3d 34 b3 fe 3b 0e af e9 3d 93 d7 de 3d
       0.12159057 0.0077728275 0.11410342 0.10880961
000190 21 81 ac 3d e8 49 2a 3e f5 53 32 3e 70 2e 3b 3d
       0.08423067 0.16629755 0.1741484 0.045698583
0001a0 bc 4b 87 bd cd 65 ad 3c 30 ee 5f bd b9 a6 d5 bc
       -0.06606242 0.021166706 -0.054670513 -0.026080476
0001b0 ef 0a 61 bd c7 0b b8 3d c3 d7 f6 bc 88 6b 69 3d
       -0.054942068 0.08986621 -0.03013218 0.056987315
0001c0 1e e5 47 3b f0 6e c2 3c c6 5c e1 bc 9f 29 54 bd
       0.0030501555 0.02373454 -0.027510058 -0.051797505
0001d0 e0 1d 0e 3d 58 a6 79 3d a5 e0 86 3a ce 19 96 bc
       0.03469646 0.060949653 0.0010290338 -0.018322852
0001e0 f5 37 a1 bd cd bb e9 3d b6 89 83 bd 94 b5 09 3e
       -0.07872001 0.11412773 -0.06422751 0.13448173
0001f0 ba be fc bd 73 3d 1d bc 5e 30 90 bc 62 66 81 3c
       -0.12341066 -0.00959717 -0.017601188 0.01579589
000200 88 ac c8 3b b0 5c 4d bd af b1 0b bd 24 7f 75 3d
       0.006124083 -0.05013722 -0.034105 0.059935704
000210 fc 2f 74 3d 2c 8b ee bd f8 ff c2 3c 57 8f cf bd
       0.059616074 -0.11647639 0.023803696 -0.10134762
000220 59 0b e2 bd 48 79 b8 3d ad 34 c9 3b 6b 16 c0 3d
       -0.11037321 0.090075076 0.0061403126 0.09379276
000230 a1 7e 7b bd 9d 86 aa 3d 44 80 19 bd dd 6c fd bc
       -0.06140006 0.08326457 -0.03747584 -0.0309357
000240 5f c3 18 3d d5 35 95 3d 51 6c a8 3d f0 c2 54 3d
       0.037295695 0.07285658 0.08223785 0.05194372
000250 b6 4a 4f bd 24 b2 e5 3d 34 23 11 bd 38 5c c7 bd
       -0.05060836 0.11215618 -0.035433963 -0.09734386
000260 74 22 89 bd 72 27 94 3d 8c 15 84 3d 6f 99 89 bd
       -0.066960245 0.07234086 0.06449422 -0.06718718
000270 06 50 03 bd 54 94 ee 3d ea 54 ce 3c c0 e7 53 3d
       -0.03205874 0.11649385 0.025186975 0.051734686
000280 62 75 0c bd 0e b0 83 3d bf e0 58 bd 71 c0 ce 3c
       -0.034291632 0.06430064 -0.05294871 0.025238248
000290 71 23 f3 bb b3 f9 f4 3d 0e ea 98 3d e1 21 cb 3d
       -0.0074199964 0.11961689 0.074665174 0.09918571
0002a0 48 e8 8d 3d 33 0e 71 bd ef 26 04 bc c2 aa 6f 3d
       0.0692907 -0.058851432 -0.008065923 0.058512457
0002b0 96 e0 df 3d 91 22 94 bc bc c8 eb bd 17 df 7e 3d
       0.10931508 -0.018082889 -0.115128964 0.062224474
0002c0 a6 9c 1a bd d8 60 69 3d ea a0 6e bd 70 d7 71 3d
       -0.037747048 0.056977123 -0.05825893 0.059043348
0002d0 d8 27 f2 bd 6c cd a5 bd 43 bb f0 bc 3d 02 2d bd
       -0.11824006 -0.08095822 -0.029386168 -0.042238463
0002e0 ee ce 80 3d 33 5c 62 3c 38 89 91 3c b8 c8 74 bd
       0.06289469 0.013815927 0.017765626 -0.059761733
0002f0 bb 20 f8 3d a1 ba be 3d c7 6e 1c bd 00 70 a7 bd
       0.12115618 0.093129404 -0.038191583 -0.08175659
