trained_models/male_under_50_gru.pth (torch, 188929 bytes, 14 tensors)

gru.weight_ih_l0 f4 [192, 20]
000000 8d bd a9 bd 80 5f e3 3c 9a 21 6a bc 47 49 d6 3d
       -0.08288107 0.027755499 -0.014290238 0.10463195
000010 cf 52 dd bd d1 5e 13 3b c2 94 0f 3d 0d 4a 02 bc
       -0.1080681 0.0022486935 0.035053976 -0.007952225
000020 f6 f9 c1 3d 82 fd 20 ba f5 d8 36 3c 16 31 84 3d
       0.094715044 -0.0006141291 0.011160125 0.06454675
000030 74 dd 5d bd 8d a9 88 3c e5 b7 25 3d c7 20 f5 bd
       -0.054166272 0.01668241 0.04045858 -0.119691424
000040 4c 9d d4 3c 8d aa cd 3d 8a 83 a0 bc 2d d2 41 3d
       0.025953911 0.100422956 -0.019593973 0.04731958
000050 19 5c eb 3d 00 ae 02 bd f3 99 7e 3b 70 b1 f6 bd
       0.114921756 -0.03190422 0.0038849085 -0.12045562
000060 d5 b4 f1 bc 92 79 29 3d bb ae 01 bd 64 7b fd bc
       -0.029505173 0.041375704 -0.031660777 -0.030942626
000070 7e 6b 76 3d ce 19 95 bd 2c 7c fd bc 21 12 fd bd
       0.060161106 -0.072803125 -0.030942999 -0.123569734
000080 9f 5d 04 3d 4b 25 5d bd 90 d0 3b bd fe 31 a0 bd
       0.032315847 -0.053990643 -0.045853198 -0.07822035
000090 b5 91 26 3d 5c 85 b8 3d ab ee 77 3c ce a8 3d 3d
       0.0406663 0.09009811 0.0151325865 0.046303563
0000a0 fe 3a 18 3d f4 32 14 bd 3c 3d ce bb b8 d7 87 bc
       0.037165634 -0.036181405 -0.006293921 -0.016582355
0000b0 44 3b 20 bc 18 76 61 bd ea 8d bf 3d 16 b2 d0 bd
       -0.009779755 -0.055044264 0.0935324 -0.10190217
0000c0 71 91 72 3d dd 44 05 3d 78 bc aa bd 29 75 5f 3d
       0.059220735 0.032536376 -0.08336729 0.054555092
0000d0 c2 a0 03 3c 34 7e 2f bd 9a c3 e5 bd e0 a9 74 bc
       0.008033933 -0.042844966 -0.11218949 -0.0149330795
0000e0 2e 96 b1 3d cd 32 70 bd bd 2c c1 bd f2 af a7 bc
       0.086712226 -0.058642197 -0.09432361 -0.02046964
0000f0 8f c3 bd 3d 48 ad 05 3d 4c 1b e4 bd e6 c3 e3 3d
       0.092658155 0.032635957 -0.11138019 0.11121349
000100 8c 9a 7d 3d 1f 63 99 bd 27 18 d5 3d 0c 43 92 3d
       0.061914966 -0.07489609 0.10404997 0.071416944
000110 61 eb 50 3d bd 3a a5 3d af d5 bb bd a9 79 b6 bd
       0.051005725 0.08067844 -0.09171616 -0.089099236
000120 8c b2 1b 3d 3c b2 37 bd 18 b0 2a bd 32 60 e1 bd
       0.038012072 -0.044847712 -0.041671842 -0.11004676
000130 25 73 a3 3d 69 21 38 bd c6 a4 82 bd 0e 8a 9b 3d
       0.079809465 -0.044953737 -0.06379084 0.07594691
000140 38 73 b6 3c 6a 24 da 3d 0f 61 16 bd 25 2a 09 3e
       0.022271737 0.10651477 -0.036713656 0.13394983
000150 4a e8 c3 39 e5 2f 83 3c ce ed 4a 3d 2c 71 94 3d
       0.00037366367 0.016014049 0.049543194 0.07248148
000160 c0 22 20 bd 7f 16 9d bd 3a 57 d8 3d 08 db 7b bd
       -0.03909564 -0.076703064 0.10563512 -0.06148818
000170 1e 79 f2 3c ed 69 4c bd 83 8d 5b 3d bf f0 de 3b
       0.029598769 -0.049905706 0.053601753 0.0068036015
000180 10 4e ec bd c4 6c f1 3c cb 1a 25 3e 5d 3c b5 3d
       -0.11538327 0.029470809 0.16123502 0.08849404
000190 f4 ce 5f 3c da 01 e7 bd f0 2e 50 bd 83 35 b8 bd
       0.013660181 -0.1127965 -0.050826013 -0.089945816
0001a0 7a ab 0a 3c aa 6d a1 3d c6 2f ae bb 3b aa 85 bd
       0.008463735 0.07882245 -0.0053157536 -0.065266095
0001b0 dc 33 03 bd 6d ae a7 bd 45 67 43 bd ee 2f 8b 3d
       -0.03203188 -0.08187566 -0.047705907 0.06796251
0001c0 f5 cd 4e 3c 2d 54 31 3d 18 20 b5 ba b6 76 24 3d
       0.012622346 0.043293167 -0.0013818769 0.040152274
0001d0 32 60 46 bd 9e c9 07 be 00 6f 16 3d 43 bf 92 bd
       -0.048431583 -0.13260505 0.03672695 -0.071653865
0001e0 16 ef f9 3c 40 ef 92 3b 05 e4 d5 bd da b1 83 3d
       0.030509513 0.004484087 -0.10443882 0.06430407
0001f0 73 b3 ec bd 9b ba e2 bd 16 f4 dc bd 56 fd db bd
       -0.11557665 -0.110707484 -0.10788743 -0.10741679
000200 26 2b 06 be 34 67 fe bd 02 88 aa 3d b6 de c2 3d
       -0.13102397 -0.12422028 0.08326723 0.09515135
000210 d5 94 d4 bd 0b d8 2a 3d 74 aa 8d 3d bc 84 06 be
       -0.1037995 0.04170994 0.06917277 -0.13136572
000220 80 b0 03 be 57 52 bd bc b3 64 b5 bd 93 11 4d bd
       -0.12860298 -0.023110552 -0.088570975 -0.05006559
000230 28 c1 97 3d e0 27 41 bc ea 62 2e bd a2 e3 ad 3c
       0.074098885 -0.011789292 -0.0425748 0.021226708
000240 61 ee 88 3c 03 07 b0 3c e5 e6 e7 bd 8d e4 a7 bb
       0.01671523 0.021487718 -0.113233365 -0.005123681
000250 e8 ed e0 3d 32 71 15 3d 48 27 12 3e 4e a8 44 3d
       0.10982877 0.036484905 0.14272797 0.04801207
000260 87 be df 3d 2d d2 65 3d 91 4b bd bd d4 93 8b bb
       0.10925012 0.056108642 -0.09242929 -0.004259566
000270 c9 8a 3b bd 6f b2 78 3d 89 72 d8 3d ae b3 8a bd
       -0.045786653 0.060717043 0.10568721 -0.067725524
000280 7f 6b 2e bd f0 52 61 bd db b5 97 3d 2e 0d bf 3d
       -0.042582985 -0.055010736 0.07407733 0.09328686
000290 87 d6 b1 bd 86 c8 b5 bd 16 d5 ac bd 43 8e 6a 3d
       -0.08683496 -0.088761374 -0.084390804 0.057264578
0002a0 34 5b e2 bd 1e 86 fa bd 14 2d 1a bd 53 64 5a 3d
       -0.11052552 -0.12232612 -0.037640646 0.053318333
0002b0 96 33 09 be 81 54 87 3d 1a a2 4b bc 46 9c 36 bc
       -0.13398585 0.06607915 -0.012428785 -0.011145657
0002c0 d1 99 de 3d 0c 81 de bd 73 ab 9a 3d 0f 0d 7c bd
       0.10869182 -0.108644575 0.075522326 -0.06153589
0002d0 f1 77 42 bd 74 55 32 bd 19 fe 7c bd f4 b4 a0 bd
       -0.047477666 -0.043538526 -0.061765764 -0.07847014
0002e0 e4 05 d3 3d 6c 75 fb bd 77 81 95 3d 23 eb 4b bc
       0.10303858 -0.12278256 0.07300084 -0.012446198
0002f0 99 73 ac bc 40 8a e6 35 e8 07 f3 bd 07 88 2c 3d
       -0.021051215 1.7176571e-06 -0.11866742 0.042121913
000300 8e 5b 13 be 2e 15 04 be a2 a0 d1 3d f1 6c e8 bd
       -0.14390394 -0.12898704 0.102357164 -0.11348904
000310 7c e2 03 3a 99 61 d1 bd 3a ac e6 3b 27 a0 92 3d
       0.0005031002 -0.102236934 0.007039574 0.07159453
000320 79 50 c5 bc b0 1c 1f 3c c9 a7 ef bd 0c 45 b7 bd
       -0.024086224 0.0097114295 -0.11701924 -0.089487165
000330 a0 8c 3a 3d 16 04 82 3d 7a 18 87 bd fa af d9 3c
       0.045544267 0.063484356 -0.065964654 0.02657317
000340 79 3b 29 bc b1 8a 48 3c ec d9 32 bd 34 f9 65 bd
       -0.010329121 0.012240098 -0.043664858 -0.05614586
000350 8e 39 8b bd fb 9c 01 be 3e d1 79 bd de bb 8e 3d
       -0.06798087 -0.1265754 -0.060990565 0.069694266
000360 d0 2c 8f bd c6 26 26 bc f5 7d ab bd 8e d6 f9 bd
       -0.06990969 -0.01014108 -0.08373634 -0.12199126
000370 2a 85 d4 3d e0 c0 92 bd f8 20 c6 3d 1e 05 e2 bd
       0.103769615 -0.07165694 0.09674257 -0.11036132
000380 c3 55 36 bd b2 74 89 bd fd b1 b8 bb 88 3d c7 3d
       -0.044515382 -0.06711711 -0.005636452 0.09728533
000390 51 44 0b bd 80 00 70 bc 22 9f 3e 3d 50 c5 6e 3a
       -0.0340007 -0.014648557 0.04653848 0.00091083813
0003a0 35 9c 64 3d 0c 98 00 3e 52 18 dc 3d c7 7d 85 3d
       0.055813033 0.12558001 0.10746826 0.06518131
0003b0 8c 1f 5f 3d 23 0e b4 bd 69 b4 e2 bd d6 55 c2 3d
       0.054473445 -0.08791759 -0.11069567 0.09489028
0003c0 04 2d 6d bd a0 a2 87 bb f4 01 83 3d 50 bb d1 3c
       -0.05790426 -0.0041392595 0.06396857 0.025602013
0003d0 b3 eb f4 bd 26 23 de 3d 9d 94 aa 3d 1d e3 8a bd
       -0.119590186 0.10846548 0.08329127 -0.067816
0003e0 6f 05 8d bd 28 c3 c2 3d 0d 49 b4 bc 04 7d 1e bc
       -0.06885802 0.09509879 -0.02200749 -0.009673361
0003f0 b0 c4 78 3a 0f 81 db 3d 48 e5 cf 3d 7b 16 39 3d
       0.0009489758 0.10717975 0.10151154 0.045187455

gru.weight_hh_l0 f4 [192, 64]
000000 18 13 8c 3c 59 6c b4 bd 0f 75 17 3b da 14 e4 bd
       0.017098948 -0.08809728 0.0023110544 -0.111367896
000010 c9 7b e6 3d fb a2 d1 bd 59 f0 05 3e 4b b7 e2 3d
       0.11254079 -0.10236164 0.13079967 0.110701166
000020 e3 5f a6 3d b3 12 af bd dc 75 32 3b f6 cd 38 bd
       0.08123758 -0.085484885 0.0027230894 -0.045118295
000030 94 44 6f bd c5 a7 80 3d 8f 09 c5 bd 6c 99 89 bc
       -0.05841501 0.062819995 -0.09620964 -0.01679679
000040 c2 94 5c 3d c4 e9 ce 3d 18 22 78 bc 17 ca 96 bb
       0.053852804 0.10103181 -0.015144847 -0.0046017277
000050 c8 e8 db bd 5b 25 62 3d b0 c2 03 be 95 dd 11 bc
       -0.10737759 0.055211406 -0.12867236 -0.008902927
000060 06 3a ad bc f7 34 79 bd 83 7b 50 3c 37 29 0c 3b
       -0.021145832 -0.060841527 0.01272476 0.002138687
000070 ff 03 f8 3d a9 57 04 3e df 24 68 3d 72 a5 c7 3d
       0.12110137 0.12924065 0.056675788 0.09748353
000080 bc e2 4c bd 97 b8 99 3d f7 84 4e bd 50 f0 45 3d
       -0.05002092 0.07505911 -0.050419774 0.048324883
000090 29 89 f3 3d 38 24 ed bd 1b 5e 22 3d 83 df 9d 3d
       0.118913956 -0.11579174 0.039640527 0.07708647
0000a0 c6 37 80 bd 60 b0 74 3d 01 99 fc 3d db 41 40 bc
       -0.06260638 0.059738517 0.12333871 -0.011734451
0000b0 70 ea 36 3d e8 96 92 bc ae 40 cd 3d 76 3f 07 be
       0.04465717 -0.017894223 0.10022102 -0.13207802
0000c0 ad 1d 64 3c 28 f9 0a 3d 1a 81 11 3d 22 9a 03 3e
       0.013923091 0.03392902 0.03552351 0.12851766
0000d0 0d ec e6 bd b3 ba a6 3d 37 24 02 bd b0 f5 0b bd
       -0.11275492 0.08141079 -0.03177282 -0.034169853
0000e0 bf c2 f1 3d 82 f7 57 ba b8 2d de bd 0a ae a5 bd
       0.11804723 -0.00082384807 -0.10848564 -0.08089836
0000f0 7f 82 bf 3d f3 5b 00 3e f6 f5 df 3d 5e d9 c4 3d
       0.09351062 0.12535076 0.10935585 0.09611772
000100 d0 d9 ed 3d 78 1f 2d bd 8a 4e f5 3c 8c df d8 ba
       0.1161381 -0.04226634 0.029944677 -0.0016546114
000110 b3 fd d5 3d 4a 1c 10 3d f2 ce 9f 3d 33 6f 09 3c
       0.1044878 0.03518323 0.078031436 0.008388328
000120 5b 2e 59 3d e7 48 1f 3d 04 d2 8c bd 65 ee fc 3d
       0.053022724 0.038887884 -0.06875995 0.12350158
000130 ee 6e bb 3d f4 70 80 bd 7d 2d a2 3d 2b 3a 87 3d
       0.091520175 -0.06271544 0.079188325 0.066028915
000140 eb 26 92 3d 6e da 60 bd bf b7 6f 3b 1d fb 91 bd
       0.07136329 -0.05489581 0.0036578027 -0.07127974
000150 81 95 8f bc 7e 0c cc bd 8f b3 86 bc 14 93 a6 3d
       -0.017527344 -0.0996332 -0.016443042 0.08133522
000160 ff 47 d5 3d 5d 23 d5 bd 28 52 9f 3d 48 71 1f 3d
       0.10414123 -0.10407136 0.07779342 0.038926393
000170 69 8a d4 bc 1b 27 72 bc 36 2b 74 3d d3 4b 9b 3d
       -0.025944905 -0.014779831 0.05961152 0.07582822
000180 45 a0 de 3d 8d 1c 6d 3d 59 b4 2c bc 56 c6 a5 3d
       0.10870413 0.057888556 -0.010541045 0.0809447
000190 4d e7 35 3d 2d 77 a2 3d d7 9a 00 be fa 8e b9 3d
       0.04441004 0.07932887 -0.12559067 0.09060474
0001a0 53 f1 fe 3d 7a 8a a5 bd 92 bf c0 bc 12 00 87 bd
       0.12448373 -0.08083053 -0.023528848 -0.0659181
0001b0 1c d2 73 3d 44 81 b2 bc 53 73 05 bd d6 55 00 be
       0.059526548 -0.021790154 -0.032580685 -0.12532744
0001c0 73 98 b7 3d 13 62 05 be af 52 c7 3d 78 c3 06 3b
       0.08964624 -0.13025694 0.097325675 0.0020563286
0001d0 24 f2 a8 3d 27 9f 04 3e 76 6e dd bd 0d a5 a3 bd
       0.0824931 0.12951337 -0.108120844 -0.07990465
0001e0 a6 21 0e bc 85 ea 51 3d 34 01 d5 3c 91 58 e3 3d
       -0.008675015 0.051249046 0.02600155 0.11100877
0001f0 82 03 9d bd f0 ae 97 3d 71 12 97 bd 80 18 b8 3d
       -0.07666685 0.074064136 -0.07376564 0.08989048
000200 d4 9f e7 bd f0 7b 9e bd d7 30 e4 bd 73 f5 f0 bd
       -0.11309782 -0.07738483 -0.11142128 -0.11765566
000210 25 76 8d bd 6d 73 d2 bd 7e 56 32 3c 72 1e 86 bb
       -0.069073 -0.10275922 0.010884879 -0.004092985
000220 35 dd 9e bd 70 2e 2e 3d 13 44 a9 bd c7 d8 0c bd
       -0.07757036 0.042524755 -0.08264937 -0.034386422
000230 1f 91 c0 3d 10 d9 ae 3d b2 c3 cd bb dc 8f b3 bd
       0.0940268 0.08537495 -0.006279432 -0.087676734
000240 d5 d2 49 bc c7 26 fb bd 39 5d 27 bd 17 53 9d bd
       -0.012318333 -0.122632556 -0.04086039 -0.07681864
000250 a8 70 c0 bd 46 55 e6 3d f9 d6 e6 bc 84 11 de 3c
       -0.093964875 0.11246733 -0.028178679 0.027107961
000260 48 9d 2b bd 30 b9 e7 bd 40 6b d2 3d 6b 22 76 bd
       -0.041898042 -0.113146186 0.102743626 -0.060091417
000270 a7 fb b3 bd 7a 66 37 3d 12 97 8b bc 94 e6 f7 3b
       -0.08788233 0.044775464 -0.01703981 0.007565329
000280 16 11 8c bd f7 6d 7c 3d 02 42 a1 3d e2 12 51 bd
       -0.068391964 0.06162831 0.07873918 -0.0510434
000290 27 7a db 3d 9e 6e c2 bd e2 49 f5 3c d4 65 a7 bd
       0.10716658 -0.09493755 0.029942457 -0.08173719
0002a0 31 3e ae 3c 9f 18 eb 3d 40 8d 87 3d 2c ad 28 3d
       0.02126989 0.114793055 0.06618738 0.041180775
0002b0 5e ff 96 3d fc c2 bd 3d 3d da 37 3d a5 5b ca 3d
       0.07372926 0.09265706 0.044885863 0.09880761
0002c0 9d 7d 85 3d 11 bb b5 bd 3e 91 7e bd e2 da 93 3d
       0.065180995 -0.08873571 -0.062150232 0.07219483
0002d0 eb 01 cf 3b 7e a9 21 bd b2 26 b1 bd 6e e8 ac 3b
       0.0063173673 -0.03946828 -0.08649959 0.005276731
0002e0 ab 30 21 bd c1 a7 94 bd 3c d1 07 be ef 5a 78 3d
       -0.039353054 -0.07258559 -0.1326341 0.060633596
0002f0 11 c3 d5 bd 6e a5 57 bc 62 6c 9a 3d 2e 57 96 3c
       -0.104375966 -0.013162 0.07540204 0.018352117
000300 8a db e0 3d 5f df fe bc e7 3d 8d bd 9e 16 02 3e
       0.10979374 -0.031112371 -0.068965726 0.1270394
000310 3c 14 d3 bc a1 bb bb 3d ab 96 e1 bd f9 5a b2 3d
       -0.025766484 0.09166647 -0.11015066 0.08708758
000320 22 42 b6 3d 8d 98 83 bd 56 4c f0 3d 84 9f d4 3d
       0.088993326 -0.06425581 0.1173331 0.10381988
000330 bc e1 fc ba af 59 16 bd 0d 2b be bd b2 19 22 3e
       -0.0019293348 -0.036706623 -0.09285555 0.15830114
000340 1f 46 7f 3b 31 25 95 bd a1 38 02 3e 09 8c 8f bc
       0.0038951708 -0.07282484 0.12716915 -0.017522829
000350 6f 4d 41 bd 81 40 03 3e 78 04 56 3d 0b a2 62 bd
       -0.047192987 0.12817575 0.052250355 -0.055330317
000360 b3 b0 d5 3c 33 8c 4c 3c 0c 3f be bd 30 89 ab bd
       0.026085233 0.012484598 -0.09289369 -0.08375776
000370 d1 0c 9b bd 9b 50 e4 bc 95 2c a5 3c cc b7 df 3d
       -0.07570804 -0.027870467 0.02016286 0.10923728
000380 a7 30 0c bd 87 78 b6 3d 94 50 44 3d 2b 8b 6a 3d
       -0.034226086 0.089097075 0.047928408 0.057261627
000390 4e 58 f5 bd 9d d6 f7 3c 60 6b 9f 3d f2 09 fc bb
       -0.119797334 0.030253703 0.07784152 -0.0076916153
0003a0 e6 f0 b4 3d bd a5 1a bc c2 b0 b6 3a 10 79 ea 3c
       0.0883501 -0.009438929 0.0013938176 0.02862218
0003b0 be f7 01 bd 96 a3 88 ba 75 02 f2 bd a1 31 57 bd
       -0.031730406 -0.0010424729 -0.11816875 -0.052537564
0003c0 f7 45 94 bd 5a 4f c2 3d 7c e7 22 3d 5f 5d 40 3c
       -0.07239907 0.09487791 0.039771542 0.011741011
0003d0 30 0e c7 3d eb 3b e0 bd 8b eb e8 3c 3d d9 c6 3d
       0.09719503 -0.109489284 0.028432628 0.09709404
0003e0 c2 ac d4 bc 6f 2b 18 3d ff 40 76 bd c3 1b ae 3d
       -0.025961284 0.037150797 -0.06012058 0.08501389
0003f0 ca 95 26 bd be 6d ba 3d f9 84 f5 3c b0 e1 b7 3c
       -0.040670194 0.09102963 0.029970633 0.022446483

gru.bias_ih_l0 f4 [192]
000000 b7 04 dc bd dd 1a ba bc 4f 75 bf 3d 07 23 a1 bd
       -0.10743087 -0.022717888 0.09348547 -0.07868009
000010 95 73 c7 3d b3 0d ef bc 54 17 12 3d 20 71 fc 3d
       0.097388424 -0.029181337 0.03566678 0.123262644
000020 6f a4 c0 bd 83 50 f4 3d 6d f2 2b 3d 6d 3b b3 bd
       -0.09406363 0.11929419 0.041979242 -0.08751569
000030 0a 62 df bd 11 21 94 bd 48 89 b8 3d 5b fa a4 3d
       -0.10907371 -0.072328694 0.09010559 0.08055564
000040 22 2f 50 3d c7 9f a1 ba c6 91 0f 3e ff 58 e9 bd
       0.0508262 -0.0012330943 0.14020452 -0.11393928
000050 64 6a d9 3d b1 be 88 bd 9c 3d d3 bb c5 b5 f6 bd
       0.106159955 -0.066769965 -0.0064465534 -0.120463885
000060 13 5c 83 bb 0c ba f1 3d c5 c5 45 bd 09 74 fd 3d
       -0.004008779 0.11803064 -0.04828431 0.123756476
000070 54 5e 01 bd 88 b3 08 bb 7c 30 17 3d 05 d7 8b 3d
       -0.0315841 -0.0020858962 0.036911473 0.06828121
000080 0c ed 96 3c 0b 56 a7 bd a7 b7 da bd 0f ca ab 3d
       0.01842358 -0.08170708 -0.1067956 0.08388149
000090 ef 00 04 3e 54 73 ab bd 81 fb b5 3d b0 81 85 bb
       0.12890981 -0.083716065 0.08885861 -0.004074298
0000a0 41 a8 98 bd f6 ef 95 3d 79 bd 8b bd 96 0f 1a 3d
       -0.07453967 0.073211595 -0.068232484 0.03761252
0000b0 4c 7b a3 3d 74 c4 9c bd a3 38 b5 3d 72 d8 0c bd
       0.079825014 -0.07654658 0.08848693 -0.034386106
0000c0 40 88 88 3d 25 9a b8 bd 00 a1 a3 3d aa 3c 99 3d
       0.066666126 -0.09013776 0.07989693 0.07482274
0000d0 03 8b 60 3d 54 7b 41 3d a6 bd b9 3d aa fb 9c bd
       0.054820072 0.047236755 0.09069376 -0.076651886
0000e0 5c a3 e3 bd 01 d7 c0 bd f8 1d f9 3c 5d 72 6b 3d
       -0.11115143 -0.09416009 0.030409798 0.057482112
0000f0 b1 05 0b be 54 97 b3 bd 8a fc 6a 3d 5a f4 1d 3d
       -0.1357639 -0.08769098 0.057369746 0.03856311
000100 48 74 c7 3d 6b 11 e7 bd b6 4f f5 bc d8 95 79 bd
       0.09738976 -0.11282619 -0.029945236 -0.060933918
000110 c1 05 95 bd df 3b 1b bc 4d 00 82 3c 10 13 a1 3a
       -0.07276488 -0.009474724 0.015869284 0.0012289006
000120 6d f5 9d 3d 10 a2 83 bc ec 5e c7 3c e7 f8 95 3c
       0.07712827 -0.016068488 0.024337254 0.018307162
000130 24 4f 2e 3d 21 58 dc 3d b4 a2 bf bd 0f 8d ce 3d
       0.042555943 0.10758997 -0.09357205 0.100854985
000140 a1 e3 61 bd 0e a3 09 3d 93 68 7e bd e2 c4 f1 bc
       -0.055148724 0.033602767 -0.06211145 -0.029512826
000150 d7 62 af 3d 70 f1 8b 3c 6a aa aa 3d 8a 8a df bb
       0.08563774 0.0170829 0.08333285 -0.006821935
000160 0b 58 0f b9 e7 92 f3 bd 83 f6 38 bc c3 14 0a 3e
       -0.00013670341 -0.11893254 -0.011289242 0.13484482
000170 b5 01 5a bd 1b f7 36 bd 88 1c b7 3d 30 5a c4 3d
       -0.053224284 -0.044669252 0.08940989 0.095875144
000180 c8 29 bc bd 4f 25 6f 3d 28 65 0f bc 90 0b 99 3a
       -0.09187657 0.05838519 -0.008752145 0.001167642
000190 20 4f 26 bd ae 74 0d bd 75 5f 5d 3d aa 46 fd bc
       -0.040602803 -0.034535103 0.054046113 -0.030917484
0001a0 fc e1 73 bd 57 26 ac bd df c0 c4 3b b1 3c cb 3d
       -0.059541687 -0.0840575 0.0060044373 0.09923685
0001b0 fd fe 1b 3e 56 f9 16 3e e4 e1 21 bb bf 41 90 bd
       0.15233989 0.14743552 -0.0024701292 -0.0704379
0001c0 95 a4 9d bd ab c2 4d bd 9a 7b 31 3d 94 71 92 3d
       -0.07697407 -0.050234478 0.043330766 0.071505696
0001d0 c4 11 dd bd f4 1d 4f bc 65 85 f8 3d 2f 8f f5 3a
       -0.10794404 -0.012641419 0.12134818 0.0018734689
0001e0 d9 70 62 bd 40 6d cf bd fa 72 c7 3d 8b 3a 8e bc
       -0.0552834 -0.1012826 0.09738727 -0.0173619
0001f0 d0 32 ec 3d ac d7 a8 3d 8b 66 99 3d 75 07 0d 3e
       0.11533129 0.08244261 0.07490262 0.13772376
000200 2b db b9 bd 78 0b 1c bd 15 7a c9 3d 20 3b 75 3d
       -0.09075006 -0.038096875 0.098377384 0.05987084
000210 ae 41 30 3d 2a a1 a9 3d b1 9a 69 bd 0c 78 e2 bd
       0.043031387 0.08282693 -0.05703229 -0.110580534
000220 38 7d d4 3d 2e fc cd 3d 77 1a 31 bb 53 7e e7 3d
       0.10375446 0.10057865 -0.002702383 0.11303391
000230 fe 9e f1 3d 3d 78 7b bd 3e d2 d8 3d 43 3a 82 3c
       0.117979035 -0.061393965 0.105869755 0.015896922
000240 3c e0 a6 3c d1 c0 c4 bd 35 83 ad bd 15 f1 55 bc
       0.020370595 -0.09607089 -0.084722914 -0.013057967
000250 09 02 fa 3d 54 68 d0 3d 8b 79 b9 bc 0f aa 5b 3d
       0.122074194 0.10176149 -0.022640964 0.053628977
000260 e9 81 e6 3d bd c2 f8 3c bc 5f d1 3d ea 00 be bd
       0.11255247 0.030366296 0.10223338 -0.09277518
000270 6f f6 ea 3d ba 39 af 3d 32 98 f3 bd 6d ae 94 bc
       0.11472785 0.08555932 -0.11894263 -0.018149579
000280 0d 20 dd 3d a4 82 c3 3c 06 75 8e 3d 03 b0 9b bd
       0.10797129 0.023866005 0.06955914 -0.07601931
000290 b9 9f a7 bd 34 b4 ca 3c 22 14 cc 3d 52 6f ff 3d
       -0.081847616 0.02474413 0.099647775 0.124724045
0002a0 e7 9b c7 bd cf 91 27 3d d8 b8 b9 bd 04 9d 4c 3d
       -0.09746533 0.04091054 -0.09068459 0.04995443
0002b0 67 9e 4a bc b2 26 df 3d ec fb 00 be d3 4e 51 3d
       -0.012366868 0.108960524 -0.125961 0.051100563
0002c0 df 48 27 3d 07 f7 31 3d db 62 c8 bd f5 99 13 3d
       0.04084098 0.043448474 -0.0978448 0.036035497
0002d0 d7 d0 2e bd 16 85 c5 bd 10 b7 9c bd 50 0f e7 bd
       -0.042679634 -0.09644525 -0.07652104 -0.112822175
0002e0 cf 15 55 3d 7b 1a e8 3d 9a 5a f4 bb a6 af 20 bd
       0.05202275 0.11333176 -0.0074570896 -0.03923001
0002f0 db 0c 6c 3d 7b 1a d2 bd 6b 45 06 3d 1d 28 a5 bd
       0.057629447 -0.10258957 0.032781046 -0.080642916

gru.bias_hh_l0 f4 [192]
000000 7f 93 31 3d bd 5d 43 bb 87 36 c8 3d a3 67 c6 bd
       0.043353554 -0.002981051 0.09776025 -0.09687736
000010 b5 f0 d3 bd 8c 08 cf 3c 27 9d b5 bb 83 45 88 3d
       -0.103486456 0.02527263 -0.0055424157 0.06653883
000020 7b 00 c0 3d c3 1e 04 bd cd fb e2 bd 09 5e 0a 3e
       0.09375092 -0.0322559 -0.110831834 0.13512434
000030 ed ae 07 3c 0c fe d7 bd 76 c2 fa 3d 19 bc 90 3d
       0.008281452 -0.105465025 0.12244122 0.07067127
000040 a2 8e df 3d 45 3b cc bd 08 9a e8 3d 87 37 bd bd
       0.10915877 -0.09972242 0.11357504 -0.092391066
000050 a1 5a 4e 3d 28 99 1c 3d 1d 3c 85 3d 11 92 ce 3b
       0.0503794 0.038232 0.06505606 0.0063040336
000060 cb bf 00 bd 9e 6b 20 3d 55 97 e1 3b fd 8c b4 3d
       -0.031432908 0.03916513 0.0068844953 0.08815954
000070 19 bd e1 bd 12 15 af bd 24 7a bb 3d a1 d7 e8 3c
       -0.11022396 -0.08548941 0.09154156 0.028423132
000080 0c e5 70 bc 6b 6b a4 3d 09 e2 d4 3d 50 38 a5 3c
       -0.0147030465 0.08028301 0.10394675 0.020168453
000090 42 97 cb 3c a0 0c 3a bd b7 87 21 bd a0 23 f6 bc
       0.024852399 -0.045422196 -0.03943607 -0.030046284
0000a0 9f 9f ab bd 98 a8 cc 3d 8b 61 ea bd 4e cc 09 be
       -0.08380055 0.09993094 -0.11444386 -0.13456842
0000b0 c1 4d c1 3d 66 2b ef 3d 60 01 6c 3d a3 04 ca 3c
       0.094386585 0.116781995 0.0576185 0.024660414
0000c0 20 ac a1 3d 24 04 a3 bd d7 1b a6 3c 6c 5c ff bc
       0.07894158 -0.07959774 0.020276947 -0.031172
0000d0 3d c0 fc b9 d8 6d 84 bc 2e e8 e1 3c 3b 7c b8 3d
       -0.00048208414 -0.016165659 0.027576532 0.0900807
0000e0 d3 2d ad 3d 46 3d 9e bc 57 35 cb 3c dc a6 0f 3d
       0.08456006 -0.019316327 0.024805708 0.03507124
0000f0 b5 74 00 3c 23 c0 46 bd 11 07 93 3b c3 23 94 3d
       0.007840325 -0.04852308 0.0044869264 0.072333835
000100 da e9 69 bd 51 3f 1d 3c b4 7c c5 bd df 0a 4f 3d
       -0.057107784 0.009597615 -0.09642926 0.050547477
000110 e0 75 9c 3d eb 3c bd 3d dd 24 e8 3d f1 4a c7 3d
       0.0763967 0.09240135 0.11335156 0.09731091
000120 10 8a 77 3d 7e 12 2e 3a 53 e2 86 3c e2 a0 86 3d
       0.0604344 0.0006640329 0.016465342 0.06573655
000130 f8 12 4c bc ed a1 e1 3d c3 46 4a bd 31 75 13 3d
       -0.012455694 0.11017213 -0.04938389 0.036000434
000140 f7 b8 16 3c 6d 25 92 bd d1 b1 c7 3c 86 e4 cf bc
       0.0091993725 -0.07136045 0.024376782 -0.025377523
000150 1b 72 6c bc c6 4c d6 bc 1f 08 22 3e 95 c7 c5 bd
       -0.014431502 -0.026159655 0.1582341 -0.09657208
000160 90 c6 9c bd 16 d5 8b bc 8b 3c b3 bd 5c 95 ae 3d
       -0.0765506 -0.01706938 -0.08751782 0.08524582
000170 3c ad 3b bc b3 42 df 3d d9 f2 29 3d 64 59 95 3d
       -0.0114548765 0.10901394 0.041491363 0.072924405
000180 c9 27 46 3b a5 c2 56 3d cd d6 86 3d 55 64 a9 bd
       0.0030236116 0.05243172 0.06583939 -0.0827109
000190 66 ae 0e be 17 f3 4e bd b6 3a e4 3d d3 97 46 3c
       -0.13933715 -0.050524797 0.11144011 0.012121159
0001a0 69 a7 00 3c 9a a4 33 bc cc 36 19 3d 76 ed a2 bd
       0.007852414 -0.010964537 0.037405774 -0.07955448
0001b0 9b 20 b3 3d 22 ea 0e 3e d5 5d 3d bd 26 85 29 3d
       0.087464534 0.13956502 -0.046232063 0.041386746
0001c0 6e 4e 39 3c 90 58 06 3e 3e 75 de bc 56 a3 da 3d
       0.011310203 0.13119721 -0.027155515 0.10675685
0001d0 a2 28 de bd b0 78 90 bd d5 8b 94 bd 43 9e 15 3d
       -0.10847594 -0.07054269 -0.07253233 0.036527883
0001e0 cc a6 5f 3c d7 75 a5 bc bb 31 09 3e c2 c3 65 3d
       0.013650607 -0.020197792 0.13397877 0.056094892
0001f0 61 d6 aa 3d 47 b7 24 3e d0 83 dc bd be 1e 2b 3d
       0.08341671 0.1608554 -0.10767329 0.041777365
000200 6f 7b 9e bd cb fc 4c 3d 45 7e ac bd de a7 96 3c
       -0.07738387 0.05004577 -0.084225215 0.018390592
000210 61 35 01 bd 43 85 5f bd e1 26 7b bd 7b ca 31 bd
       -0.031545047 -0.054570448 -0.061316375 -0.04340599
000220 91 ba 9d 3d dc 59 ed bd 01 64 b5 bd dc 2e 0e bd
       0.077016 -0.11589405 -0.08856965 -0.034712657
000230 3f 5f e9 bd 30 c2 22 3d 47 64 e6 3d 5c 5d d7 bb
       -0.1139512 0.039735973 0.11249595 -0.0065724086
000240 0e 46 ee bc b6 e3 13 3d 3e 39 d9 bd aa 1e 9b bc
       -0.029086139 0.036105834 -0.10606621 -0.01893552
000250 22 d6 d3 3d af 88 de bd 06 50 78 3c 26 31 a4 bd
       0.10343577 -0.10865914 0.015155798 -0.08017187
000260 18 29 ed bd a2 3f 84 3c f2 6f c0 3d 5e 79 ec bd
       -0.11580104 0.016143624 0.09396352 -0.115465865
000270 8d 56 ca bd 92 19 11 3d cc 96 4b 3d 0c da cd 3d
       -0.098797895 0.035424776 0.049704358 0.10051355
000280 02 3e 86 bd d7 a3 cb 3d 09 a3 2f bd fa d2 e9 bd
       -0.06554796 0.09943359 -0.04288009 -0.11417194
000290 ab 9f dd bd 3a 25 8e 3d f8 99 b4 3d cd d5 64 3c
       -0.1082147 0.06940694 0.0881843 0.01396699
0002a0 d1 71 9c bd dc 1e 63 3d ee 18 c7 bd 59 8a a4 bd
       -0.07638896 0.05544935 -0.09721552 -0.080342
0002b0 18 a2 b8 3b db 75 64 bd 02 e9 84 3d b2 44 01 be
       0.0056345575 -0.05577646 0.06489755 -0.12623861
0002c0 03 6f 52 3d ea 19 be 3d b6 c9 c4 3d 49 3a 28 bc
       0.0513754 0.092822865 0.09608786 -0.0102678025
0002d0 da 05 a7 3b f4 64 33 3d 54 02 b5 bd 14 cc 20 3d
       0.005097133 0.04379745 -0.08838335 0.039257124
0002e0 b2 48 c5 bd 5e 6a 36 bd d4 4b ab bd 1c 94 ea 39
       -0.09633006 -0.044535033 -0.083640724 0.00044742308
0002f0 10 36 a5 3d 74 fe a4 3d b4 eb 0c bc 51 07 ae 3a
       0.08066952 0.080563456 -0.008601118 0.0013277327

gru.weight_ih_l1 f4 [192, 64]
000000 8a 50 52 bc 0f cb d8 3d 25 73 28 3d 96 a6 2f bc
       -0.012836585 0.10585605 0.041125435 -0.0107208695
000010 82 9a 90 bd 04 9a 9b 3d 59 3e e1 bd da c4 05 3e
       -0.0706072 0.075977355 -0.1099822 0.13063374
000020 5c 04 d7 bc 62 5c bd bd 10 f6 b2 bc bb 4e af bd
       -0.026247196 -0.09246136 -0.021845847 -0.085599385
000030 0f e1 75 3d 23 f7 07 3d 49 e0 e3 bd 9c bd e9 b9
       0.060029086 0.033194672 -0.111267634 -0.00044582493
000040 68 fb ae bd 12 01 72 bd fd d4 23 bd a6 95 0c bc
       -0.08544046 -0.059083052 -0.039998043 -0.008580601
000050 ca 03 ba 3d b7 9e f6 bd 0c 1d c8 3d 48 1e 8c bd
       0.09082754 -0.12041991 0.09771165 -0.06841713
000060 3a 19 a3 bc 7f 7e 75 bd 6b 5d fe bc 60 c6 6f bd
       -0.01990949 -0.05993509 -0.031050405 -0.058538795
000070 3f 4d 8c bd fb 84 91 3d 94 4a c7 bc ac cb 52 bb
       -0.06850671 0.07105442 -0.024327554 -0.0032164855
000080 28 4c a7 3d 49 60 78 3d cf 6d f1 bd 61 13 b4 3d
       0.081688225 0.0606387 -0.117885225 0.08792759
000090 41 96 a6 3d 66 b7 c7 bc 3e 15 95 bd 8c cb 1b bd
       0.081341274 -0.024379443 -0.07279442 -0.038035914
0000a0 92 a5 9b 3d 23 1b 3c 3d 1a a6 4b 3b ef ef cc bc
       0.075999394 0.045924317 0.0031074346 -0.025016753
0000b0 42 4c 82 bd 5a 4a 1e 3b 4e 9f 17 bd 8b 42 8e bd
       -0.06362201 0.0024153204 -0.03701716 -0.06946286
0000c0 2c 46 c6 bd 72 74 25 3a d2 72 62 3c 87 51 af 3d
       -0.09681353 0.0006311602 0.013821321 0.08560472
0000d0 00 50 ac 3d ec ba d0 3c e4 9a e6 3c bd 80 c6 bd
       0.08413696 0.025479756 0.02815003 -0.09692524
0000e0 1b b3 b4 bc 33 ee 9b 3c 38 ce 86 bd e5 d4 8b bd
       -0.02205806 0.01903448 -0.06582302 -0.06827716
0000f0 2e a1 12 bd ee bb 0c 3d 1b 40 fc bc 41 cd da bd
       -0.035798244 0.03435891 -0.030792287 -0.1068368
000100 c2 85 ec bd fc 94 e6 3d 18 f0 4d bc a2 61 86 3d
       -0.1154895 0.11258885 -0.01256945 0.06561591
000110 c5 91 e1 3d 7c 8c da 3d 4a c0 76 3d a6 3d bf bd
       0.110141315 0.106713265 0.060241975 -0.093379304
000120 44 41 17 3d ec 12 a1 bd 15 a5 25 3d 28 8b c6 bc
       0.036927477 -0.07864937 0.040440638 -0.024236277
000130 8b 2d dd 3b b0 1e 81 3c bf 03 c8 3d 92 04 9f bd
       0.006749814 0.015761703 0.097663395 -0.077645436
000140 2d 69 7d bb b0 08 a5 bd f6 f0 c5 3d fc 8f fc 3d
       -0.0038667426 -0.08058298 0.096651 0.1233215
000150 6e 31 fc bd f8 eb 0e bd 88 da 9d 3c 17 a7 01 bc
       -0.123141155 -0.034893006 0.019269243 -0.0079133725
000160 dd 77 90 bd 38 68 c6 bd 91 ba d6 bd 17 a3 cd bc
       -0.07054112 -0.09687847 -0.104848035 -0.025102181
000170 35 7f 98 bd e7 c5 88 3d b9 e2 40 bd 9a de 1c bd
       -0.07446138 0.06678372 -0.04709122 -0.038298227
000180 d8 b9 d2 bd 06 04 3e bc 32 f3 f4 3d af 60 ce bd
       -0.10289353 -0.011597639 0.11960448 -0.10077035
000190 34 03 4f 3d f3 7d ea bc 6a 0d 12 bd 68 c0 72 bd
       0.050540164 -0.02862451 -0.035657324 -0.059265524
0001a0 1c 72 e4 3d 6b 93 5d 3d 24 88 c4 3d 65 40 6a bd
       0.11154577 0.054095667 0.09596279 -0.057190318
0001b0 64 97 29 bd 4f 28 9a bd ec a5 a5 bd 36 f1 95 3b
       -0.041404143 -0.075272195 -0.08088288 0.0045758737
0001c0 7b 89 16 3d ca d9 af bc ac c6 1e 3d 65 2a 3a bd
       0.036752205 -0.021466155 0.038763687 -0.045450587
0001d0 8b b1 8d bd f0 89 b5 bb cf 1b 94 bd 92 da 82 bd
       -0.06918629 -0.005540125 -0.072318666 -0.06389345
0001e0 0a b5 e6 3d d4 a6 b7 bd 6f 50 b6 bc c3 12 2e bd
       0.11264999 -0.08967367 -0.02225515 -0.04249836
0001f0 6d ab 9b 3d 32 a0 b9 bd 37 3f 10 be 7d 50 d9 bd
       0.07601056 -0.09063758 -0.14086615 -0.10611055
000200 90 fc 8b 3c 20 37 d0 bd b4 c2 76 3d 8f 4b 01 3e
       0.017088205 -0.10166764 0.060244277 0.1262648
000210 61 36 4d bd 6b 14 8f bd fe e8 7d bd d2 60 c1 bd
       -0.050100688 -0.06986316 -0.061989777 -0.09442295
000220 0c 41 d9 3d f9 9a bb bd db ad f4 3c 38 61 ae bd
       0.1060811 -0.09160418 0.029868057 -0.08514637
000230 50 d0 ba bd 3d 25 01 3e dc 56 ee 3d 04 bc 34 be
       -0.09121764 0.12611862 0.11637661 -0.17649847
000240 60 25 5e 3d 9a 8a d9 bd 9c 48 3f 3d f6 cc 9b 3d
       0.054234862 -0.10622139 0.046700105 0.076074526
000250 c8 27 ab bb 3f b7 d3 bd d3 e6 c1 3d d9 ad ca bd
       -0.005223248 -0.10337686 0.09467854 -0.0989644
000260 94 8d fc 3c ce 01 a2 3d d5 d5 48 3d 40 f1 b9 3d
       0.030829228 0.079105005 0.04903205 0.09079218
000270 89 a0 d8 bd 3f c8 16 3e 79 d1 12 bb 32 5d 28 3c
       -0.10577495 0.14724825 -0.0022402687 0.010276126
000280 eb fe a5 bd 36 65 d6 bb 32 4d 87 bd e8 fd a5 3d
       -0.08105262 -0.006542827 -0.06606521 0.081050694
000290 32 b7 bc 3d f4 f7 de bd de c6 27 3d 93 06 21 3d
       0.09214629 -0.10887137 0.04096114 0.03931291
0002a0 0a be 85 bb 32 b7 52 bd cf c8 9c bd d5 c0 2f bd
       -0.0040814923 -0.05144424 -0.07655489 -0.04290851
0002b0 c4 4e f5 bb 7c 25 a3 3c d9 20 97 bd 23 a7 79 3d
       -0.0074861962 0.019915335 -0.07379312 0.06095041
0002c0 9d cd 45 3d 28 1b 1d 3e b2 6d 44 3c 49 e7 fa 3c
       0.04829179 0.1534239 0.011989044 0.030627863
0002d0 47 bb 82 bd ea 65 c0 bd db 25 b4 3d 64 15 41 3d
       -0.063833766 -0.093944386 0.08796283 0.04713954
0002e0 78 d1 97 3d 38 08 e1 3d 9b 48 04 3d 42 9f 69 3d
       0.07413 0.10987896 0.032295804 0.057036646
0002f0 88 da 8e bd 4d be f9 bd ff c4 f7 3c 4c 15 f9 bd
       -0.06975275 -0.121945 0.030245302 -0.12162265
000300 b9 83 d0 bd 52 c8 c7 3c 13 c1 ba 3c 5a 1d 1a be
       -0.10181374 0.024387512 0.022797143 -0.15050259
000310 af df d2 3d d1 24 f3 3d c2 91 e8 bb 73 68 49 3d
       0.102965705 0.118722565 -0.007097454 0.049171876
000320 9d 07 8c bd fb 9e 2e bd aa 98 3d 3c 3a f0 c5 3b
       -0.068373896 -0.042632084 0.0115720425 0.0060406
000330 f1 b4 6c 3d 6c 30 72 3c f5 73 e8 3c 95 49 1b be
       0.057789747 0.0147820525 0.028375605 -0.15164788
000340 14 9b a7 3d ed cc 19 bd 4a 18 ee bb f0 2f c7 bc
       0.08183876 -0.037548948 -0.007266079 -0.02431485
000350 36 d3 f8 3d ed 46 a0 3c 1d 4a fe 3c f1 84 01 3e
       0.1214966 0.01956507 0.0310412 0.1264837
000360 a9 32 1c 3d 87 02 82 3d 74 e2 d9 bd 8a 55 8d bd
       0.03813425 0.06348138 -0.10638896 -0.06901081
000370 0d 1e 0c be ea bf ec 3c 65 d7 c4 3d 5c c8 12 be
       -0.13683338 0.028900106 0.09611396 -0.14334244
000380 82 74 8d bd 3e 49 fa bd 7f f6 ce 3c ce 7b 46 bd
       -0.06906988 -0.12221001 0.025264023 -0.048457913
000390 1a d8 88 3b 08 e6 f1 3d 86 08 ac 3d b2 6c 0e be
       0.004176152 0.11811453 0.08400063 -0.13908651
0003a0 d7 53 5d 3d 90 14 ed 3d f2 cc b0 3d bf fd f4 3d
       0.054035034 0.115761876 0.0863284 0.11962461
0003b0 1a ea fa bb 7e a4 42 3e 09 64 0a 3c 49 5f f4 bc
       -0.0076573016 0.19008061 0.008446702 -0.029830592
0003c0 db 6a 14 3e c6 1d 0a 3d a0 83 4b bd 67 06 94 bd
       0.14493887 0.0337198 -0.049686074 -0.07227784
0003d0 c2 80 dd bc 77 65 b5 bd d1 78 92 3a e9 d6 b2 bd
       -0.027038936 -0.088572435 0.0011174922 -0.08732397
0003e0 5a 20 cc 3d b6 4b aa bc b5 b6 05 3d 99 43 70 bd
       0.09967108 -0.020788055 0.032644946 -0.058658216
0003f0 da 2c a5 bd 83 07 9f bd 08 5c 07 3e 1c 95 f1 bd
       -0.080651954 -0.077651046 0.13218701 -0.117960185

gru.weight_hh_l1 f4 [192, 64]
000000 dc 5b 91 bd fc 32 5f 3b c7 05 dd bd ef d1 de bd
       -0.07097599 0.0034057489 -0.107921176 -0.108798854
000010 a6 47 a5 bd 19 6c 0d 3d 37 29 91 bd f0 e3 4a bd
       -0.080703065 0.034526918 -0.07087939 -0.049533784
000020 a4 de 11 bd 07 db df bd df 5d 1c 3c 5c 8a c8 3d
       -0.035612717 -0.10930448 0.009543865 0.09792015
000030 f1 10 63 3c e3 5a 3f 3d 04 af 80 3d 01 5b e2 bd
       0.01385902 0.046717536 0.062833816 -0.11052514
000040 83 7d 76 3c 43 4a b0 bc 98 9c e7 bd 4d 35 c3 3d
       0.015044573 -0.021519786 -0.11309165 0.09531651
000050 c6 63 18 3c f0 d4 32 bd 47 e4 d3 3c 93 54 4b bd
       0.009301132 -0.043660104 0.025865687 -0.049641203
000060 fb 80 ba 3d ad 2b e6 bd 67 cc 80 3d 23 0a ad bd
       0.09106632 -0.11238799 0.06288987 -0.08449199
000070 b7 ae 2a bd 35 7c 90 bc c2 34 9c 3d a5 cc 4a bc
       -0.041670527 -0.017637352 0.0762725 -0.012377893
000080 93 90 8a bd 30 b9 83 bd dc 7d 0b 3d 7b d8 c3 3d
       -0.067658566 -0.06431806 0.034055576 0.09562775
000090 0a 55 fd bd 9f 55 f8 3d 30 26 8c 3c 15 cd 6e bd
       -0.123697355 0.12125706 0.017108053 -0.05830105
0000a0 13 b0 16 3c db 6b 25 bd 36 6a 63 3b d3 41 9e bd
       0.009197253 -0.040386062 0.0034700758 -0.07727399
0000b0 8d a8 48 bd 1e 57 15 3d e9 1d 20 bd 54 a2 f4 bc
       -0.048988868 0.036460035 -0.039091025 -0.02986256
0000c0 bd bd 02 be f6 9b 2e bd 20 47 a2 3d 5a 83 6a 3d
       -0.12767692 -0.042629205 0.07923722 0.057254173
0000d0 93 ae e4 bc f5 60 ac bd 90 91 85 3b ba fb 9a bd
       -0.027915275 -0.084169306 0.0040761903 -0.07567544
0000e0 89 97 f4 bc f2 69 1c 3d 31 03 94 bd a3 81 a6 3d
       -0.029857414 0.038186975 -0.07227171 0.08130195
0000f0 7f a6 2a bc 5b de 29 3c e5 b0 19 bc 84 1a bb bd
       -0.010415672 0.010367955 -0.009380554 -0.09135917
000100 7a e1 f3 bd 5d a1 04 bc f5 31 56 3d 67 24 16 bd
       -0.119082406 -0.008095113 0.052293736 -0.03665581
000110 28 df ee bd 0a 02 c3 3c 5b e2 d0 bd 5e d6 39 bd
       -0.116636574 0.023804683 -0.10199424 -0.045370452
000120 bb 6f b4 3d 87 38 b0 bd e9 a7 98 3d 64 c5 05 3d
       0.088103734 -0.08604532 0.07453901 0.03265895
000130 0c cd eb bc 24 7c 9a bc ca 21 ab bc b6 14 63 bd
       -0.028784297 -0.018858023 -0.020890135 -0.055439673
000140 c0 61 54 3c 72 ea b8 bb 1e eb e8 bd 69 1b 69 3d
       0.012962759 -0.0056431824 -0.1137297 0.056910906
000150 e8 58 34 bd bb 4e b5 bd 44 42 b1 3d c7 43 f4 3c
       -0.0440301 -0.08852907 0.08655217 0.029817475
000160 71 b6 c9 3d 6f 50 3d 3d df 2a f2 3d 56 1f d8 3d
       0.09849251 0.046219286 0.11824583 0.10552852
000170 9a f9 f8 3d e1 3d a3 3c c2 cc 6e 3d 46 2f 98 bd
       0.12156983 0.019926967 0.05830074 -0.07430892
000180 63 b2 36 3d 29 c9 8f bd 7c 39 88 3d a9 80 85 3d
       0.044603717 -0.0702079 0.06651589 0.065186806
000190 e0 6a af bd 81 c3 ca bc b4 de 36 3c 64 5e 4b bd
       -0.08565307 -0.024751427 0.011161495 -0.049650565
0001a0 c2 68 45 3c 53 24 6d bd dd c2 e7 bd a4 f6 93 bd
       0.012048902 -0.05789597 -0.11316464 -0.07224777
0001b0 2c e5 71 3d d3 4d d4 bd f0 80 c9 3d 00 d2 e2 3c
       0.059056446 -0.10366406 0.09839046 0.027688026
0001c0 f5 da b4 3d 0b e8 64 bd 82 2d ce bd ea 51 c9 3d
       0.08830825 -0.055885356 -0.10067274 0.09830077
0001d0 67 36 b5 bd 36 06 e4 bc 1c fd 0b 3d fb f8 94 3d
       -0.08848267 -0.027834993 0.03417693 0.07274052
0001e0 e2 2d 04 bd 8d 2b 26 3d 84 26 86 3d 08 6f 54 39
       -0.03227032 0.040568877 0.06550315 0.00020259258
0001f0 83 21 d5 bd 96 65 f1 bd 7f 2b 80 3d 00 d8 e9 3d
       -0.104067825 -0.11786954 0.06258296 0.11418152
000200 22 a7 35 bc 0f ab c8 3d 83 db aa bc ad 6c 78 3d
       -0.011087211 0.09798252 -0.020856624 0.060650516
000210 c5 10 26 3c 8b 4b cf b8 3e b0 db 3d 0e ee b3 bd
       0.010135834 -9.8846e-05 0.10726975 -0.0878564
000220 d6 9a b6 bd 81 53 81 3d 6b bb 09 3c a3 09 d9 bc
       -0.08916251 0.06314755 0.0084065 -0.026493853
000230 65 5f bd 3c d1 4f ad 3d c1 aa a0 bd 39 79 1a 3d
       0.023116777 0.084624894 -0.07845069 0.037713263
000240 a8 ff fb bb 67 a4 80 3d 7b ee d4 3d b3 77 8e 3c
       -0.0076903887 0.06281357 0.10397049 0.017391061
000250 f8 b8 14 bd c1 d7 06 be 61 06 af 3d 18 3e f2 3d
       -0.036309212 -0.13168241 0.085461386 0.1182825
000260 a4 70 1f bd 4d 88 90 bd df a2 a1 bd 5b 2b 3c 3e
       -0.03892578 -0.07057247 -0.07892393 0.18375914
000270 4e 7f c0 bb ec e4 c2 3c 21 94 5e 3d 1d 94 6c bc
       -0.005874551 0.0237908 0.054340485 -0.01443961
000280 62 94 89 3c f8 61 36 bd cc b2 d4 bd 10 5a 56 bd
       0.016794387 -0.044527024 -0.10385665 -0.052331984
000290 a1 04 0f bd e2 43 1e 3e c3 2a 93 3c 73 57 08 bc
       -0.034916524 0.15455583 0.017964726 -0.008321631
0002a0 79 10 5c 3d 46 30 02 3e 14 c8 69 bd 35 b2 d8 bd
       0.053726647 0.12713727 -0.057075575 -0.10580865
0002b0 ce ff fb bd f8 53 53 3c a3 35 66 3d 48 c2 57 3d
       -0.1230465 0.012898438 0.056203496 0.052675515
0002c0 25 2f 2d 3c 6e 07 22 3e d6 77 40 3d d8 be 03 be
       0.010570322 0.15823147 0.046989284 -0.1286577
0002d0 cb c9 77 3d d8 2f 02 3e d3 58 cf 3c ba 56 b2 3d
       0.06049518 0.12713563 0.02531091 0.08707948
0002e0 f5 27 01 3e 79 ab c6 3c 8e 1d 0f 3c 71 68 08 be
       0.12612899 0.024251686 0.008735074 -0.13321091
0002f0 c8 e5 0f be 5d 3d bf 3d 8a a3 85 bd 5b be d8 3c
       -0.14052498 0.09337876 -0.06525333 0.026457956
000300 01 f7 9d bd e3 7d e6 3d 00 33 bd bd 8a 9e 15 3e
       -0.07713128 0.1125448 -0.09238243 0.14611259
000310 0d e9 8c bd 66 1e 16 3d 0a c7 25 3d 14 67 ea 3d
       -0.068803884 0.036650084 0.04047302 0.11445442
000320 4e 8a 47 bd 87 e1 cc 3d fa 12 a6 3c 19 22 27 bd
       -0.048715882 0.100039534 0.02027272 -0.040804002
000330 d4 0a 1c 3d e7 89 d5 bd 32 3c bf 3c 34 1c c9 bd
       0.038096264 -0.104266934 0.023344133 -0.098198324
000340 96 c3 5d 3d 4f 59 84 3c 28 aa 35 bd 55 bc 39 bd
       0.054141603 0.016155867 -0.044351727 -0.045345623
000350 87 1f 1d bd 7f 11 7a 3c 6b 0c 5d 3d f7 cb 8d 3d
       -0.038360145 0.01526296 0.05396692 0.06923669
000360 ae c9 8a 3c 63 47 8c 3c e5 7b f1 bd fa 91 16 3d
       0.016941871 0.017123884 -0.11791209 0.036760308
000370 00 79 00 3e 03 a2 9f 3d 2f 30 9a 3d 66 b6 ce 3d
       0.12546158 0.07794573 0.075287215 0.100933835
000380 46 0b 97 bd 55 3a 7c 3c 64 fd f1 bc 39 4b 96 3d
       -0.07375197 0.015394767 -0.029539771 0.07338566
000390 c6 63 a9 bb cc 12 42 bd 85 4d aa bd 01 49 1d be
       -0.0051693646 -0.047381207 -0.08315567 -0.1535988
0003a0 76 e0 fc bd a7 f5 16 3e f2 63 7b bd 7b 77 11 3d
       -0.123475 0.14742146 -0.061374612 0.035514336
0003b0 84 6a c1 3d 8f 84 95 3d ab b8 2e bd 69 33 21 be
       0.09444144 0.07300674 -0.04265658 -0.15742268
0003c0 a0 ab 2a 3c ef 5a 19 bd dc 14 e6 3c 5b ea 65 bd
       0.010416895 -0.037440237 0.028086118 -0.056131702
0003d0 2a 64 98 3c e4 d3 cd 3d fc 1d d3 bd bd 90 a1 bc
       0.01860245 0.100501806 -0.103084534 -0.019722337
0003e0 58 aa 26 bc 89 ce de 3c b0 1c b0 3d 23 ae 43 be
       -0.010172449 0.027198093 0.08599222 -0.19109397
0003f0 3a 6b 44 bd e1 60 c3 3d 46 c1 1f bb 17 1a 92 bc
       -0.04795382 0.095399626 -0.0024376675 -0.017834706

gru.bias_ih_l1 f4 [192]
000000 b8 64 ac 3d 81 7b 44 3d 6e b0 f2 bc 41 7c 03 3e
       0.08417648 0.047969345 -0.029625144 0.12840368
000010 91 36 c1 bd 8a 08 9d bd 82 16 5b bd 30 1e 30 3d
       -0.09434236 -0.07667644 -0.053488262 0.04299754
000020 06 0b ed 3c 67 dd 1f 3d b4 fe 6a 3c df a1 09 be
       0.02893592 0.039029505 0.0143429525 -0.13440655
000030 4d 74 04 3d 52 14 5a 3d 1f 9b 71 3d 66 c8 f4 3d
       0.032337476 0.053242035 0.058985826 0.119522855
000040 43 a3 db ba 8a 52 af bd cc e7 fa 3b d8 40 9a 3d
       -0.001675703 -0.08560665 0.007657027 0.07531899
000050 46 b3 cb bd 58 f8 0d 3e b7 ec d6 3d 1a 88 d4 bd
       -0.09946303 0.13864267 0.104943685 -0.10377522
000060 72 16 81 3d 85 20 87 bd 69 c5 ed bc d5 dd 98 3d
       0.06303109 -0.065979995 -0.029024797 0.07464186
000070 d5 b1 cb 3c cd 2e dd bd 0c de c6 3d 1f 9e 81 bd
       0.02486507 -0.10799942 0.09710321 -0.06328987
000080 fd 64 0e bd 7f b6 5c bd 3e 6e d9 3a 74 a5 2c 3d
       -0.03476428 -0.05388498 0.0016588641 0.042149976
000090 8f e2 15 3e c4 9d 55 3c 2e d1 c8 bb 5b 76 83 3d
       0.14637206 0.013038103 -0.006128452 0.06419059
0000a0 4d d8 2c 3d 75 a5 e2 3d f7 b5 79 3d 75 73 1d bd
       0.042198468 0.11066715 0.06096455 -0.038440187
0000b0 bd 62 00 be d4 80 f7 3c 1f af 8e 3d 62 76 86 bd
       -0.12537666 0.030212797 0.069669954 -0.065655485
0000c0 3c a1 43 3d bf 0b 31 3d 61 a7 80 bd 49 7f 28 3d
       0.047761187 0.043224093 -0.06281925 0.041137014
0000d0 b8 5a ba bd 35 f7 a3 3d 01 e7 e0 bd fc 07 95 3d
       -0.090993345 0.080061354 -0.109815605 0.072769135
0000e0 39 7e f9 bd be 2f ce bd 0e f4 64 3d d3 a1 b5 bd
       -0.12182278 -0.100677 0.05589681 -0.08868756
0000f0 2c 47 ba 3d d6 9a ed 3c 93 25 48 3d 18 4e 05 3d
       0.09095606 0.029004496 0.04886396 0.03254518
000100 a6 80 fa 3c f0 bc b5 3c 97 c1 17 3e a2 a9 0f bc
       0.030578922 0.022184819 0.14819942 -0.008768471
000110 62 21 05 bb f8 79 29 bc 55 5b 96 bb eb 4a b3 bd
       -0.0020314087 -0.010344021 -0.0045885243 -0.08754524
000120 36 be ba 3b d6 e1 7c bd c7 73 14 bd 56 2a 48 3d
       0.0056989444 -0.06173881 -0.036243226 0.0488685
000130 6d 37 c0 bc 20 7e 2f 3e 55 a6 07 3e dc 93 b8 3d
       -0.02346393 0.17137957 0.13247044 0.09012577
000140 f1 53 87 bd 2b 7b 8e 3d 42 38 09 3d 7b 44 1a 3e
       -0.066078074 0.06957086 0.033500917 0.15065186
000150 f4 da 81 bd e1 d7 42 bd 67 7b 23 3d bf 4c 2e 3e
       -0.0634059 -0.04756916 0.039912608 0.17021464
000160 9b 93 a0 3d 54 b5 16 3d 56 a3 47 3c 96 6e 33 3e
       0.078406535 0.03679402 0.012184938 0.17522654
000170 3b e4 2c 3d 83 ab 16 3e f3 34 81 bc 18 93 09 3e
       0.042209845 0.14713864 -0.015772318 0.13435018
000180 db 15 93 3b a8 b0 fb 3d 1c 6c a8 bd f1 23 aa 3d
       0.0044886894 0.12289554 -0.08223745 0.083076365
000190 07 f7 78 bc 24 14 46 3d bb 57 5d bd 18 59 4f 3d
       -0.015195615 0.04835905 -0.054038744 0.050622076
0001a0 61 71 9e bd e9 8a 31 3e 7b 4f 9b 3d ff 7d ff bc
       -0.07736469 0.17338146 0.07583519 -0.03118801
0001b0 9e b9 a3 3c a7 00 91 bd f0 64 2e 3d 49 a6 8f bc
       0.01998597 -0.070802025 0.04257673 -0.017535346
0001c0 94 d7 06 bd 1e a9 a3 3d f4 df fc 3c 4e 03 aa 3d
       -0.032920435 0.07991241 0.030868508 0.083014116
0001d0 1b 63 36 3e f1 02 26 3d b3 77 fc 3d b1 61 a6 bd
       0.17811243 0.04053015 0.12327518 -0.08124102
0001e0 60 32 b8 3d 7c 11 5b 3d 04 38 0e 3e 88 04 66 3d
       0.08993983 0.05348347 0.13888556 0.056156665
0001f0 ee 8b 28 3e b7 c9 63 3d 40 fb ad 3d 2b 4c e6 3c
       0.16459629 0.055612292 0.08495188 0.028112492
000200 e8 dd 5c bd 45 5b ee bd cd 33 98 3d e3 d0 4e 3d
       -0.053922564 -0.11638502 0.07431755 0.05049218
000210 9c 90 95 3d 85 bf ff 3d 66 b5 ec 3d ae ed 7f bd
       0.07302973 0.12487701 0.115580365 -0.06248253
000220 39 4a ee 3d 75 cd 67 bd 34 9b 82 3d 1f 9b bd bd
       0.116352506 -0.056592423 0.06377259 -0.092581026
000230 d9 4f 5b 3d 0e 20 e9 3d ab 3e dc bd e7 21 d7 bc
       0.053542946 0.11383067 -0.107541405 -0.026261283
000240 d4 6c fe bd 56 4a d1 bd 9b 31 e0 3c ae af 80 3d
       -0.12423101 -0.102192566 0.027367404 0.06283508
000250 e4 aa 52 3d d5 d3 9f bd c3 aa 6a bd 0d 0f d5 3d
       0.051432505 -0.07804076 -0.057291757 0.10403261
000260 29 9e 2b bd 53 18 27 3c e3 fd af bd 41 c1 02 3d
       -0.04189888 0.01019867 -0.08593347 0.031922583
000270 34 3f 6e 3d 9f 06 01 bb 59 db 93 3d b1 cb 09 bd
       0.058165744 -0.0019687784 0.072195716 -0.03364152
000280 dd ae e4 3d 6e 68 cf bc 71 13 8e bc d2 23 87 bd
       0.11166165 -0.02531835 -0.017343255 -0.06598629
000290 e9 73 c3 bd c6 3c 00 bd 1a 8c 80 3c 8e 74 92 3d
       -0.095435925 -0.031307958 0.015691806 0.07151137
0002a0 26 08 96 3d 27 bd 6d 3d 3f ed 07 3d 6b 60 3e bd
       0.07325773 0.058041718 0.03318524 -0.04647867
0002b0 d4 6f 70 bd 79 d2 06 bc 02 9d b0 bd 7f 68 84 bd
       -0.058700398 -0.0082288915 -0.08623697 -0.064652435
0002c0 cf 06 dd bd b9 11 7a 3d cd 1d df bd 24 46 8c bd
       -0.10792314 0.061052058 -0.10894356 -0.06849316
0002d0 0e bb 8c ba 2b 40 70 bd da 62 12 bd bb df ea 3c
       -0.0010736899 -0.058654945 -0.035738803 0.028671136
0002e0 8b 57 d4 b7 74 8a 98 3c 61 89 d1 3d 64 93 ff bd
       -2.5313135e-05 0.018620707 0.10231281 -0.124792844
0002f0 43 f2 b0 3d b6 3b 0b 3d e9 29 66 3d e0 e9 17 bc
       0.08639958 0.03399249 0.056192312 -0.009272069

gru.bias_hh_l1 f4 [192]
000000 b2 de ba bc 16 5d 09 bd 58 66 e3 bc 0a 6c db bd
       -0.022811268 -0.03353604 -0.027758762 -0.10713966
000010 46 6d 65 3c fa 88 c4 bd d6 9b 50 3d 59 bc ed bd
       0.014003104 -0.09596439 0.050929867 -0.1160819
000020 5a 15 c9 bd 7b 81 df bd 9a a5 eb bd 8f a6 7c bd
       -0.098185256 -0.10913368 -0.11506195 -0.06168228
000030 14 ac f8 3c 47 e4 a4 3d 3c 33 0c bc 28 64 65 bd
       0.03035549 0.08051353 -0.008557137 -0.05600372
000040 62 69 ce 3d b4 92 95 bd 89 23 b0 bd 73 f5 75 3d
       0.10078694 -0.07303372 -0.08600528 0.06004853
000050 68 89 a0 3d 0f 36 07 3e 53 63 81 bc c1 34 ae 3d
       0.07838708 0.13204215 -0.015794432 0.08506156
000060 06 5c eb bd bc 64 89 3d a3 6a a8 3c db 49 b0 3b
       -0.114921615 0.06708667 0.02055866 0.005379898
000070 fa ca f4 3b aa ee 89 bc 5f b0 b9 bd ec d7 83 3d
       0.0074704858 -0.016837437 -0.09066843 0.06437668
000080 d9 0d f8 bd c1 61 4d 3d 44 ea 48 bd 4f c1 dc 3b
       -0.12112016 0.050142054 -0.049051538 0.0067369114
000090 9c 3f 8a 3d 8d c6 1d bc 8c 1b 8d bd c1 a4 39 3d
       0.06750414 -0.009629858 -0.0689002 0.045323137
0000a0 37 fa 9c bd 59 df a8 3d 4c 9e e0 3d 3a 38 89 bc
       -0.07664912 0.08245725 0.10967693 -0.016750444
0000b0 8b 58 3a 3d 9b 55 a4 3c fd e3 c7 bd 8c 11 00 bd
       0.045494597 0.020060351 -0.09760282 -0.031266734
0000c0 be 79 ae bd 32 43 b5 bd 95 61 ed 3d cf 22 af 3d
       -0.08519314 -0.08850707 0.11590878 0.08551561
0000d0 4a 29 70 3d 85 fe ba 3c 13 d0 ae 3c 04 79 dd bd
       0.058633126 0.022826442 0.021339452 -0.108140975
0000e0 87 54 97 bd 90 a1 47 bc 80 e5 a9 3d 5f d7 87 bd
       -0.07389169 -0.012184516 0.08295727 -0.06632876
0000f0 3d f2 94 bd cc 0c e3 bd 6a 68 c2 3c f7 b8 35 3d
       -0.07272766 -0.11086425 0.02373143 0.04436585
000100 e8 bf 2d 3e 7a 4b e7 3d f5 5b 3e bd d2 b6 2a bd
       0.16967738 0.11293693 -0.046474416 -0.041678257
000110 e3 67 a7 3c fc 6b 29 3e 1d f1 bd bc be 56 9c bc
       0.02043528 0.16545099 -0.02318626 -0.01908433
000120 59 4c bb bd be c9 0d 3e ce ad b8 3c 8f 8a ac 3d
       -0.091454215 0.1384649 0.022543814 0.084248655
000130 8b 38 3e 3d 6d 55 11 3e 17 fe 90 bd 72 02 57 3d
       0.046440642 0.14192744 -0.07079714 0.052492566
000140 02 c4 10 3c 24 bf 24 3e 0d fa 39 bc 51 1d c4 bc
       0.008835794 0.1608854 -0.011351121 -0.02393976
000150 86 e7 74 bd 08 a9 a4 3d 2f 30 2c 3e 1d ba a9 3d
       -0.05979111 0.08040053 0.16815256 0.082874514
000160 42 4f 1a 3d 48 34 23 3e 32 b6 9e bd d3 aa a4 3c
       0.037673242 0.15937912 -0.07749595 0.020100987
000170 a3 2a a0 bd e2 19 7e bd 0f 9d fb 3d fb 05 85 bd
       -0.07820632 -0.062036403 0.12285816 -0.06495281
000180 df 94 9e ba c5 e7 8a 3d d1 03 3f bd 7b 20 a8 3d
       -0.001209881 0.06782488 -0.0466345 0.0820932
000190 34 71 04 3e 40 cd 06 3e 11 7b 29 bd b3 b7 8f bd
       0.12933809 0.13164234 -0.04137713 -0.0701746
0001a0 52 75 cf bd 62 f0 31 3d fb b3 59 3d 98 f8 09 3d
       -0.10129799 0.043442138 0.05315016 0.033684343
0001b0 a4 1c b4 bd a2 46 30 3e 18 6c a2 bd b8 8b df 3d
       -0.08794525 0.17214444 -0.079307735 0.10915321
0001c0 03 08 c9 bd 5c 6f 08 3e b9 61 99 bc fe 1f 79 3d
       -0.09815981 0.1332373 -0.018723356 0.060821526
0001d0 ef 17 31 bb f4 f5 1f bd d5 a1 5a 3b 09 41 97 3d
       -0.0027022322 -0.03905292 0.003336062 0.07385451
0001e0 d4 e2 9b 3d f9 0a 90 3d 1e c9 d2 3c 3f 45 c3 3d
       0.076116234 0.07033343 0.025730666 0.09534692
0001f0 4a aa 07 3e 05 6d 39 bd 9c 18 56 3d 54 10 d0 3d
       0.13248554 -0.045269985 0.052269563 0.10159364
000200 aa ed 37 bd 92 54 c9 3d b0 9c 69 bd 3f 25 c3 3a
       -0.04490439 0.09830584 -0.057034194 0.001488842
000210 7d fc d3 3d 72 c6 19 3d 89 6d 9c bd 04 54 09 3c
       0.10350893 0.037542768 -0.0763808 0.008381847
000220 20 4d fc 3d 62 b4 af 3c 4b c5 3c 3d 6f f3 a6 3d
       0.12319398 0.021448318 0.04608659 0.081519
000230 be 7f 5b 3d bc 60 f7 3c 65 35 9d 3b 76 8a 7b 3d
       0.05358862 0.030197494 0.004797625 0.061411344
000240 97 bc 07 3d 84 0b 44 bd 1d 60 c8 3d c3 ce 37 bd
       0.033138838 -0.047862545 0.09783957 -0.044874918
000250 58 32 1f bc 3d aa 84 bc 4a cd b3 bc 62 d2 f3 bd
       -0.009716593 -0.016194457 -0.021948475 -0.11905362
000260 5c 24 82 bd 4a 96 f7 bd a4 f2 b5 bd 61 96 d8 ba
       -0.06354591 -0.12089212 -0.08884171 -0.0016524309
000270 82 cb 58 bd 2a ff 0d 3e 72 4a fa bd 27 d7 0a bc
       -0.052928455 0.13866869 -0.122212306 -0.008474148
000280 3f 9f be bc 0d 5d 3d bd c4 ed 02 bc 8b f9 b1 bd
       -0.023269294 -0.04623132 -0.007991258 -0.08690175
000290 71 99 76 3b e4 ab ff 3d 5d 8e c8 3b f2 03 5d 3c
       0.003762808 0.124839574 0.0061204867 0.01348971
0002a0 ed f0 1a 3d 6e 68 b4 bd 18 d7 06 3e b8 01 d2 bd
       0.03782742 -0.08808981 0.13167989 -0.10254234
0002b0 26 27 5b bd 28 98 d6 3d 32 94 ab bd 42 59 c2 3d
       -0.05350413 0.1047824 -0.083778754 0.09489681
0002c0 2b 64 85 3d 2d cf ab bd 0d 29 ba bd 2c 01 32 3d
       0.06513246 -0.08389125 -0.09089861 0.04345815
0002d0 28 f8 18 3d ce b3 be 3d a6 82 c5 3c e4 33 fc 3c
       0.037346035 0.09311639 0.02411015 0.030786462
0002e0 fb 73 a1 bd 3e 2a 4b 3c 87 04 8a 3d 0e 01 81 3d
       -0.0788345 0.012400208 0.06739145 0.06299029
0002f0 6c f1 b8 3d 4c 17 f5 3d 17 09 01 bb 0f d3 d4 3d
       0.090304226 0.11967334 -0.0019689256 0.10391819
