timeseries_model.pth (torch, 68450 bytes, 6 tensors)

gru.weight_ih_l0 f4 [192, 19]
0	0x3c636a63	0.013880345
1	0xbb99ab96	-0.004689644
2	0x3e00d8e8	0.12582743
3	0x3d96774d	0.073469736
4	0x3e316aad	0.1732585
5	0xbceeaa46	-0.029133927
6	0x3cc0fd9a	0.023558427
7	0x3e2a17aa	0.1661059
8	0xbc7c2240	-0.015389025
9	0x3dcdfbd6	0.100577995
10	0x3dc587bf	0.09645032
11	0x3e32303c	0.17401212
12	0x3dee2f4b	0.11630114
13	0xbc89cc07	-0.01682092
14	0x3c8ccb3a	0.01718675
15	0x3e14e191	0.14539172
16	0x3db15921	0.08659578
17	0x3dcdbb49	0.100454874
18	0x3d549e06	0.051908515
19	0xbd1aa47d	-0.037754524
20	0xbda33def	-0.07970797
21	0xbcd0abba	-0.02547251
22	0xbd8ca95d	-0.06868241
23	0xbd7e2a8f	-0.062052306
24	0xbdd8f163	-0.10592916
25	0xbda5d156	-0.08096568
26	0x3bfa0803	0.0076303496
27	0x3d8f99d7	0.070117645
28	0x3df539ef	0.119739406
29	0xbdb3c29a	-0.08777352
30	0xbd66b1f0	-0.05632204
31	0xbdb8a265	-0.09015349
32	0xbdf4a4cf	-0.11945497
33	0x3dc74e5e	0.09731744
34	0xbdaa4519	-0.083139606
35	0x3d4b84d3	0.049687218
36	0x3dd70f25	0.105009355
37	0x3dc03473	0.09385004
38	0x3c46c5d5	0.012132128
39	0xbd03b19e	-0.03215181
40	0x3bea9e32	0.0071599716
41	0xbd872fb8	-0.066008985
42	0x3dbfc1e9	0.09363157
43	0xbdd46179	-0.10370154
44	0xb9d6ee80	-0.00040994957
45	0x3cd91e0a	0.026503582
46	0xbd8a5e02	-0.06756212
47	0x3c8de074	0.017318942
48	0x3e061379	0.13093366
49	0xbd29a893	-0.04142053
50	0xbdd1c362	-0.102423444
51	0xbdd02792	-0.101637974
52	0x3db65ada	0.08904047
53	0x3da3ce83	0.07998373
54	0xbdd2fc81	-0.103020675
55	0xbd2e7e98	-0.042601198
56	0xbdc947b0	-0.098281264
57	0x3e020db4	0.1270054
58	0xbdd603e4	-0.10449961
59	0xbd637e5e	-0.055540435
60	0x3d76137f	0.060077187
61	0x3db8ffb0	0.090331435
62	0x3e17c648	0.14821732
63	0x3e1e38c5	0.15451343
64	0xbc806774	-0.01567433
65	0x3d693acd	0.056940842
66	0x3c0c23a1	0.0085534165
67	0x3d8c52ad	0.06851707
68	0xbd75493b	-0.05988429
69	0x3bb8ac6e	0.0056357896
70	0x3d528e01	0.051404957
71	0x3d9d8891	0.076920636
72	0x3c714971	0.014726982
73	0x3e2cfe3a	0.16893855
74	0x3d39ff30	0.04540938
75	0x3e36e5c2	0.17861083
76	0x3c5c1bf9	0.013434404
77	0xbd375a25	-0.044763703
78	0x3d55be48	0.05218342
79	0xbdf41b18	-0.1191923
80	0xbc28849b	-0.010285522
81	0xbd4d0a30	-0.050058544
82	0x3d6fe2a5	0.058565754
83	0xbba80b69	-0.0051283133
84	0xbc68fdea	-0.014220694
85	0x3d7f741a	0.062366582
86	0xbd83e380	-0.064398766
87	0xbb94420e	-0.004524476
88	0x3d51c792	0.051215716
89	0xbdc559e0	-0.09636283
90	0xbd09bedb	-0.03362928
91	0x3d7aebab	0.061259907
92	0xbdf233c6	-0.11826281
93	0xbdae46bb	-0.085095845
94	0x3d355299	0.044268224
95	0x3c25d2d7	0.010121069
96	0xbd8c28ac	-0.06843695
97	0xbdaa434e	-0.083136186
98	0x3b904ee6	0.0044039367
99	0x3de7476e	0.11292921
100	0xbde0d63e	-0.109783635
101	0x3da238e2	0.07921006
102	0xbc650ee5	-0.013980602
103	0xbdd13e66	-0.1021698
104	0xbd53b5d2	-0.05168707
105	0x3d8a99a9	0.067675896
106	0x3dbb55b1	0.09147204
107	0xbd39d8d0	-0.045372784
108	0x3dd691a7	0.10477
109	0x3d417905	0.047234554
110	0xbc2468c2	-0.010034742
111	0xbdb92001	-0.090393074
112	0xbd29f9a7	-0.041497853
113	0xbe0943b3	-0.13404731
114	0x3d19817a	0.037476994
115	0x3d0b7315	0.034045298
116	0xbce93ddd	-0.028471882
117	0xbace1500	-0.0015722811
118	0x3d112964	0.035439864
119	0x3c19d2ce	0.009388639
120	0xbd907520	-0.0705359
121	0x3d675eac	0.05648677
122	0x3d053a10	0.032526076
123	0xbc8da69c	-0.01729136
124	0x3b9e4942	0.0048305104
125	0xbcb11412	-0.021616016
126	0x3de5554c	0.1119791
127	0x3dd836a4	0.10557297
128	0x3ddf63f6	0.10907738
129	0x3ddf689a	0.10908623
130	0x3d97fa04	0.074207336
131	0x3d4e4488	0.050358325
132	0xbdaa5078	-0.083161294
133	0xbcfeeefe	-0.03111982
134	0xbe3768b8	-0.17911041
135	0x3da457ae	0.08024536
136	0xbd9f0d3d	-0.07766197
137	0x3db78c65	0.08962325
138	0x3c520882	0.012819411
139	0xbca3a14a	-0.01997437
140	0xbc5e655b	-0.01357397
141	0xbb87dc2f	-0.004146121
142	0xbbd0d91f	-0.006373539
143	0xbdd55a6d	-0.10417638
144	0xbc92ac07	-0.017904295
145	0x3dfda4c2	0.12384941
146	0xbe1731aa	-0.14765039
147	0x3dad893d	0.08473442
148	0x3d074040	0.033020258
149	0x3d242004	0.040069595
150	0x3dc4a563	0.096018575
151	0x3d6bbf34	0.057555392
152	0xbdb5cf52	-0.08877434
153	0x3da4f618	0.08054751
154	0xbd9aeac4	-0.07564309
155	0x3c9eda51	0.01939121
156	0xbddee74d	-0.10883961
157	0xbe1966b5	-0.14980586
158	0x3d8b6df4	0.06808081
159	0xbe16f233	-0.14740829
160	0xbd90ac13	-0.070640706
161	0xbc34e1d0	-0.011040166
162	0xbe0a2ccf	-0.13493656
163	0xbdbe25bc	-0.09284541
164	0xbc92b6c9	-0.017909424
165	0xbd502442	-0.05081583
166	0xbb8212d8	-0.0039695315
167	0x3c827ab6	0.015927654
168	0xbe124e1a	-0.14287606
169	0xbd950004	-0.072753936
170	0xbe2309cc	-0.15921706
171	0x3db6447f	0.08899783
172	0x3d82acac	0.06380591
173	0xbdb2e290	-0.087346196
174	0x3da26b7c	0.07930657
175	0xbc84a187	-0.016190303
176	0xbd1aa3f0	-0.037754
177	0xbdafb0d8	-0.08578652
178	0xbd5f3541	-0.054494146
179	0x3da13224	0.07870892
180	0xbdc523eb	-0.096259914
181	0x3ca5e02b	0.020248493
182	0x3cffe8c6	0.031238925
183	0x3dc846bd	0.09779117
184	0xbdd076d4	-0.10178915
185	0xbe00dce8	-0.12584269
186	0xbcd364c1	-0.02580488
187	0xbdf83381	-0.121191986
188	0x3de96bbf	0.11397504
189	0x3d61e3a7	0.055148747
190	0x3dcbf3e5	0.099586286
191	0xbcff4810	-0.031162292
192	0xbd9bcca4	-0.076073915
193	0x3dc1e90f	0.094682805
194	0xbd0110f8	-0.031510323
195	0x3db06524	0.08613041
196	0xbdaf05b5	-0.085460104
197	0xbd9056e3	-0.07047822
198	0x3da20382	0.07910825
199	0xbd2933ec	-0.041309282
200	0xbcd2dbd2	-0.025739584
201	0xbdbe0ec7	-0.09280162
202	0xbdef6da8	-0.11690837
203	0xbd34da56	-0.044153534
204	0xbd98c2f6	-0.07459061
205	0xbd3c0567	-0.04590359
206	0xbd8a534d	-0.067541696
207	0xbdcbb5ed	-0.09946809
208	0xbe0f9792	-0.14022663
209	0xbdc21ee0	-0.09478545
210	0x3cc6d781	0.024272682
211	0xbd582eaa	-0.052778877
212	0xbcb4e289	-0.022080677
213	0x3d04dec2	0.032439
214	0x3d2d0afe	0.04224681
215	0xbde4f255	-0.11179034
216	0x3c389715	0.0112664895
217	0xbddc22bd	-0.10748813
218	0x3cc246ce	0.023715403
219	0xbd81f2c0	-0.06345129
220	0xbda6d3ba	-0.081458524
221	0x3dc78c2f	0.09743535
222	0xbd55ba41	-0.05217958
223	0x3dac2b2e	0.08406673
224	0x3ce0fd90	0.027464658
225	0xbd9ab4f1	-0.07554043
226	0x3dc7b548	0.097513735
227	0xbd7b9047	-0.06141689
228	0x3db3111a	0.08743496
229	0x3d48995c	0.04897438
230	0xbd808e18	-0.06277102
231	0x3c5b9083	0.0134011535
232	0xbd8a6c04	-0.067588836
233	0x3ddf8410	0.10913861
234	0x3dd1a2e9	0.10236151
235	0xbd9735d7	-0.07383316
236	0x3e062cbe	0.13103005
237	0xbd8060dd	-0.06268475
238	0x3b4d684a	0.0031342679
239	0x3d2fb055	0.042892773
240	0xbcc1b18b	-0.02364423
241	0xbd1c7f44	-0.038207307
242	0xbd9057ac	-0.07047972
243	0x3e3890b8	0.18023956
244	0xbbf7166a	-0.0075405138
245	0x3de06544	0.10956815
246	0xbcb91cb8	-0.022596702
247	0x3dd9808f	0.10620224
248	0xbdb23b69	-0.08702738
249	0xbd3d953c	-0.0462849
250	0x3d03e005	0.032196064
251	0x3e267ed2	0.16259316
252	0x3c93406f	0.01797506
253	0x3d90e948	0.07075745
254	0x3dc8044d	0.09766445
255	0x3d8214f0	0.0635165

gru.weight_hh_l0 f4 [192, 64]
0	0xbe07eb78	-0.13273418
1	0xbdd60bda	-0.10451479
2	0x3da902d9	0.08252496
3	0x3cbf719e	0.023369607
4	0x3dea1740	0.11430216
5	0xbd13bd10	-0.036068976
6	0xbd454927	-0.048165467
7	0x3cc72a77	0.024312241
8	0xbcc36f8e	-0.023856904
9	0xbdd63ddf	-0.1046102
10	0x3b850b81	0.0040602093
11	0xbcf65b02	-0.030072693
12	0x3d13a86b	0.036049288
13	0x3d208138	0.039185733
14	0xbd6b0e73	-0.057386827
15	0xbd1dea1d	-0.038553346
16	0x3d051aeb	0.032496374
17	0x3d90c1a7	0.07068186
18	0x3b4d3baa	0.003131608
19	0xbd87a261	-0.06622768
20	0x3bf15195	0.0073644617
21	0xbdd75df0	-0.10515964
22	0x3d2018ef	0.03908628
23	0xbca97c2d	-0.020689094
24	0x3e11e667	0.14248048
25	0xbd004ded	-0.031324316
26	0xbd0ef072	-0.034897275
27	0xbc58e4aa	-0.0132381115
28	0x3d65afee	0.056075983
29	0xbdf3e69b	-0.11909219
30	0xbd0027e1	-0.03128803
31	0xbdaeda83	-0.085377716
32	0xbb08d7cb	-0.0020880576
33	0x3c7c5c19	0.015402817
34	0x3c021143	0.007938686
35	0x3d81b4f7	0.063333444
36	0x3de7c61e	0.11317085
37	0x3d8f9d36	0.070124075
38	0xbbd5f4e6	-0.0065294383
39	0xbd698f2a	-0.057021298
40	0xbda2a582	-0.07941724
41	0x3d973aa6	0.07384233
42	0x3d12e646	0.035864137
43	0xbd9e98b1	-0.07743967
44	0x3d003fd1	0.03131086
45	0xbd129d0e	-0.03579431
46	0x3dc59ba3	0.09648826
47	0xbdf3ea26	-0.11909895
48	0xbe114147	-0.14185058
49	0xbddd9397	-0.10819166
50	0xbd91d43e	-0.0712056
51	0xbca505b5	-0.020144323
52	0xbd365bcd	-0.04452114
53	0x3d1d8fe6	0.03846731
54	0xbd40f720	-0.047110677
55	0x3db0c720	0.0863173
56	0x3d7d2c07	0.061809566
57	0x3c8d23b4	0.017228939
58	0x3d982473	0.07428827
59	0x3d1abaa4	0.03777565
60	0xbde0fc76	-0.10985653
61	0x3c912667	0.017718507
62	0xbe0f393a	-0.13986674
63	0xbc52f779	-0.012876385
64	0x3b959b0f	0.0045656036
65	0x3d3c37c8	0.045951635
66	0x3c95d2c0	0.01828897
67	0x3dab20d8	0.08355874
68	0xbd0ada1b	-0.033899408
69	0xbce980fe	-0.028503891
70	0x3d968c60	0.07350993
71	0x3d66b998	0.05632934
72	0x3d6cc503	0.057805073
73	0x3cb22aa6	0.021748852
74	0x3deccede	0.11562894
75	0x3dca9b3b	0.09892889
76	0x3c8edb8e	0.017438676
77	0x3dd6d7fc	0.104904145
78	0x3da1a065	0.07891921
79	0xbdf8fc5d	-0.121575095
80	0x3d64f91a	0.055901624
81	0xbc8958f4	-0.016766049
82	0x3dccb42d	0.09995303
83	0x3d1f78c8	0.038933545
84	0xbc2b883d	-0.010469493
85	0xbdfaebe2	-0.12252022
86	0xbd3b5a52	-0.045740433
87	0xbdabddbb	-0.08391901
88	0xbdb3326c	-0.087498516
89	0x3d23699f	0.03989565
90	0x3d2c024b	0.041994374
91	0x3d540272	0.051760145
92	0x3daefbd7	0.085441284
93	0x3d744776	0.059638463
94	0xbd7531e2	-0.059862025
95	0x3d3c3b9f	0.045955297
96	0x3da83dc5	0.082149066
97	0x3d9b36fc	0.07578847
98	0xbdff45e0	-0.124644995
99	0x3d83ea09	0.06441123
100	0x3d69a4d3	0.057041954
101	0xbda816df	-0.08207487
102	0xbde4fb8f	-0.111807935
103	0xbcad1896	-0.021129888
104	0xbc53c372	-0.012925016
105	0x3b80207c	0.0039101224
106	0xbdb1c1ac	-0.08679518
107	0x3dde5ba8	0.10857326
108	0xbcce33ce	-0.025171187
109	0x3dfa6fcf	0.12228357
110	0xbdf6de56	-0.12054126
111	0x3de22c99	0.110436626
112	0xbd8e1437	-0.069374494
113	0x3d4bbef7	0.049742665
114	0x3de5e051	0.112244256
115	0x3dfa31c9	0.12216527
116	0x3dc53da0	0.09630895
117	0xbdaefba0	-0.085440874
118	0x3da0fc11	0.07860578
119	0x3dcca68a	0.09992702
120	0xbd554037	-0.052063193
121	0xbde4bb8a	-0.11168583
122	0x3cd63e43	0.026152736
123	0x3dd0beea	0.10192664
124	0x3cc70675	0.024295071
125	0xbd30dc13	-0.04317863
126	0x3cac6356	0.02104346
127	0x3d19acc1	0.037518267
128	0x3d7f9f23	0.062407624
129	0x3d126915	0.035744745
130	0xbd8bdc03	-0.06829073
131	0xbd8b6972	-0.068072215
132	0xbc770aef	-0.01507829
133	0x3de5ed17	0.11226862
134	0x3d37bc1e	0.044857137
135	0x3d60c101	0.054871563
136	0x3dec2dd8	0.115321815
137	0x3dc513d7	0.09622925
138	0xbd03685d	-0.03208195
139	0x3d83a0e0	0.06427169
140	0x3cc96a78	0.024586901
141	0x3d8d5d25	0.069025315
142	0xbde774a3	-0.113015436
143	0x3d009772	0.03139443
144	0x3db58b4b	0.08864459
145	0xbd2e6297	-0.04257449
146	0x3d99c442	0.07508136
147	0x3de52aac	0.1118978
148	0xbd81485b	-0.06312629
149	0xbb650150	-0.003494341
150	0xbd356865	-0.04428901
151	0xbd63fc6a	-0.055660643
152	0x3d2f4c6f	0.042797502
153	0x3de5d91e	0.112230524
154	0xbd1ae156	-0.037812553
155	0xbd828095	-0.06372181
156	0x3cc535a6	0.024073433
157	0x3d8e6f4c	0.06954822
158	0x3dbd62c6	0.09247355
159	0xbca92222	-0.020646159
160	0xbdab23c1	-0.08356429
161	0x3df1665a	0.117871
162	0xbd787f9b	-0.06066857
163	0x3dc4c208	0.09607321
164	0xbd2689b0	-0.040658653
165	0x3dcd6f4c	0.10030994
166	0xbdbd1ef1	-0.09234417
167	0xbba193bd	-0.004930942
168	0xbdbb81ad	-0.09155593
169	0x3dfc8ddb	0.12331744
170	0xbd520315	-0.05127247
171	0xbdabddfc	-0.083919495
172	0x3da1da5b	0.07902976
173	0xbe12a978	-0.1432246
174	0x3da6cd39	0.08144612
175	0xbd6e18b1	-0.058129016
176	0xbd8863ac	-0.06659636
177	0x3d9c5750	0.07633841
178	0xbdfad337	-0.12247317
179	0x3dc6ce40	0.09707308
180	0xbdb6f52c	-0.089334816
181	0x3dca2862	0.09870984
182	0x3c90a74b	0.017657897
183	0x3d2906af	0.04126614
184	0xbdbada9a	-0.09123726
185	0x3d35e2cd	0.044405747
186	0xbd7c6597	-0.06162032
187	0xbac63a54	-0.0015123584
188	0x3d964ce4	0.073388845
189	0x3d06d419	0.032917116
190	0xbd893092	-0.06698717
191	0xbdbaea4f	-0.09126722
192	0xbd1e4f3f	-0.038649794
193	0xbe281ed6	-0.16418013
194	0x3c767703	0.015043023
195	0x3e0b422a	0.13599458
196	0xbdfa191d	-0.12211821
197	0x3c2609e2	0.010134192
198	0x3c876d1e	0.016531523
199	0xbd41747c	-0.04723023
200	0x3ae41a7e	0.0017402915
201	0x3c11bb4f	0.0088947555
202	0x3c19f149	0.009395906
203	0x3d7a08c8	0.06104353
204	0x3dcb3717	0.09922617
205	0xbd91d453	-0.07120576
206	0x3cdc1be7	0.026868774
207	0x3ccf0cb9	0.025274621
208	0xbdaf23f5	-0.0855178
209	0xbd796836	-0.0608904
210	0x3e0e40c7	0.13891898
211	0x3c9af546	0.018915784
212	0x3d737a3e	0.05944275
213	0xbc7d2c21	-0.015452416
214	0x3e163e1c	0.1467213
215	0xbbd14d6e	-0.006387404
216	0x3d8029dc	0.06257984
217	0x3d97b7e2	0.0740812
218	0xbd91c9bd	-0.07118557
219	0x3c8d9244	0.017281659
220	0xbe1f5214	-0.15558654
221	0xbddfad96	-0.10921781
222	0x3d8d3bcc	0.06896171
223	0x3d49ff5e	0.049315803
224	0x3c7f45d4	0.015580613
225	0xbde21541	-0.1103921
226	0xbdaae08b	-0.083436094
227	0x3c7e1d12	0.015509861
228	0xbdacac64	-0.084313184
229	0x3d8932ba	0.066991284
230	0x3dcd47f0	0.100234866
231	0xbd9b7401	-0.07590485
232	0x3dbe6a6a	0.092976406
233	0x3def9d11	0.1169988
234	0x3d2a1686	0.041525386
235	0x3dedecca	0.116174296
236	0xbe01713f	-0.12640856
237	0xbd0c3cea	-0.03423778
238	0x3b9daf6c	0.0048121717
239	0xbdce2d03	-0.10067179
240	0x3d0530e4	0.03251733
241	0x3b67070e	0.0035252008
242	0x3d42f8f2	0.047600694
243	0xbd86a3c6	-0.06574206
244	0x3ccdcae1	0.025121154
245	0xbdafe7a3	-0.08589103
246	0xbb60ee26	-0.0034321635
247	0x3ddcaece	0.10775529
248	0x3cda9acc	0.026685141
249	0xbc926f35	-0.017875293
250	0x3de7ab03	0.11311915
251	0x3d822c51	0.06356109
252	0xbd568f2d	-0.052382637
253	0xbb50c39d	-0.0031854876
254	0xbde19e0e	-0.11016475
255	0x3cd247cb	0.025669

gru.bias_ih_l0 f4 [192]
0	0xbcb26c1d	-0.021780068
1	0x3c816f76	0.015800219
2	0x3b14c485	0.0022700143
3	0x3db2e974	0.08735934
4	0x3ce12cbc	0.027487151
5	0x3df988d5	0.12184302
6	0x3cc07545	0.023493418
7	0x3e0e4cfb	0.13896553
8	0xbcb3af69	-0.021934228
9	0xbcc7ab47	-0.024373664
10	0xbd3fa8d4	-0.046791866
11	0xbd58bd31	-0.052914802
12	0x3cb8b76b	0.022548398
13	0x3d135e07	0.035978343
14	0x3d2b91a0	0.041886926
15	0x3da3250f	0.07966053
16	0xbd815ae0	-0.06316161
17	0x3bab756e	0.0052325046
18	0xbdffd942	-0.124926105
19	0xbbb34f6f	-0.0054721157
20	0x3d82a5da	0.0637929
21	0xbd6febb2	-0.058574386
22	0x3e00188f	0.12509368
23	0x3cee1a0f	0.02906516
24	0xbd2fc3f7	-0.042911496
25	0x3e1354fc	0.14387888
26	0x3b42e23a	0.0029736892
27	0x3d66e2fa	0.056368805
28	0x3d1a0ac9	0.03760794
29	0x3d639896	0.05556544
30	0x3bdb058e	0.006684012
31	0x3c0262fb	0.007958169
32	0xbd2e5d41	-0.042569403
33	0x3d97264e	0.07380353
34	0x3d6ac9b2	0.057321258
35	0xbd40b8b8	-0.04705116
36	0x3c856b6d	0.016286576
37	0x3d9c835c	0.07642242
38	0x3dabdae2	0.08391358
39	0xbbbd0b94	-0.0057692025
40	0xbd317c21	-0.04333127
41	0xbd493c41	-0.04912973
42	0xbc20902c	-0.009799998
43	0xbd91238b	-0.070868574
44	0x3b74ed53	0.0037372902
45	0xbdd581b1	-0.10425127
46	0x3d3e3210	0.046434462
47	0xbdd6a74f	-0.1048113
48	0x3db36c50	0.08760893
49	0xbda32abe	-0.07967137
50	0x3d82a3dc	0.0637891
51	0x3deafff2	0.11474599
52	0x3e050f38	0.12994087
53	0x3e022a11	0.1271136
54	0xbd5fad77	-0.05460879
55	0x3c873d2b	0.01650866
56	0x3db1b6dc	0.08677456
57	0xbc8d2860	-0.017231166
58	0xbd240e0e	-0.040052466
59	0x3d850952	0.06495918
60	0xbd882668	-0.066479504
61	0xbdba1dcc	-0.090877146
62	0xbd8af5ef	-0.06785189
63	0xbcdf3778	-0.02724813
64	0x3e23f93d	0.16013046
65	0xbda6b029	-0.08139069
66	0x3de2041d	0.11035941
67	0x3dd8df53	0.10589471
68	0x3e087b8e	0.13328382
69	0xbca942e5	-0.02066178
70	0xbda6c406	-0.08142857
71	0x3d8b1b10	0.06792271
72	0xbd6fab4b	-0.058512967
73	0x3d5887a7	0.052863743
74	0xbdabb931	-0.08384932
75	0x3dbb3487	0.09140878
76	0x3c7aa4aa	0.015298048
77	0x3c69c966	0.014269209
78	0x3df33124	0.11874607
79	0xbd3ab0ab	-0.04557864
80	0xbbb2e8a9	-0.005459864
81	0xbb001c70	-0.00195482
82	0xbcd34ec0	-0.025794387
83	0xbd613785	-0.05498459
84	0x3d7b3f36	0.06133958
85	0xbc77a4e2	-0.015114995
86	0xbd926984	-0.07149032
87	0xbbc27542	-0.0059343884
88	0xbccd2d7d	-0.025046105
89	0x3da26793	0.079299115
90	0xbd1f4dd1	-0.03889257
91	0xbd6d77a4	-0.057975426
92	0x3dbb9c25	0.091606416
93	0x3a87ba67	0.0010355235
94	0xbd93fbbd	-0.0722575
95	0xbca63d9b	-0.020293048
96	0xbd52b7bb	-0.05144475
97	0x3d9aa35e	0.07550691
98	0x3dfc5cbc	0.12322375
99	0xbcf4f1c7	-0.029900445
100	0x3d0fe103	0.035126697
101	0x3d9e2558	0.077219665
102	0xbda3ec5c	-0.08004066
103	0x3cfd2c2f	0.030904857
104	0x3bdf6757	0.006817739
105	0x3daea16e	0.08526884
106	0xbd36188a	-0.044456996
107	0x3df4a6bf	0.11945867
108	0x3db82925	0.08992223
109	0xbdbc46b7	-0.09193175
110	0x3bdc1040	0.0067158043
111	0xbdb8190e	-0.08989154
112	0xbc63b69e	-0.01389852
113	0xbd8b7a91	-0.06810487
114	0x3d7d4ef2	0.061842866
115	0x3c8c2f8d	0.017112518
116	0x3dbe942f	0.093056075
117	0xbe1f850b	-0.15578096
118	0x3d2495cb	0.040181916
119	0xbd244cc2	-0.040112264
120	0xbdd3b5ca	-0.10337408
121	0x3d2615ed	0.040548254
122	0x3d97324e	0.07382642
123	0xbd8686c3	-0.065686725
124	0xbdbb5833	-0.09147682
125	0xbda18a44	-0.078877
126	0xbd8f293d	-0.069902875
127	0xbc0fb944	-0.008772198
128	0xbe00ec4c	-0.1259014
129	0xbdf9e076	-0.12201016
130	0xbd9a38d5	-0.07530371
131	0xbce51753	-0.027965223
132	0x3da76224	0.08173016
133	0x3dafa8c7	0.085771136
134	0xbc84db3d	-0.016217822
135	0xbd232675	-0.039831597
136	0xbdd1475d	-0.102186896
137	0x3dc4fd1d	0.0961859
138	0xbdae2932	-0.08503951
139	0xbd52b731	-0.051444236
140	0x3dfb031d	0.12256453
141	0xbd16f7a2	-0.036857255
142	0xbd82c282	-0.06384756
143	0xbdd7d619	-0.10538883
144	0xbdcba058	-0.099426925
145	0x3dbc1af1	0.09184826
146	0x3d5f1888	0.054466754
147	0x3c097fc9	0.008392283
148	0x3c949403	0.018136984
149	0xbd7f64f8	-0.06235215
150	0x3d36de74	0.04464574
151	0x3d1dd86d	0.038536478
152	0x3b1e19b4	0.0024124207
153	0xbd83c4ed	-0.06434045
154	0xbd9c6f0d	-0.07638369
155	0xbd83a354	-0.06427637
156	0xbddbc336	-0.10730593
157	0x3bae5fac	0.0053214636
158	0x3d6c0236	0.057619296
159	0x3cce9b62	0.025220577
160	0x3d143612	0.036184378
161	0x3d97f6a2	0.07420088
162	0xbd983120	-0.07431245
163	0x3e078634	0.13234788
164	0xbc72b6c5	-0.014814083
165	0x3de5299e	0.111895785
166	0xbdf59920	-0.11992097
167	0x3ddd6551	0.1081034
168	0xbdc46370	-0.09589279
169	0x3d922c28	0.071373284
170	0xbd834bcb	-0.06410941
171	0x3cd2176a	0.02564593
172	0xbddc759b	-0.10764619
173	0xbc23bdf5	-0.00999402
174	0x3d7185ec	0.05896561
175	0xbdfa2891	-0.12214769
176	0x3d79de7f	0.061003204
177	0x3dd0ede5	0.10201625
178	0x3c5fcb73	0.013659346
179	0x3cd5f688	0.026118532
180	0xbc6b49d5	-0.014360865
181	0xbb80459b	-0.0039145476
182	0xbdc568d7	-0.09639137
183	0xbb759d60	-0.0037477836
184	0xbd0ced02	-0.034405716
185	0xbbfa0871	-0.007630401
186	0xbdb1085f	-0.08644175
187	0xbd4d63e8	-0.050144106
188	0xbd9371d4	-0.07199445
189	0xbd20cc39	-0.039257262
190	0xbdac9ee4	-0.084287435
191	0xbde5990d	-0.11210833

gru.bias_hh_l0 f4 [192]
0	0xbdc10718	-0.09425181
1	0x3d81b765	0.06333808
2	0xbd8a6b79	-0.0675878
3	0xbd0132cb	-0.03154258
4	0xbd133fb9	-0.035949443
5	0xbcbfbe61	-0.02340621
6	0xbd51e4bd	-0.051243532
7	0xbd89ca64	-0.06728056
8	0xbca50df7	-0.02014826
9	0xbd5a727f	-0.05333185
10	0xbc49d2d4	-0.012318332
11	0x3b950f24	0.004548924
12	0xbd83a37b	-0.06427666
13	0x3bca597b	0.0061752177
14	0xbca6f73a	-0.020381559
15	0x3dc6ec7c	0.097130746
16	0xbd9f7948	-0.077868044
17	0xbd9b4706	-0.07581906
18	0xbd1f3d88	-0.03887704
19	0xbe25460e	-0.16140005
20	0x3dc439f0	0.09581363
21	0x3d825681	0.063641556
22	0xbb8a5b7c	-0.0042223316
23	0xbac59e3d	-0.0015077066
24	0x3c50b346	0.012738055
25	0x3dbf54b7	0.0934233
26	0x3d1d6716	0.03842839
27	0xbdde697f	-0.108599655
28	0x3d90a146	0.070620105
29	0x3ce2bb31	0.02767715
30	0xbd0a87c3	-0.03382088
31	0x3d867847	0.0656591
32	0x3d71aa1a	0.059000112
33	0x3ce845c1	0.028353574
34	0x3dda83b5	0.106696524
35	0x3dd975e3	0.10618188
36	0x3d165742	0.03670431
37	0xbbb6f76d	-0.0055836947
38	0xbc1c6eb0	-0.009547874
39	0x3db7b990	0.0897094
40	0xbdee232e	-0.11627804
41	0x3cd1ac61	0.025594892
42	0xbce54088	-0.027984872
43	0xbdbd2491	-0.0923549
44	0xbde592e6	-0.11209659
45	0xbc9c155e	-0.019053157
46	0x3d78b1a0	0.06071627
47	0x3d4b9d47	0.04971054
48	0x3de8a3ad	0.11359344
49	0xbbe79111	-0.007066854
50	0xbd990018	-0.07470721
51	0x3be42823	0.0069627925
52	0xbd9036a0	-0.07041669
53	0x3d364991	0.044503752
54	0x3cd2a6a4	0.025714226
55	0x3c81bcda	0.015837122
56	0x3da817dc	0.08207676
57	0xbd6fd9e9	-0.058557425
58	0xbd109cb3	-0.03530569
59	0xbd503df7	-0.050840344
60	0x3d938e55	0.07204882
61	0xbd60b9a1	-0.05486453
62	0x3cc3161c	0.023814254
63	0x3cd3a80d	0.025836969
64	0x3d2dfa42	0.042474993
65	0xbda80231	-0.08203543
66	0x3b8b9eee	0.0042608893
67	0x3e0e20e3	0.13879733
68	0x3ddb51f5	0.107089914
69	0xbd5d42a0	-0.054018617
70	0xbc59fbcf	-0.013304665
71	0x3d05e62d	0.032690216
72	0xbd2b0300	-0.041750908
73	0xbc6407ba	-0.013917858
74	0xbdb34255	-0.08752886
75	0xbd32f0b6	-0.04368659
76	0x3dbe8853	0.093033455
77	0xbd12ecf1	-0.035870496
78	0x3c2e8423	0.010651621
79	0x3dd831cb	0.10556372
80	0xbcfd0b8b	-0.030889293
81	0x3e13903e	0.14410493
82	0x3d801b9e	0.062552676
83	0x3d874997	0.06605833
84	0x3c1bbea8	0.009505905
85	0x3e115e4a	0.14196125
86	0x3d8c93aa	0.06864102
87	0xbbd256a3	-0.0064190193
88	0x3da2244e	0.07917081
89	0xbc9ab96e	-0.018887248
90	0x3d3d710d	0.04625039
91	0xbdc01402	-0.09378816
92	0x3c2fb509	0.0107243145
93	0x3d55b52a	0.052174725
94	0xbd36c7e9	-0.044624243
95	0x3dbe71cd	0.092990495
96	0x3cde2cef	0.027121035
97	0x3d9f1c18	0.0776903
98	0xbde355ed	-0.111003734
99	0x3d97addb	0.07406207
100	0x3d1a0a3d	0.03760742
101	0x3be679bf	0.0070335562
102	0xbdeae85e	-0.11470102
103	0x3d9cc7c6	0.07655291
104	0x3c0d8ac6	0.008639043
105	0x3d88179d	0.06645129
106	0x3d196646	0.03745105
107	0x3dd9401d	0.10607932
108	0x3a618bbe	0.0008603892
109	0xbdac327a	-0.08408065
110	0xbdca6246	-0.098820254
111	0x3da0cbff	0.07851409
112	0xbdd398a6	-0.1033185
113	0xbdeb416c	-0.114870876
114	0xbd6dc640	-0.058050394
115	0x3c301f7e	0.010749696
116	0x3d16f534	0.036854938
117	0xbd46692d	-0.048440147
118	0x3dba2630	0.09089315
119	0x3dbca19b	0.09210511
120	0xbc01711e	-0.007900504
121	0xbdd0068d	-0.101574995
122	0xbdb9a489	-0.09064586
123	0xbe22cbdb	-0.15898077
124	0xbca285f0	-0.019839257
125	0xbd511466	-0.051044844
126	0x3da45425	0.08023862
127	0xbdbee250	-0.093205094
128	0xbd79124e	-0.060808472
129	0x3db0f949	0.08641297
130	0xbe0c576e	-0.13705227
131	0x3df617b7	0.12016242
132	0xbca32a23	-0.019917553
133	0xbd1a7338	-0.037707537
134	0x3cdde41f	0.027086316
135	0xbdc01082	-0.093781486
136	0xbe025b1d	-0.1273007
137	0xbda01ab0	-0.0781759
138	0xbbfae6f9	-0.0076569286
139	0xbde214d8	-0.11039132
140	0xbda73eab	-0.0816625
141	0xbda6ba1a	-0.08140965
142	0x3c481c59	0.01221379
143	0x3bd13609	0.0063846153
144	0x3d84d401	0.06485749
145	0xbda48a24	-0.08034161
146	0x3d8c1faa	0.06841977
147	0xbdd74ab6	-0.10512297
148	0xbdbe8aa0	-0.09303784
149	0x3d69205f	0.056915637
150	0x3d5c8370	0.053836286
151	0xbd918414	-0.0710527
152	0xbd49ce09	-0.049268756
153	0xbde9805a	-0.11401434
154	0xbd83b77c	-0.06431481
155	0x3c9d0fd6	0.01917259
156	0xbd7f8f05	-0.062392253
157	0xbd9da008	-0.07696539
158	0xbda3c9f2	-0.079975024
159	0x3dd42678	0.103589
160	0x3d99b1bb	0.075046025
161	0x3dd49b69	0.10381205
162	0x3c188cf6	0.009310951
163	0x3dd17042	0.102264896
164	0xbc217c97	-0.009856365
165	0x3ce02c2f	0.027364818
166	0x3df5d4ec	0.12003502
167	0xbd03af6d	-0.03214972
168	0x3ddaad46	0.106775805
169	0xbdf39bcf	-0.118949525
170	0xbdbb3a38	-0.09141964
171	0xbcb5d2fc	-0.022195332
172	0xbd24a9f0	-0.040201128
173	0x3ca5a74c	0.020221375
174	0x3d74ee17	0.059797373
175	0xbd574db1	-0.052564327
176	0xbbeb994f	-0.0071899067
177	0xbdce9993	-0.10087886
178	0xbd882013	-0.06646743
179	0xbcb9afa4	-0.02266676
180	0x3bba087f	0.0056772823
181	0xbd8ea458	-0.0696494
182	0x3d725837	0.05916616
183	0xbd32633d	-0.043551672
184	0xbd8aab92	-0.06771006
185	0xbd9fb99d	-0.07799075
186	0x3dbde932	0.09272994
187	0xbdd43f24	-0.103636056
188	0x3d9dc21e	0.077030405
189	0xbddb81d9	-0.10718126
190	0x3dd02bd8	0.101646125
191	0x3d50171b	0.050803285

fc.weight f4 [2, 64]
0	0xbc0b45bc	-0.008500513
1	0xbdae5d8f	-0.08513939
2	0x3d8c9cdf	0.06865858
3	0x3c1dbf43	0.00962812
4	0xbbdb56aa	-0.006693681
5	0xbd0909e2	-0.03345669
6	0xbdc1683a	-0.09443708
7	0xbd8791c5	-0.066196
8	0xbc4c957e	-0.012486814
9	0xbd963406	-0.073341414
10	0x3c62ef84	0.01385105
11	0xbdaaea61	-0.083454855
12	0xbdafe49a	-0.08588524
13	0xbdc712ca	-0.097203806
14	0x3d572609	0.052526508
15	0xbd8a8dfe	-0.06765364
16	0xbd91939b	-0.07108232
17	0x3cab41e0	0.020905435
18	0x3df2dac1	0.1185813
19	0xbc1ea63c	-0.009683188
20	0xbdbdbea9	-0.09264881
21	0xbc204d88	-0.00978411
22	0xbd81c1ef	-0.06335818
23	0x3d661e67	0.056181338
24	0x3d985f32	0.07440032
25	0x3d80e39d	0.06293414
26	0xbc7acd6f	-0.015307768
27	0x3d6b8627	0.057500985
28	0xbdb8fac1	-0.090322025
29	0x3d81477a	0.06312461
30	0xbe02e01b	-0.12780802
31	0x3d8997fa	0.0671844
32	0x3d66849b	0.056278806
33	0x3cb65dd5	0.02226154
34	0xbdaa66b1	-0.08320368
35	0x3c4f3840	0.012647688
36	0x3c149d3a	0.009070689
37	0x3d716de7	0.0589427
38	0xbac74a06	-0.0015204556
39	0x3dbe560e	0.092937574
40	0xbdec1eae	-0.11529289
41	0x3ce11032	0.027473543
42	0x3d5c1555	0.05373128
43	0xbcddd1ed	-0.02707764
44	0xbdb5e478	-0.088814676
45	0xbdace80f	-0.08442699
46	0xbc9e4be3	-0.019323295
47	0xbbff24f2	-0.0077863866
48	0xbd610a3d	-0.054941405
49	0x3de8cf14	0.11367622
50	0x3cb84e89	0.022498386
51	0x3de4c028	0.111694634
52	0x3c3a2374	0.011360992
53	0xbc0005dd	-0.007813898
54	0xbbe2fa8b	-0.0069268397
55	0x3d123e0d	0.035703707
56	0x3d611436	0.054950915
57	0xbd7578ee	-0.05992978
58	0x3da71099	0.081574626
59	0xbd4f08d3	-0.050545525
60	0xbd944596	-0.07239835
61	0x3c92236a	0.017839152
62	0x3ded8cb1	0.115991004
63	0xbc9ebdf3	-0.019377684
64	0xbdfd9e7e	-0.123837456
65	0x3d948657	0.07252186
66	0x3d0ca603	0.03433801
67	0x3dc5cb9c	0.09657976
68	0xbd7a9e7a	-0.06118629
69	0xbd40f67a	-0.04711006
70	0xbd441c33	-0.047878455
71	0xbe07bcbb	-0.13255589
72	0x3d615d46	0.055020593
73	0x3de7c49a	0.11316796
74	0x3de2135f	0.11038851
75	0x3c6b9aef	0.014380201
76	0xbd55de06	-0.05221369
77	0xbcacb0d0	-0.021080405
78	0x3d00be70	0.031431615
79	0x3de3620f	0.111026876
80	0x3d44a0d1	0.04800493
81	0x3def6d59	0.11690778
82	0xbd647eff	-0.055785175
83	0x3a91d976	0.001112743
84	0xbd3ee229	-0.046602402
85	0x3bd09ba3	0.0063662096
86	0xbd84d31e	-0.0648558
87	0xbcdf9fec	-0.027297936
88	0x3d067435	0.032825667
89	0x3d4eb28c	0.050463244
90	0xbdc6e161	-0.09710956
91	0xbdc87897	-0.09788626
92	0x3db0aded	0.08626924
93	0xbae8c0d7	-0.0017757666
94	0xbdaa5034	-0.08316079
95	0xbd1ab4b9	-0.037770007
96	0xbd146988	-0.036233455
97	0xbdf02cd4	-0.117273
98	0x3ddbe808	0.10737616
99	0x3c3e27ba	0.011606151
100	0xb8db04cf	-0.000104436294
101	0xbddccdda	-0.107814506
102	0x3cd2c869	0.025730329
103	0xbcc48c4b	-0.023992678
104	0x3c579b3a	0.0131595675
105	0xbd87331c	-0.06601545
106	0xbd182399	-0.037143324
107	0x3d084324	0.033267155
108	0x3dd482e2	0.103765264
109	0xbddad506	-0.10685162
110	0x3df36f16	0.11886422
111	0xbc89cc01	-0.01682091
112	0xbdb8e7d3	-0.09028592
113	0x3d8b33f0	0.06797016
114	0x3cac2f78	0.021018729
115	0xbd0221be	-0.03177046
116	0xbd50eb55	-0.05100568
117	0xbde3ca5a	-0.1112258
118	0x3dd2bde7	0.10290127
119	0xbd8f23f4	-0.069892794
120	0xbdb24732	-0.08704986
121	0xbde5767e	-0.11204241
122	0xbd9b7958	-0.07591504
123	0xbd07c511	-0.03314692
124	0xbcbafe8f	-0.022826461
125	0x3d9e7293	0.07736697
126	0x3d37683e	0.044777147
127	0xbd846e93	-0.06466403

fc.bias f4 [2]
0	0xbc8f6cee	-0.017507996
1	0x3db4a976	0.088213846
