timeseries_model_improved.pth (torch, 187952 bytes, 14 tensors)

gru.weight_ih_l0 f4 [192, 19]
000000 de 9a 13 3e 4b e5 4e bd 07 d0 fb 3b 94 7c 92 3c
       0.14414546 -0.05051164 0.007684711 0.01788167
000010 38 0c ee 3d e1 ee 13 bd a6 46 96 3d 51 64 c8 3d
       0.11623424 -0.036116485 0.07337694 0.09784759
000020 46 f2 85 bd d0 4c 1c 3e 5b 50 ab bd cb 1d 4d 3d
       -0.065403506 0.15263677 -0.08364936 0.05007724
000030 5f 44 b2 3c f2 af 8a 3d ae f1 55 bd 32 46 5c bd
       0.021761118 0.0677184 -0.052232437 -0.05377788
000040 b7 6e 41 3e 36 2b 1f bd fd ad bb 3d 05 04 95 3d
       0.1888989 -0.03885957 0.09164045 0.07276157
000050 97 9d be 3d a1 bc 98 bc b7 8b 12 3e a1 c0 fa 3d
       0.093074016 -0.018644633 0.1431111 0.12243772
000060 9f 90 2f 3e 20 18 19 bd db f3 4f bb 17 a9 ee 3d
       0.17145012 -0.037376523 -0.0031731043 0.11653345
000070 17 9c 15 3e 6a 3d 01 bd 88 0f 5a 3d 69 0b d3 3d
       0.14610325 -0.03155271 0.053237468 0.10304911
000080 15 5c 08 3c 85 11 11 3e 26 7e ed bd 5a a5 50 bc
       0.008322735 0.1416684 -0.115963265 -0.012734735
000090 e5 33 b3 bc b2 a8 46 3e 6a c1 28 3e 2f 85 9a bc
       -0.021875331 0.1940029 0.16480032 -0.018862335
0000a0 34 2d 04 bd e1 d5 80 bb 86 32 dc 3d b8 18 0a 3e
       -0.03226967 -0.0039317464 0.10751824 0.13485992
0000b0 82 61 e5 3d 45 34 6b bd 26 e5 0b bd 78 d3 a5 3d
       0.11200239 -0.057422895 -0.03415408 0.08096975
0000c0 3f f0 8d bd a6 76 5a 3d 2b be 60 3b 6e a8 07 3d
       -0.06930589 0.05333581 0.0034293036 0.03311961
0000d0 ca 69 b0 3d de 11 1b bc 1e fb f3 3d 6c 12 1b 3d
       0.08613928 -0.009464709 0.11913131 0.037859365
0000e0 4c 19 ae bc 0d 6b 08 3e e1 20 1f 3d c9 47 16 3d
       -0.021252297 0.13322087 0.038849715 0.036689553
0000f0 a7 98 08 3d b7 23 c5 3c 35 e6 1f 3d b1 75 52 bd
       0.033348706 0.024064882 0.039037902 -0.05138177
000100 2b 71 5c bc 55 04 94 3d 4c bd f5 3d 81 90 b6 3d
       -0.013454716 0.07227389 0.11998996 0.08914281
000110 fd 64 30 3d 98 ec 3c bd 90 4b 98 bc 2f 78 92 bd
       0.04306506 -0.04612407 -0.018590719 -0.071518295
000120 75 e1 8e bc 18 da 90 bd d0 0f 9d 3c 52 79 49 bc
       -0.01744149 -0.07072848 0.019172579 -0.012296991
000130 4d fb 3e 3e 4e 15 a6 bc 53 18 27 3c 92 9b 30 bd
       0.18650551 -0.02027383 0.01019867 -0.043117113
000140 cd 54 cf 3d 75 ea 04 3d 34 01 85 3b 80 2f af bb
       0.10123596 0.03245016 0.0040589813 -0.0053462386
000150 bc 99 8e bc d9 d7 35 3e cf dc a9 bd 6d 1d ef 3d
       -0.01740729 0.1775812 -0.08294069 0.116755344
000160 e1 ff 3b 3e 51 b7 2f 3d ed ad 06 bd 90 16 36 3c
       0.18359329 0.042899434 -0.032880712 0.011113778
000170 8c bd e4 3d 76 25 43 bd 89 9c 44 3e fb 22 0d 3d
       0.11168966 -0.047643147 0.19200338 0.034457188
000180 a4 1b fd 3c 72 a5 e4 bd 1e c6 32 3d db cd 34 3e
       0.03089697 -0.11164369 0.04364597 0.17656653
000190 fa 55 c2 3d ac 03 0b 3e 6f ab 84 3d 29 ef c6 3d
       0.09489055 0.1357562 0.06478011 0.09713585
0001a0 ef 20 a5 3d c6 93 a6 3d 89 6e 8f 3d 5f 96 60 3d
       0.08062922 0.08133654 0.07003505 0.054830905
0001b0 54 61 fd bc 87 6b e2 3d 58 bb 18 3e 1d 65 ba 3d
       -0.030930199 0.110556655 0.14915216 0.09101317
0001c0 59 b5 98 3c cf 5c 71 bd 71 1a b2 3d cf 3b 1b 3e
       0.01864116 -0.0589264 0.086964495 0.15159534
0001d0 92 b5 d5 bd 4b 89 aa 3d 03 e8 e0 3d a5 03 9a 3d
       -0.104350224 0.08326968 0.10981753 0.075202264
0001e0 4f 13 27 3d 65 c1 3f 3e 34 2c 03 bc a2 4e 25 3e
       0.0407899 0.18726118 -0.008006144 0.16143277
0001f0 a4 fe 17 bd e3 c2 13 3e fc e2 c1 3d fd 4f 3d bd
       -0.03710808 0.14429812 0.09467122 -0.04621886
000200 66 36 2f 3b 9e 20 b3 bc 8b 78 a0 3d 81 1c 7f 3c
       0.0026735305 -0.021866139 0.07835492 0.015570761
000210 37 76 4c bd 4d 36 88 bc 3c bc d5 bb 25 f5 e7 bd
       -0.049917426 -0.016627455 -0.0065226834 -0.113260545
000220 c0 81 9d bd 54 0a 1f 3d dc a4 59 bd e3 f1 f7 3d
       -0.076907635 0.03882821 -0.053135738 0.12106683
000230 f5 bb f0 3d 0d fd 47 3d 47 fd 97 bd 06 a2 b3 bd
       0.117546 0.048825312 -0.07421356 -0.08771138
000240 f2 fd db 3d e9 f0 70 bd 89 a6 73 bd be a0 10 be
       0.107417956 -0.0588235 -0.059484992 -0.14123818
000250 87 d8 37 3b 96 4e 93 bc b5 e2 24 3e 2c 35 a9 3d
       0.0028052644 -0.017981809 0.16102107 0.08262095
000260 c6 b8 32 3b 77 1e 50 3d 5f d7 27 3c 7f d6 88 3c
       0.0027270778 0.050810304 0.01024422 0.016703842
000270 79 5e 93 bd 7c 34 69 bd 7a 1c 99 3d 5c a0 d6 3d
       -0.071957536 -0.05693482 0.074761346 0.10479805
000280 d7 b5 ed 3d ed 63 2b bd ec d9 06 bd e5 92 8d 3d
       0.11606949 -0.041843344 -0.03292267 0.069127835
000290 2f 0b 9c bc e6 a0 9b 3d 5d f4 3a bd ce d8 b6 3c
       -0.019048302 0.07599048 -0.0456432 0.022320177
0002a0 e7 e9 cd bd 41 33 a6 bd 48 4b ca 3c f2 7a f3 3d
       -0.10054379 -0.08115245 0.0246941 0.11888684
0002b0 31 ae 88 3d 0b bc d6 bd b9 05 27 bd 9d 5a 5e bc
       0.066738494 -0.10485085 -0.040776942 -0.013571409
0002c0 49 e7 62 bd f0 2c 1f 3d 0a 5f d5 bd c0 5d 01 3e
       -0.055396352 0.038861215 -0.10418518 0.12633419
0002d0 ec a9 b8 3d fa 5e bb 3d 5c 51 b7 ba 4e 15 f2 3d
       0.09016785 0.09148975 -0.0013986039 0.1182047
0002e0 08 e9 94 3d 93 e8 1c 3e 15 ad c6 3d ce ea 1d 3e
       0.0727101 0.15323095 0.097009815 0.15421602
0002f0 5a fe 21 be 28 97 95 3d 77 eb d0 bc 33 72 e6 bd
       -0.15819684 0.073042214 -0.025502903 -0.112522505
000300 02 78 ab 3c 9b fa 35 3d b0 44 e7 bc 5b 77 89 3c
       0.020931248 0.04442845 -0.028230995 0.016780546
000310 a9 2d bc 3c 1b 67 45 3d 09 8f b0 bd 94 38 98 3d
       0.022970991 0.048194032 -0.08621032 0.074326664
000320 3a 82 4c bd 49 38 a7 bd d4 d8 87 3d 82 45 06 3e
       -0.04992888 -0.081650324 0.066331536 0.13112453
000330 50 41 0e bd 31 26 a6 bd eb 87 b9 bd 5b ce 34 3e
       -0.034730256 -0.08112753 -0.090591274 0.17656843
000340 12 c5 08 be d3 92 bf bd c3 6f 02 3d 2b f3 9d bc
       -0.13356426 -0.09354176 0.031844866 -0.01928099
000350 97 d0 3d 3d fd c0 87 bb 9d cc 64 bd 49 9c 17 3e
       0.046341505 -0.004142879 -0.055859197 0.14805712
000360 17 b2 0e 3e 88 2e 52 3d 63 a1 0e 3e 53 33 ac bd
       0.13935123 0.051313907 0.13928752 -0.08408227
000370 d7 be 6d bd 68 d1 71 3d 96 16 4d 3d b0 ed 6b bd
       -0.058043327 0.059037596 0.050070368 -0.057599723
000380 fa 46 f0 bd 3a 7c be 3d e5 5a aa 3c 20 8c 6a 3d
       -0.11732288 0.09301038 0.020795295 0.05726254
000390 fd e7 13 bd eb 00 45 3d 09 ac ae bd 77 0f f2 3d
       -0.036109913 0.04809658 -0.08528907 0.11819356
0003a0 76 03 a0 3c 22 6f df 3d d9 d4 b5 bd 7a 5e e0 3c
       0.0195329 0.10909869 -0.08878488 0.0273888
0003b0 6b ea c4 3d 63 f6 2b bd c9 09 92 3b ff ab 24 bd
       0.09615024 -0.04198302 0.004456733 -0.04020309
0003c0 2b 84 10 bc 99 f9 36 bd b4 1e 39 3e bd 60 e8 bc
       -0.008820574 -0.04467163 0.18078119 -0.02836644
0003d0 c9 ae b3 3d 39 4a 09 be 51 25 8d 3d a0 f1 04 3e
       0.08773572 -0.1340722 0.06891883 0.12982798
0003e0 41 f8 16 3c 57 7c bf 3d 64 03 50 3d 69 2a 5d bd
       0.009214462 0.09349888 0.050784484 -0.053995524
0003f0 c3 2b 61 bd aa 46 0f bb e1 0f 12 3d ae 8e c7 3d
       -0.054973375 -0.0021862187 0.035659675 0.09744011

gru.weight_hh_l0 f4 [192, 64]
000000 03 8e b7 3d d1 05 01 3d 4b c5 e7 3d bd 98 f5 3b
       0.089626335 0.031499688 0.113169275 0.0074950145
000010 dc b9 8f bd 5d f7 7c bd 28 0a 2e be 5a 39 54 bd
       -0.07017872 -0.06175934 -0.16996062 -0.051812507
000020 b1 24 ea 3c e2 c7 6f bd e4 f5 16 3e d7 07 db 3c
       0.028581949 -0.058540232 0.14742237 0.026737137
000030 5f 5b 00 be c2 33 ef 3c c2 28 e5 3d 89 f3 d9 3c
       -0.12534855 0.029199485 0.111894146 0.026605384
000040 ba 28 69 3d 70 33 30 bb 0b bd bf bc 37 2d 19 3e
       0.056923606 -0.0026886128 -0.023405572 0.14958654
000050 8d 8c 05 be a9 08 9d bc cd 18 39 3d 6f 0c c4 3d
       -0.13041897 -0.019169169 0.045189667 0.09572684
000060 4f 09 64 bd e9 b5 f5 bd 26 27 19 be af e1 92 bd
       -0.05567294 -0.11997587 -0.1495634 -0.07171952
000070 37 4d 13 be 65 29 fe bb 53 f5 14 be e6 08 2f bc
       -0.14384924 -0.0077563995 -0.14546709 -0.010683274
000080 4f d6 f9 bc b7 06 a4 bd b9 9c cc bd 98 2e 2e be
       -0.030497698 -0.08009093 -0.0999083 -0.17009962
000090 86 61 6f bd 54 21 03 3e 64 bf 22 bc 35 90 1a be
       -0.058442615 0.12805682 -0.009933326 -0.15094073
0000a0 73 e9 4f 3d 43 b9 29 3d df d9 92 bc 8b 6b 52 3d
       0.050759744 0.041436445 -0.017926155 0.051372092
0000b0 9a c7 80 3d 7c 5e 15 3e 5c 69 a0 3d 83 08 ee 3d
       0.06288071 0.14586824 0.07832596 0.11622717
0000c0 5f 90 82 bc 7f d5 d2 bd bb b7 0e 3d 2a 19 96 bd
       -0.015937982 -0.102946274 0.034843188 -0.073290184
0000d0 00 e1 a6 3d fc e8 a6 3d 62 b8 2f bb 4f 27 c0 3c
       0.08148384 0.08149907 -0.0026812782 0.023456244
0000e0 c3 be 2f 3d 39 94 99 3d 8b ae d2 3d e2 a3 5b 3c
       0.042906534 0.07498974 0.10287198 0.013405772
0000f0 b5 5a 94 3d fd c4 c2 3b 26 95 d3 bd f2 e6 f5 3d
       0.072438635 0.005943893 -0.10331182 0.1200694
000100 53 a8 2b bb fb 00 1d bd e3 75 ee 3c 35 3f 0c 3c
       -0.0026192858 -0.038331013 0.029108947 0.008559992
000110 04 37 79 3d cf b9 60 bd e3 09 02 be 63 32 eb bd
       0.060843483 -0.0548647 -0.12699084 -0.1148422
000120 73 9e 76 bd d0 d6 54 3d bd 12 cd 3d 44 ca 21 bd
       -0.060209703 0.051962674 0.1001334 -0.039499536
000130 59 8f 8b bd df 4c f9 bc 80 70 c6 bd a3 f9 92 bd
       -0.06814451 -0.030432163 -0.096894264 -0.07176521
000140 51 99 83 bc 57 e7 25 be b9 94 2e bd 76 c5 89 bd
       -0.016064318 -0.1620153 -0.0426223 -0.06727116
000150 bd ad 31 3d f3 76 81 3d 4e 1b 75 3d 32 62 98 3b
       0.04337858 0.06321516 0.059840493 0.0046503777
000160 7b 43 0d bb be 83 5c bd aa 83 a9 bd 99 c4 bb bd
       -0.0021555114 -0.053836577 -0.08277066 -0.091683574
000170 e1 ac 2a 3d c8 6a 7b 3d 7a 79 56 3c 32 e6 b5 bd
       0.041668776 0.06138113 0.013090486 -0.08881797
000180 9a c7 00 3d 86 bb 24 3d 87 ec b2 bd cb 8b be 3c
       0.031440355 0.0402179 -0.0873652 0.023260018
000190 e7 e5 38 bd 81 95 6d 3d c2 07 94 3d 94 9f a5 bd
       -0.045141127 0.058003906 0.07228042 -0.08087078
0001a0 3a c7 7d bc a8 b8 96 3b f0 bf 0e be 4e fe 05 bd
       -0.015489394 0.0045996495 -0.13940406 -0.032713227
0001b0 85 61 e2 bd 69 ba 06 3e 71 a2 a9 3d 53 ba 21 3c
       -0.110537566 0.13157047 0.08282936 0.009871083
0001c0 fe 64 b4 3c 14 9d f8 3c 91 82 80 bc 9b ca 02 bd
       0.022020813 0.030348338 -0.015687259 -0.0319315
0001d0 8c 32 ca 3d eb 99 0c 3e 3c 86 24 3e 1b 70 10 3d
       0.09872922 0.1373059 0.16066831 0.035263162
0001e0 21 b4 ad 3d 21 d7 9f bc 3c 8b 28 3e 5d c0 0c 3d
       0.084816225 -0.019511761 0.16459364 0.03436314
0001f0 9a 1f 16 3d 8f 1e 56 bd bc 4c 73 3c 1e b1 33 bd
       0.03665123 -0.052275237 0.014849838 -0.043870084
000200 a5 14 0c 3e 8e 67 ee 3d b0 8c 42 3c bc a6 b2 bd
       0.1367975 0.11640845 0.011874363 -0.08723208
000210 86 f8 9f 3d dc e9 3a 3d 6e c1 1b 3d b3 37 b5 bd
       0.07811074 0.045633182 0.038026266 -0.088485144
000220 a1 2d a2 bd 2e 1c d3 bd 59 4d 3d bc 90 7e 8b 3d
       -0.07918859 -0.10308109 -0.011554086 0.06811249
000230 13 3e 25 bc 16 7a 84 3d 76 8f d4 bc 27 6b 87 3d
       -0.0100856 0.064685985 -0.025947314 0.066122346
000240 50 73 ae bd 61 97 0a 3d 6d 30 d2 3d 90 69 40 bc
       -0.08518088 0.033835772 0.10263143 -0.011743918
000250 2d 2d 8e 3d ed 70 a5 bc da d3 f7 bc a2 d0 cd bd
       0.0694221 -0.020195449 -0.030252386 -0.10049559
000260 dd 9e a5 bd a0 a4 b8 bd 91 95 9d bd fc 7b a7 3d
       -0.080869414 -0.09015775 -0.07694543 0.08177945
000270 28 b8 00 3c 8b f2 a0 3c 09 8d e7 3d 4c 0d b6 bd
       0.007856406 0.019646903 0.11306197 -0.08889255
000280 3f 7c 84 3d f1 11 e8 bd f5 62 97 3c 17 69 8f 3b
       0.064690106 -0.11331547 0.018479804 0.0043765414
000290 66 cb 16 bb 2d bf ab bd 38 ec 11 3c 17 9f 17 3d
       -0.0023009419 -0.08386073 0.008906417 0.037016954
0002a0 57 1c e8 3b 5e 50 d1 3d f9 2e a3 3d a5 e9 ea bd
       0.0070834565 0.10220407 0.07967944 -0.114703454
0002b0 76 4e 9f bd 68 b3 a9 bd be 3e 08 3e 17 3c a4 3d
       -0.07778637 -0.08286172 0.13305184 0.08019274
0002c0 86 db dc bc 55 9e 2b bb c9 7d 8f 3d f2 e3 48 bd
       -0.026960146 -0.0026186903 0.070064135 -0.04904551
0002d0 12 44 20 3d b3 23 96 3c fd d3 88 bb 54 f6 7f 3b
       0.039127417 0.01832757 -0.0041756616 0.0039056735
0002e0 12 c5 61 3d 8c de c7 bb 8f 00 4c bd d0 85 00 3e
       0.05511958 -0.0060995277 -0.04980522 0.12551045
0002f0 43 ad bb bc 7f 51 15 3d d1 dd fd 3d b9 f5 ba 3d
       -0.022909766 0.036454674 0.12395824 0.09128899
000300 b6 50 6a 3c 7d 2a 01 3e 39 b3 8f bc 1a 46 8c 3c
       0.01430147 0.12613864 -0.017541515 0.01712327
000310 16 03 82 3d 18 c8 06 3d c7 b8 c0 3d dc e2 bf bd
       0.06348245 0.032905668 0.094102435 -0.09369442
000320 3a ff 74 3d 9b 9b 9d 3c 51 ff e1 bc 96 be f5 3d
       0.059813716 0.019239238 -0.027587565 0.11999242
000330 b4 27 a7 3d c8 46 05 3e dd 97 46 3b 86 57 c5 3c
       0.0816187 0.13015282 0.003030292 0.024089586
000340 dd 86 e7 3c 86 1b 14 be d2 c9 09 be 9e d7 75 3d
       0.02826255 -0.14463624 -0.13455895 0.06002008
000350 d0 ce 22 bd 88 7a 26 bd 03 10 99 bd e6 23 8a 3d
       -0.039748013 -0.0406442 -0.07473757 0.06745128
000360 9f 29 dd bd f0 ee d6 bc c2 df e1 bd f0 a4 86 3d
       -0.10798954 -0.026236981 -0.110290065 0.06574428
000370 4a 26 97 bc 11 27 8d bd 7d 71 f4 3c 08 12 eb bd
       -0.018450875 -0.06892217 0.029839272 -0.114780486
000380 00 8b a7 bd e8 73 5d 3c 98 8d 4d bd 63 9b cb 3d
       -0.08180809 0.013516404 -0.050183862 0.09941747
000390 47 f9 9d bd d8 e9 26 3d 70 be d6 3d c9 f6 10 3d
       -0.077135615 0.040750355 0.10485542 0.035391603
0003a0 f1 75 a3 3d 7d ee 59 3d 4a c5 1a 3c bc be cc 3d
       0.0798148 0.053205956 0.009446451 0.09997317
0003b0 61 75 fc bc b8 43 eb 3d 2a e4 96 bd 17 0f 3c bd
       -0.03081769 0.11487526 -0.073677376 -0.04591283
0003c0 0e a0 1d bb 2b 8c 1b 3d 4d 77 20 3e 2d eb 97 bc
       -0.00240517 0.03797547 0.1567051 -0.018544758
0003d0 36 71 e2 3d 17 6a 34 bd 9c 43 86 bc 65 ad 2c bd
       0.110567495 -0.044046488 -0.01638966 -0.04215755
0003e0 30 da e4 bd 2d 72 b0 3d 1a ba 8c 3c f3 93 ec bd
       -0.111744285 0.08615527 0.017178584 -0.115516566
0003f0 0d d3 af bb a3 89 ab 3c 88 86 31 3d db 8d 5e bd
       -0.0053657354 0.020939654 0.04334119 -0.054334503

gru.bias_ih_l0 f4 [192]
000000 f0 f4 8e 3d 72 84 07 3d 09 7f 33 bd c1 0f 60 ba
       0.06980312 0.033085294 -0.043822322 -0.00085472694
000010 75 52 45 bd 78 cb 41 ba ae 5f da 3d ca d8 e4 3c
       -0.04817434 -0.0007392685 0.10662781 0.027935404
000020 7d 18 f9 3d d7 1b a1 bd fa d2 f4 bc 02 32 b7 3d
       0.12162874 -0.07866638 -0.029885758 0.08945085
000030 89 1c 89 3d ab d0 9d bb ce 9d 7d bd 5a be a4 bc
       0.06694896 -0.004816135 -0.061918072 -0.020110298
000040 2f 08 9c 3d b7 12 a2 3c 97 06 c5 bd e0 65 ab 3c
       0.076187484 0.019784315 -0.096203975 0.020922601
000050 f3 27 01 be 18 24 6c 3d 11 e6 00 3d de 1e 22 3d
       -0.12612896 0.05765161 0.03146941 0.03958022
000060 8b b1 d6 3d d9 99 2c 3d ee 25 f1 bc c6 9b f5 3d
       0.104830824 0.042138908 -0.029437032 0.11992602
000070 2f 4d 0a 3d 7e 7c 91 bd b3 da bb bd 04 64 1d 3d
       0.033765014 -0.07103823 -0.09172573 0.03842546
000080 d7 ef cb 3d 7e b7 0b bd 62 95 a8 3c b0 ff 96 bd
       0.09957855 -0.03411054 0.020579044 -0.07372987
000090 0f 4f 9e 3c 2e 62 c6 3d 75 95 a6 3d 6c 88 e1 bd
       0.019324807 0.09686695 0.081339754 -0.110123485
0000a0 ba 63 07 3d 6b 56 37 bd 01 de db 3d 2f e5 d5 3c
       0.03305409 -0.04476015 0.10735703 0.02611026
0000b0 d0 ad 44 3d 38 07 1c bd 13 18 28 3d df 53 a8 bd
       0.048017323 -0.03809282 0.041038584 -0.08219122
0000c0 d3 9b ee bd 28 a2 68 bc 4f a0 70 bb 18 cc 8f bd
       -0.11650815 -0.014198817 -0.0036716645 -0.0702135
0000d0 04 20 50 3d 13 c6 ef bd 75 be 48 bd b6 11 e9 3d
       0.050811782 -0.117077015 -0.04900976 0.11380331
0000e0 09 93 cc 3d 62 6f 2e 3e 80 31 76 bd 54 62 91 bd
       0.09988982 0.17034677 -0.0601058 -0.07098833
0000f0 45 82 0d 3d 25 6f 88 3d 83 7b d7 bd 53 a0 c9 3d
       0.034548063 0.06661824 -0.10521605 0.098450325
000100 9f 81 8b 3b b3 0e c9 3d d8 a1 32 bd ae 22 1c be
       0.0042573954 0.09817257 -0.043611377 -0.15247604
000110 22 ab 3c 3c 9b 18 f9 3c 8c e7 f1 3d c9 d6 e2 3c
       0.011515411 0.03040724 0.11811742 0.027690308
000120 80 3a 50 3c 97 24 82 bd b6 66 c8 bd 13 59 94 bd
       0.01270926 -0.06354635 -0.097852156 -0.07243552
000130 ce f7 0a bd 27 63 b2 3a 8d 46 96 3d eb e1 7b bd
       -0.03392773 0.0013609872 0.07337675 -0.06149475
000140 9e 7a 0e be 5a 32 73 bd 36 59 2d bd ef 46 9c bd
       -0.13913962 -0.05937419 -0.042321406 -0.07630717
000150 d6 ab 6a 3c 74 5f 85 bc f5 3b 04 3b fb 9c 24 bd
       0.014323195 -0.016280867 0.0020177339 -0.04018877
000160 b1 f3 ec 3b e9 63 21 3d c2 a6 5e bc d2 c8 2a 3e
       0.0072311987 0.039401922 -0.013589563 0.1667817
000170 c2 fd c8 bd 6e ea b5 bd da b8 a0 3d a4 81 d6 3d
       -0.098140255 -0.088826045 0.07847758 0.10473946
000180 f5 66 73 bd af 1b ad bc 28 0e 39 bd 3a fc b3 3d
       -0.05942436 -0.021131365 -0.045179516 0.08788343
000190 75 86 ee 3c 87 44 2a 3d e6 03 89 bd a3 bc 9b bc
       0.029116848 0.04156926 -0.06690197 -0.019010847
0001a0 51 d0 4b 3c 2a 07 cd bc b6 cd 84 bd 3a 3a cd bd
       0.012439803 -0.02502783 -0.06484549 -0.100208715
0001b0 6b 58 ec bc 57 d9 b7 3d fc c7 b7 3d ad ec 01 be
       -0.028850755 0.08977001 0.08973691 -0.12687941
0001c0 d9 30 c5 bc 3e 14 eb bd 2f 4a db 3c 70 72 39 bd
       -0.024071144 -0.1147847 0.026768772 -0.04527515
0001d0 ba 73 b0 bd 86 12 82 3d 8a cf e3 bc 6b 17 8c 3d
       -0.08615823 0.06351189 -0.027808923 0.06840404
0001e0 fb 17 55 3c 36 11 89 3d 47 c3 a2 3d ee e0 66 3d
       0.013006206 0.06692736 0.079474024 0.056366853
0001f0 f8 02 25 bd 6f 2d b2 bd fc d2 4f 3d 99 bc 25 3d
       -0.040286034 -0.08700072 0.05073832 0.040463064
000200 88 75 19 3d 82 46 a9 bc d1 29 1e 3d 7c ba f3 bc
       0.037465602 -0.020663504 0.038614098 -0.029752009
000210 f4 03 32 bd a5 20 ff 3b 9a 3a c0 bd 8d e1 4b 3d
       -0.0434608 0.007785874 -0.09386177 0.04977565
000220 44 54 18 3d 41 bd 21 be 63 fb db bb 6e 83 93 bd
       0.037189737 -0.15794851 -0.0067133172 -0.072028026
000230 31 53 06 3e 8d 4b c5 bd 7c 6e 54 bd 10 5c 08 b9
       0.13117673 -0.09633551 -0.05186318 -0.00013004267
000240 3e 1a a5 bd d0 f3 01 3e b5 dc ae bd ea 0c 62 bd
       -0.08061646 0.12690663 -0.0853819 -0.055188097
000250 c3 67 d9 3d d2 6b 8d 3c 70 ee ba 3b b6 35 92 bd
       0.10615494 0.017263327 0.0057046935 -0.07139151
000260 66 31 c8 3b d5 42 96 bb a8 b8 36 3d c1 6b d8 bd
       0.0061094044 -0.0045856037 0.044609696 -0.105674274
000270 62 a2 36 3d ee 22 8d 3d d4 86 0e 3e 7a 82 e9 3c
       0.044588454 0.06891428 0.1391862 0.028504599
000280 19 94 00 3e 84 42 eb bc 2e df 0d bd 01 7f 84 bd
       0.12556495 -0.02871824 -0.03463667 -0.064695366
000290 27 e8 aa bd 27 ab 38 bd 14 cc 24 be 5a c8 91 bd
       -0.08345061 -0.0450851 -0.16093475 -0.07118292
0002a0 18 c0 0f be 6c 12 31 bd e0 48 15 be b2 51 ed bd
       -0.14038122 -0.04323046 -0.14578581 -0.11587848
0002b0 d4 8f 2b bd c9 4d ae 3d ae 8e c8 3d 53 0d 74 bb
       -0.041885212 0.0851093 0.09792839 -0.0037239387
0002c0 8d b7 69 bd aa c8 0e be 94 49 80 3d bc 6f 97 bd
       -0.057059813 -0.13943735 0.06264034 -0.073943585
0002d0 72 6e a5 3d 93 8b c8 3d 06 1f 20 3d 9f 9c 05 be
       0.080777064 0.09792247 0.039092086 -0.13048027
0002e0 66 4e c1 3d 81 a4 94 3d 88 2f 0f bd 4b 7d 66 3d
       0.094387814 0.07257939 -0.03495744 0.056271832
0002f0 d6 21 22 3d 4b d9 6a 3c 13 e1 b0 3d 0b 2c 84 bd
       0.03958305 0.014334033 0.086366795 -0.06453713

gru.bias_hh_l0 f4 [192]
000000 b4 4b 29 bd 1b 7a b3 bd 02 b8 f6 bc ae f0 ec 3d
       -0.04133196 -0.08763524 -0.030117039 0.115693435
000010 38 ea 35 3d d4 c3 88 bc 8a ca 1c 3e 4e 61 d4 3d
       0.04441282 -0.01669494 0.15311638 0.10370122
000020 f5 6a df bd f2 b8 07 3e 50 2f b2 3c d7 e4 a9 3d
       -0.10909072 0.13254145 0.021751076 0.08295601
000030 3e b4 b8 3d 81 18 59 3d 19 9d 11 3e a2 e8 ae 3c
       0.090187535 0.053001884 0.14220084 0.021351162
000040 0b 1e 70 3d ba 50 d2 3d 00 cb 07 bd 8e 7e 5e bd
       0.0586224 0.102693036 -0.03315258 -0.05431991
000050 bb fc c6 bd 58 4f e2 bc d6 7d a3 3d 60 40 40 3d
       -0.09716173 -0.027625725 0.07982986 0.046936393
000060 39 86 39 bd 21 6d a3 3c 6a a5 2f be 82 c3 83 3d
       -0.04529402 0.019949498 -0.17152944 0.064337745
000070 c4 e4 08 3d d5 ae 81 3d 78 3b bc 3c 2a 3d aa bb
       0.033421293 0.06332175 0.022977576 -0.0051952796
000080 a1 05 1a 3d 65 91 ff 3d 26 15 c5 3c 52 a2 ee 3d
       0.037603024 0.12478904 0.024057936 0.11652054
000090 1d 92 37 bd a4 e3 39 3c df 22 ca bd ff d4 38 3d
       -0.04481708 0.011345778 -0.098699324 0.045125004
0000a0 71 89 54 bd 84 77 a0 3d 78 a4 9f 3d c8 ad cd bd
       -0.051888887 0.07835296 0.07795042 -0.10042912
0000b0 1d 5b e2 bc e3 e8 41 3e 93 90 30 3d 5c 0b da 3c
       -0.027631337 0.18936495 0.043106627 0.026616745
0000c0 e5 77 bf 3d 4d 0e f7 ba 87 1d d8 bd 64 c6 c1 bd
       0.0934904 -0.0018848866 -0.10552507 -0.09461668
0000d0 a7 da c8 bd 60 8b 70 3d 67 b4 af bd 96 55 bc bd
       -0.098073296 0.05872667 -0.08579331 -0.09196012
0000e0 7e a2 b3 bd a7 ee f5 bb 64 31 fc 3d 0e 2c 64 3d
       -0.08771227 -0.007505256 0.12314108 0.055706076
0000f0 72 b3 91 3d cd f3 19 bd 84 d3 84 3d 04 e6 5c bd
       0.071143046 -0.037586022 0.06485656 -0.053930297
000100 44 c1 2b 3d c5 20 39 bd 52 86 b3 3d 09 7a f1 3c
       0.04193236 -0.045197267 0.08765854 0.029477136
000110 f8 da 5a 3d 21 e5 ab bd 6e 9b d6 3d 60 ee b2 bd
       0.05343148 -0.08393312 0.104788646 -0.08736873
000120 17 e7 0f 3e b6 dd 33 3d ad 22 6b 3d d3 ea 16 be
       0.14052998 0.043912612 0.057406116 -0.14738016
000130 79 bb 95 bd db 4f c7 3d c1 ee dd 3d b4 02 fd bd
       -0.07311148 0.09732028 0.10836554 -0.12354031
000140 49 2c 08 be 6b 34 17 3d f0 74 70 bd 00 15 c1 3d
       -0.13298143 0.036915224 -0.05870527 0.094278336
000150 41 3a 73 3d 12 31 3e bd 64 77 a8 3d 4a 5c ae bd
       0.059381727 -0.046433516 0.08225897 -0.085136965
000160 83 8f 0e bd 7d f7 82 bd 7f 6d 33 bd b2 b9 90 3d
       -0.034804832 -0.06394861 -0.043805595 0.070666686
000170 1a 60 b3 bb 72 eb 93 3b 1f 34 f6 3c 7b 58 24 3d
       -0.0054741027 0.0045141513 0.03005415 0.040123444
000180 5c 65 cf bd 91 57 4b bd 17 9c 3f bd 41 c0 14 be
       -0.10126755 -0.049644057 -0.04677972 -0.14526464
000190 6d da 36 3e 68 2c 74 3d 9b ed 48 bd ca ee 87 bc
       0.1785676 0.05961266 -0.049054723 -0.016593356
0001a0 cc 49 b7 b9 25 7d 59 bd 32 0c 2e bc 4b 05 9d bd
       -0.00034959463 -0.053097863 -0.010623025 -0.07667025
0001b0 04 65 de 3d 6b 10 a1 3d a1 d0 73 bd b0 9f d7 3c
       0.10859111 0.078644596 -0.059525136 0.026321262
0001c0 b1 12 4d bd e6 83 c4 bd 9e 8a d9 3d 7b b6 86 3d
       -0.050066654 -0.0959547 0.10622142 0.06577774
0001d0 c6 64 ec 3d 8e 2b 76 bc 53 7b 30 bc 10 2b 16 3e
       0.115426585 -0.015025033 -0.01077159 0.14664865
0001e0 f2 37 dc bb d2 de d5 3d 58 14 23 3d 30 39 8a bc
       -0.0067205364 0.1044289 0.039814323 -0.016872972
0001f0 cc 91 cc bd c1 92 e5 ba f9 ab 77 bd ee cf 6a bd
       -0.09988746 -0.001751505 -0.06046674 -0.057327203
000200 48 c5 e5 bd 41 61 fd bd 0c b8 a2 bc 7b 94 80 bd
       -0.11219269 -0.12372065 -0.019863151 -0.062783204
000210 91 e8 16 be b4 02 44 3d df 41 0d be f2 85 f4 3a
       -0.14737155 0.04785414 -0.13794659 0.0018655641
000220 f0 31 90 bd 32 e1 2b be c7 3d f8 3c 40 a3 09 be
       -0.07040775 -0.16785124 0.030302895 -0.13441181
000230 a7 a3 94 3d 23 dd 67 bd b4 f9 a2 3d de 54 19 bd
       0.07257777 -0.056607377 0.07957783 -0.03743445
000240 1b c8 24 3e 97 a8 89 bd 3d 90 66 3d 52 fc 0b 3e
       0.16091959 -0.06721609 0.0562899 0.13670471
000250 9a ce ac 3d 2f 58 e9 bd 79 dd 25 3e e8 7b c5 bd
       0.084378436 -0.11393773 0.16197766 -0.09642774
000260 72 1e 44 bd 2a 9c e5 bd 1a e1 4f bc ec 06 54 bd
       -0.047880597 -0.112114266 -0.012687946 -0.051764414
000270 6a b5 18 3d 62 c3 c1 3c eb a1 7d 3d 6d fa a4 3c
       0.037282385 0.023652736 0.061921995 0.020138944
000280 bb 8c c1 bd ed b1 b0 3d 28 aa 9b bc d6 8a 46 3d
       -0.0945067 0.08627687 -0.019002035 0.048472248
000290 c6 cc 80 bd 61 9f db bd 6f dc 61 3d 2a f5 56 bd
       -0.062890574 -0.107237585 0.055141862 -0.0524799
0002a0 ed 9d 00 bc d2 b8 87 bd 72 6c 11 be 7d 60 31 3d
       -0.007850152 -0.066270486 -0.14201525 0.04330491
0002b0 bc 55 00 bc 32 77 b0 3d 94 0a 34 bd d8 39 2c 3c
       -0.007832941 0.08616485 -0.0439554 0.010511838
0002c0 a6 2e e9 3c ae fc ce 3d af 54 39 3d 92 56 26 3d
       0.028464627 0.101067886 0.045246776 0.040609904
0002d0 8a 27 94 3d f7 db 5d bd a0 22 a7 bc 13 23 b0 3d
       0.07234104 -0.054164853 -0.020402253 0.0860044
0002e0 92 37 2e bd 19 89 08 3e e8 1f d1 bd d9 f3 71 bc
       -0.042533465 0.13333549 -0.10211164 -0.0147676105
0002f0 0c 56 0f 3e 42 4c 2f 3c 0e aa 89 bd 15 53 c1 bd
       0.13997668 0.010699334 -0.067218885 -0.09439675

gru.weight_ih_l1 f4 [192, 64]
000000 a0 f1 09 3e 57 85 c5 bd 08 0c 99 bc 6d ee dd 3c
       0.13471079 -0.09644573 -0.018682495 0.02709123
000010 04 18 8b 3d f2 13 b5 3c 66 a1 da 3d 48 4f 0e 3d
       0.0679169 0.022104237 0.106753156 0.034743577
000020 54 50 e6 bc 54 3c e7 3d c1 eb d3 bd 5d 5d 59 3b
       -0.028114475 0.112908036 -0.10347701 0.003316722
000030 0a 7a 8c 3d 32 cb 80 bd b9 2f cf bd a7 5a a9 3d
       0.068592146 -0.062887564 -0.10116524 0.08269244
000040 00 23 7f 3c 25 71 cd 3d f6 a4 b4 bd 08 90 16 3d
       0.0155723095 0.10031346 -0.08820526 0.036758453
000050 28 f6 be 3d ef 78 5d 3d 9a 49 f4 bb ed f4 b7 bb
       0.09324294 0.05407041 -0.007455063 -0.005613914
000060 65 41 e4 3d d4 89 c0 3c 44 1b 9f bd df 02 10 bd
       0.111452855 0.023503222 -0.077688724 -0.035158988
000070 a9 6a ea 3d 7b 3c b1 bc 4c 4b e2 3d df 54 7e 3d
       0.11446125 -0.021635285 0.11049518 0.062092658
000080 27 d7 a0 3c ee 59 50 bc d8 9c bd 3d 18 e9 6a 3c
       0.019633843 -0.012716753 0.09258431 0.0143378
000090 76 f3 a0 3d fd 55 07 3d 8c 6d 61 bc 02 af 6b bc
       0.078589365 0.03304099 -0.013759028 -0.014384987
0000a0 ac 93 8a bb af 77 d7 bd d2 f9 b3 3d d3 c6 e3 bc
       -0.0042290296 -0.10520875 0.08787884 -0.027804768
0000b0 30 84 4c bd 0e 34 52 3d a1 bd 9b bd e1 be 97 3c
       -0.04993075 0.051319174 -0.07604528 0.018523635
0000c0 98 e0 67 3c b3 fd a4 3c 10 ae 0b 3d e6 ad b6 bd
       0.014152668 0.020140504 0.034101546 -0.08919887
0000d0 a2 c8 89 3c 35 d0 c4 bd 3c 26 67 bd eb bb f3 bd
       0.016819302 -0.09610025 -0.056432948 -0.11901077
0000e0 cf 07 8e 3b d6 9e 6b bd 8c cb ae ba a0 3c b0 bd
       0.004334427 -0.057524525 -0.0013335808 -0.08605313
0000f0 3b 95 92 bd 5c b1 13 bd 99 ad 03 3e 18 4d c9 3d
       -0.0715737 -0.036057815 0.12859191 0.098291576
000100 5f fd c7 3d de f6 ae 3d 66 5a 08 bd f2 46 0f bc
       0.097651236 0.0854318 -0.033289336 -0.008744942
000110 3c 24 89 3d 1c f8 c9 3d 0c ac ae bd d7 4f 2e bc
       0.06696364 0.09861776 -0.08528909 -0.0106391525
000120 e7 4c d5 3d 6a e2 4f bd 92 7b cc 3c ee 8f 52 3a
       0.104150586 -0.050753035 0.024961267 0.00080323115
000130 3f 51 af bd e9 32 75 3d 46 fb 10 3d 0b 70 0e bd
       -0.08560418 0.059863005 0.035395883 -0.03477482
000140 44 82 49 bd 7d 11 80 3d 11 46 f2 bd 83 8d 20 3d
       -0.049196497 0.062533356 -0.1182977 0.039197456
000150 eb 39 e9 bb 09 8d 82 3d 1f 36 b9 3d b7 65 3e 3d
       -0.0071175 0.063745566 0.09043526 0.04648372
000160 14 ec 64 3d cd 80 f5 3c d1 0e 50 3d 70 cf d8 bd
       0.055889204 0.029968644 0.05079538 -0.105864406
000170 4c 36 ac 3d 7b 43 d4 bd 1f 3a 9d 3d c0 fd 50 bd
       0.08408794 -0.103644334 0.07677101 -0.051023245
000180 14 9f 70 3d fb d6 f8 bd ab c8 18 bd 1a 4c ae 3d
       0.05874546 -0.12150379 -0.037300747 0.08510609
000190 c1 96 83 bd 37 fb 6b bc c6 53 9c bd 19 50 72 bd
       -0.064252384 -0.014403156 -0.07633166 -0.05915842
0001a0 38 e6 09 3c 01 fd 80 bd ed f0 68 bc d5 30 14 3d
       0.008416705 -0.06298257 -0.014217597 0.036179382
0001b0 69 2a 13 3d 76 d5 76 bd c8 1f 15 bd 2e bd 8a bd
       0.035929117 -0.060262166 -0.036407262 -0.067743644
0001c0 50 52 cc 3d 1a 17 be bd fd 08 78 bd 46 ce b1 3d
       0.09976637 -0.0928175 -0.060555447 0.08681922
0001d0 34 8a 2b bc fe c6 7e bd 41 3d 87 bd fe 92 e8 bd
       -0.010469962 -0.062201492 -0.0660348 -0.113561615
0001e0 88 9a 06 bd 2a 29 22 3d 1f 52 d4 3d bb 9a 66 3d
       -0.032862216 0.03959004 0.10367226 0.056299906
0001f0 76 73 a6 bd 01 eb 83 3d 5e c9 c3 3d b4 71 2e 3d
       -0.08127491 0.06441308 0.09559892 0.042588905
000200 db d4 2f 3d cf 47 39 3d db 46 ad 3d d5 28 f6 bd
       0.042927604 0.045234498 0.0846078 -0.12019507
000210 6d 53 9c 3b 66 3f 8b bd bb 7c 00 be da d4 2f bb
       0.0047706873 -0.06799202 -0.12547581 -0.002682975
000220 c3 80 44 3c 34 3b f7 bc b4 9b f2 3d 34 1e fb bd
       0.01199359 -0.030179597 0.11846104 -0.1226162
000230 55 e4 d1 bd 79 9a c6 bd 19 a4 2c bd 2c 79 b1 bc
       -0.10248629 -0.09697432 -0.042148683 -0.021664225
000240 bb 50 a9 bd d8 e5 ab 3d 48 78 94 3d 36 55 6d 3d
       -0.08267351 0.083934486 0.07249504 0.05794259
000250 f3 6a 03 be 56 0a 57 3b 29 69 aa 3d b3 d7 2f 3d
       -0.12833767 0.0032812557 0.08320839 0.042930316
000260 18 4b 0b be 2c 9f 4e 3d d1 4f 0e be 5b 95 80 bd
       -0.13602865 0.050444767 -0.13897635 -0.06278487
000270 2a 9c a1 bd 3a 8f b7 3d 47 c4 ea 3d 2a f0 87 3d
       -0.07891114 0.08962865 0.11463218 0.066376045
000280 6d 35 af bd d2 6d d0 bd c8 5d 92 3d e1 1e 9a bc
       -0.08555112 -0.101771966 0.071467936 -0.018813552
000290 30 66 8d 3d 7b 6d 08 3d e5 e3 2f 3d 60 a5 eb 3d
       0.06904256 0.033307534 0.042941947 0.11506152
0002a0 9c 19 ac 3d 8c c5 fc 3d fa bc e1 3b 7e 89 7c 3d
       0.08403322 0.123423666 0.006888983 0.06165456
0002b0 76 bb 8a bc 0b 7e be bd c5 ae 15 3d 95 62 03 3e
       -0.016935091 -0.093013845 0.036543626 0.12830575
0002c0 8e 7e 2d bd fc de 07 3c 73 15 fb bc 93 59 a2 bd
       -0.04235702 0.00829291 -0.030649876 -0.07927241
0002d0 a0 02 c7 3d 9c 6c 24 3d 97 1f ec bd c0 87 e4 bd
       0.097172976 0.04014264 -0.11529463 -0.11158705
0002e0 16 f5 d8 3d e5 48 00 3d 30 68 03 be ce 2b 6d 3c
       0.105936214 0.031319518 -0.12832713 0.014475776
0002f0 89 f1 7c bd be f5 0a be af 66 cd 3d 14 c5 53 bc
       -0.061753783 -0.13570306 0.10029351 -0.012925405
000300 96 4f 17 bd de 06 d1 3d 1f 56 a5 bd 0a f9 db 3b
       -0.036941133 0.10206388 -0.08073067 0.0067130374
000310 69 10 b6 bc ee d9 68 3d 1d 1c 9d 3d 70 c8 8c bd
       -0.022224622 0.05684846 0.07671378 -0.06874168
000320 51 a5 9e bd a8 63 f1 3d b7 04 51 3d 1f 24 eb bd
       -0.07746375 0.11786586 0.051029887 -0.11481499
000330 91 6f 9a 3d 46 28 ed bc 78 2f 59 bd 14 8f 38 3d
       0.07540811 -0.028949868 -0.053023785 0.045058325
000340 9f 14 68 bc 37 b5 a1 3c a1 fb c9 3d bb 78 4f bd
       -0.014165073 0.01973973 0.098624475 -0.050652247
000350 d6 0b e5 3d ae e5 f9 bc e3 65 f6 bd d8 0e d6 3c
       0.11183898 -0.030505028 -0.12031152 0.026130125
000360 6e 31 d7 bc de d6 c1 bb de 1f e2 bd 92 5c d6 3c
       -0.026268687 -0.0059155067 -0.110412344 0.026167188
000370 19 28 50 3d 69 0b f9 3d d6 95 97 bd 2f 2a 83 3d
       0.05081949 0.121603794 -0.07401626 0.0640453
000380 9f de cf 3d a7 9d db 3d 70 8c ab 3d 08 1e fc 3d
       0.101498835 0.10723429 0.08376396 0.123104155
000390 e3 81 a5 3d 71 a7 20 bb 8c 30 3c 3d b5 91 e9 bc
       0.080814146 -0.0024513865 0.045944735 -0.028511861
0003a0 dd a3 f1 3d 8b a2 e1 bd 0f 2b 6f 3d 8f 4e ad bb
       0.117988326 -0.11017331 0.058390673 -0.005288906
0003b0 5f 2d c5 3d d5 83 a4 3c 3f 98 a4 bd 38 72 42 bc
       0.096277945 0.020082394 -0.08036851 -0.011868052
0003c0 bc f8 db 3d dd ae 9f bc 2c 8d a5 ba 33 cb 95 3d
       0.10740802 -0.019492561 -0.0012630573 0.07314148
0003d0 ff 3c eb bc bf f5 bf 3c 37 c4 19 bd fc 10 90 bd
       -0.028715609 0.02343261 -0.03754064 -0.070344895
0003e0 fe 3d 50 3d 5a b7 cd bd 0e 34 de 3b 0b 8b 90 bc
       0.05084037 -0.10044737 0.0067811077 -0.017644426
0003f0 0c cb ea bd 53 9b b6 bd 2c fb 3b bd 87 e3 fb bd
       -0.11464509 -0.089163445 -0.045893833 -0.12299257

gru.weight_hh_l1 f4 [192, 64]
000000 6c 44 c0 3d 05 b8 ce bd 5c 7f 8a bc ca 97 c3 bd
       0.093880504 -0.10093693 -0.016906433 -0.09550436
000010 9d 01 31 bd 77 08 a8 3d b0 2e f8 bd df f1 cf bd
       -0.04321443 0.082047395 -0.1211828 -0.10153555
000020 7c 39 ba bd a7 19 00 3d be 90 d6 bd 6d 79 a6 bd
       -0.090929955 0.031274464 -0.10476826 -0.08128629
000030 44 98 8c bc ee 59 aa bc f5 7c 8c 3d e4 0d b0 bd
       -0.01716245 -0.020794835 0.06859771 -0.085963994
000040 10 00 ce bd 44 e2 d7 3d f4 e9 50 bb d0 48 03 3d
       -0.10058606 0.105412036 -0.0031877728 0.03205186
000050 f4 8b 94 bd 61 57 bf bb 3f 36 b9 3d 1d 25 8d bd
       -0.072532564 -0.005839274 0.0904355 -0.068918444
000060 58 f1 a4 bd ac 58 8d 3d b8 af de bd e6 a1 58 bd
       -0.08053845 0.069016784 -0.108733594 -0.052888773
000070 24 89 58 bb a1 73 c9 bd 7f 41 aa bd 5d 1e 08 bc
       -0.0033040727 -0.098365076 -0.08313274 -0.00830802
000080 1e d7 d7 bd 70 30 cc 3d a0 52 0b 3d ac 5f d8 bd
       -0.10539077 0.09970176 0.034014344 -0.10565123
000090 95 46 80 bd f5 f4 d5 bd 91 87 d7 3d 40 a9 2e bd
       -0.062634625 -0.104471125 0.10523904 -0.042641878
0000a0 12 fd cf bd 13 5f ee bd 6e 86 1e bd a5 a1 cd bc
       -0.10155691 -0.11639228 -0.03870242 -0.025101492
0000b0 c7 14 a9 3d cd 8a ce bd 7a 1a 15 bd a2 65 6b bd
       0.08255916 -0.10085068 -0.036402203 -0.05746997
0000c0 43 db cf bc 1a 6a d3 3d 02 d1 6d bc b7 a2 5c 3d
       -0.025373107 0.10322972 -0.014515163 0.053866114
0000d0 92 11 b9 bd 86 46 a6 bc f3 d1 16 bd e2 9c c3 3b
       -0.090365544 -0.0202973 -0.036821317 0.0059696296
0000e0 7a 4c 04 be 88 2d eb bd 4a 7e a8 3d 17 1c 93 3c
       -0.12919798 -0.11483294 0.08227213 0.01795773
0000f0 73 03 d9 bd 0f f4 fc bd 16 9f 9c 3d 9a 69 40 3d
       -0.10596361 -0.12351238 0.07647531 0.04697571
000100 ac 1d ef 3d d1 4e 95 3d b1 ab c2 3d ef 4b ee 3d
       0.11675581 0.07290424 0.09505404 0.11635577
000110 03 f7 d3 bd 79 03 d0 3d 23 41 dd 3c 69 dd e3 bd
       -0.10349848 0.10156912 0.027008599 -0.11126215
000120 59 28 6f 3c ab 35 8e 3d 09 c5 ad bd a6 15 a2 3d
       0.014597022 0.0694383 -0.08484847 0.07914285
000130 14 82 24 bd 55 ea b4 3d 2a 24 94 3c 88 cb b8 bd
       -0.040163115 0.08833758 0.01808365 -0.090231955
000140 ca 11 fa bd 9b 82 ed bc 72 1e 45 bb 09 22 84 3c
       -0.12210424 -0.028992942 -0.0030077961 0.01612951
000150 ff 40 6a 3d 8c bf 8b bc 43 08 d0 3c d1 90 ef 3d
       0.05719089 -0.01705911 0.025394564 0.116975434
000160 19 a4 25 3d 45 93 99 bd 28 99 f7 bb 89 fc c6 bc
       0.0404397 -0.074987926 -0.0075560994 -0.02429034
000170 9f 17 f4 3c 62 d9 0e bb 86 9d 97 bd 13 45 d9 3d
       0.02979642 -0.002179705 -0.07403092 0.10608878
000180 0f 4c 0b bd a7 88 b6 bd ca a4 b5 bc ea 47 5c bd
       -0.034008082 -0.08912783 -0.022173304 -0.05377952
000190 2b af b9 bd 59 52 46 3d a1 9a d0 bd 37 32 b0 3d
       -0.09066614 0.048418377 -0.10185743 0.08603328
0001a0 90 7c 0f 3d 0d 9f ad 3d df bf 80 bd 55 4f 9b 3d
       0.0350309 0.08477602 -0.062865965 0.07583491
0001b0 c0 df 31 3d 1d 7f e4 3d c2 77 d2 3d f6 9c 2c bc
       0.043426275 0.111570574 0.10276748 -0.010535469
0001c0 04 6b d2 bd b7 c2 ac 3d 08 f1 84 bd 2e 1e fb bc
       -0.10274318 0.084355764 -0.064912856 -0.03065404
0001d0 1e 0c 60 bd ef e6 5b bd ab 98 d8 bd c3 08 9f 3c
       -0.054699056 -0.053687032 -0.10575994 0.019413358
0001e0 42 d8 04 3e 57 b1 25 3d 54 4c c1 bd 39 4b 69 bd
       0.12973121 0.040452328 -0.094383866 -0.056956504
0001f0 be 9d 02 bc 98 18 1e bd 7a 17 e6 3d 56 15 a3 bc
       -0.007972179 -0.038597673 0.112349465 -0.019907635
000200 d2 ec 24 3d ff ee b3 3d fa ea d6 3d bf c3 6c bd
       0.040264912 0.08785819 0.10494037 -0.057803866
000210 10 b3 0c 3e 2c ce 13 bd 98 9b e0 bd 3d b5 2b 3c
       0.13740182 -0.036085293 -0.10967177 0.010480222
000220 23 7b af 3d 18 45 c5 3d cd b4 e3 3d 6a 7d 91 3b
       0.08568408 0.09632319 0.111184694 0.0044399993
000230 dc ac b0 3d e5 9f 86 3b 30 71 8f 3a 80 10 48 3d
       0.0862672 0.0041084164 0.0010943767 0.04884386
000240 5c 76 3a bb 5b da 11 3d 2b 5f 7b bd 1d 0a 39 bd
       -0.0028451895 0.03560863 -0.061370056 -0.04517566
000250 ad 20 98 bc c4 c3 50 3d 8e 25 cb 3b 40 10 14 bd
       -0.018570269 0.050967947 0.006199545 -0.03614831
000260 03 ee 68 3d 8f 5f c8 3d 57 ab 1d bd 9b 93 01 be
       0.05686761 0.09783851 -0.03849348 -0.12653963
000270 92 11 02 be 94 9b 96 bd a0 65 02 3e 34 ce 89 3d
       -0.12702015 -0.07353893 0.1273408 0.06728783
000280 5b d6 1f 3c 4b c8 2c 3d 74 99 79 3d 9c 16 a0 3d
       0.009755696 0.0421832 0.06093736 0.078168124
000290 7b d4 20 bd 1f 71 42 3d 20 4b 22 bd 11 54 dd 3d
       -0.039265137 0.047471162 -0.039622426 0.1080705
0002a0 22 b3 7b bd a3 30 28 bd a7 73 7d bc 83 8f 7a 3d
       -0.06145013 -0.04106201 -0.015469468 0.06117202
0002b0 21 4d f2 3d c2 ca c4 ba 3f 5e cf bd b6 77 a4 3c
       0.118311174 -0.001501404 -0.10125398 0.020076614
0002c0 05 86 51 3d 54 d1 5e bc 5e 2b 1f 3d ff 8f ba 3c
       0.0511532 -0.013599712 0.038859718 0.02277374
0002d0 9c b2 96 bc bd 35 9a bc da 32 8e bd e0 36 e2 bd
       -0.018395714 -0.018824453 -0.06943293 -0.11045623
0002e0 4f 07 a7 3d 77 67 b8 bd e7 7f 87 3c 32 6d 0e 3c
       0.08155691 -0.09004109 0.01654048 0.008693026
0002f0 36 35 f7 bc f4 88 c5 3d b6 e4 25 bd 0b 53 96 bb
       -0.03017674 0.09645262 -0.04050132 -0.004587536
000300 9f 9a 96 3d 44 55 7f 3c 92 e5 9c 3d 40 8d f8 bd
       0.073537104 0.015584294 0.076609746 -0.12136316
000310 3e fb f2 3c c9 2a f8 3c ff f0 39 bd ae 53 c9 3d
       0.029660817 0.030293839 -0.045395847 0.09830414
000320 f6 e3 f5 3c 0d e8 e3 bd bc cd dc bd 15 80 6e bd
       0.030015927 -0.111282445 -0.10781428 -0.058227617
000330 68 8b 6d bd 88 71 cf bc d8 16 f5 bd 6e c5 95 bd
       -0.057994276 -0.02532269 -0.11967248 -0.07313047
000340 33 f0 de bd 0d c7 90 3d d3 89 f7 3c da 65 bc bc
       -0.10885658 0.07069216 0.030217087 -0.022997785
000350 2c 02 f8 3d cf a1 b1 3d df cb cf 3d a5 70 e1 3d
       0.12109789 0.08673441 0.10146307 0.11007813
000360 88 dc d9 3d 4f 9a 83 3c ed a8 7b 3d dc c5 1d bd
       0.10637766 0.016064791 0.061440397 -0.03851877
000370 be f7 bd bd ad 5c 4c 3d 1f 0f e7 bd 97 e8 ac 3c
       -0.09275769 0.04989307 -0.11282181 0.021107001
000380 cb be 76 bc 5c 1d cb bd d2 e4 5a bd e0 da ef 3d
       -0.015060137 -0.09917709 -0.053440876 0.11711669
000390 fb 64 4b 3b d5 6b 00 3c 0c df fe 3c 14 48 a6 bd
       0.003103553 0.007838209 0.031112216 -0.081192166
0003a0 06 96 86 3d 0f e2 bc bd b8 ff ca 3c 36 3c ee 3d
       0.065715834 -0.09222805 0.02478014 0.11632578
0003b0 56 4b 72 bc 42 2a d5 bd 13 4f 56 bd 1e 1f fb 3d
       -0.014788469 -0.10408451 -0.052321505 0.122617945
0003c0 ad 93 8e 3d a0 be 34 bd 8b 56 06 3c da cf 68 3c
       0.06961761 -0.044127107 0.008199344 0.014209712
0003d0 11 52 ca 3d 87 9e bf bd 73 dc c1 3d ee 14 a7 bd
       0.09878934 -0.093564086 0.094658755 -0.08158289
0003e0 f6 a7 66 bd 06 75 ba 3d fa 02 85 bd 6c e2 bb bd
       -0.056312524 0.09104352 -0.06494708 -0.09174046
0003f0 19 7a 8e 3c 64 3d 20 bd 24 41 fa 3d 16 3f 7c 3d
       0.017392205 -0.039121047 0.12219456 0.0615836

gru.bias_ih_l1 f4 [192]
000000 48 43 ca bd 59 a5 47 bd d9 61 13 3d 71 34 92 bc
       -0.09876114 -0.048741672 0.035981987 -0.017847272
000010 6d 36 b3 3d 7e 87 38 bd 6b 9e cf 3d cf 97 67 3d
       0.08750615 -0.04505109 0.10137638 0.05654126
000020 80 ed 8b bd 54 7d 19 3d 55 51 8a 3d 69 f9 91 bc
       -0.06832409 0.037473038 0.06753794 -0.017819123
000030 b6 94 b1 bc f8 a0 7a bd 65 0f 54 bd 13 38 34 bd
       -0.021677356 -0.061188668 -0.051772494 -0.04399879
000040 3f 14 9c bd 63 18 05 3e 8a df 82 bd bc 86 31 bd
       -0.07621049 0.12997584 -0.06390293 -0.043341383
000050 f2 35 84 bd e2 18 9c 3c 71 97 95 3d f2 00 72 bd
       -0.06455602 0.019054834 0.07304276 -0.059082933
000060 ce 8a 8f bc 89 46 9d 3d 71 17 eb bc 55 e6 e2 3d
       -0.017522242 0.07679469 -0.028697701 0.110790886
000070 26 b9 c4 3d ac fc 84 3d cf 65 ea bd ab 23 b0 3d
       0.09605627 0.06493506 -0.114452 0.08600553
000080 94 38 d6 3c 67 10 a0 3d cb 45 21 ba a0 bd 48 3d
       0.026150025 0.078156285 -0.00061520626 0.049008965
000090 6a 97 d2 3b b2 83 6a bd bb 0f 78 bd 5c ae b2 bd
       0.0064267414 -0.0572545 -0.060561877 -0.08724663
0000a0 96 98 db 3d b0 b2 aa 3d f0 ee 4a 3d 89 cf 3f bc
       0.10722463 0.08334863 0.049544275 -0.011707195
0000b0 a4 b9 d3 3c f7 f4 cd 3d af 17 94 3d ee 6e e5 3d
       0.025845356 0.10056489 0.0723108 0.11202799
0000c0 e1 1e f7 bb 85 35 b2 3d 91 88 c4 3b fd d9 87 3d
       -0.007541523 0.08701614 0.0059977253 0.06633375
0000d0 64 38 9a bc 37 c3 01 3e 8f 01 f0 3d 58 f6 af 3c
       -0.018825717 0.12672125 0.11719047 0.02147977
0000e0 0c c1 8f bd 86 30 09 be 08 25 97 bd 56 af e4 bc
       -0.07019243 -0.13397416 -0.0738011 -0.027915638
0000f0 cd 94 a1 3d 1f 60 df bc 6d e2 d9 ba d4 dd db bc
       0.078897096 -0.027267514 -0.0016623266 -0.026839174
000100 e2 48 5c bd 44 39 ec 3d 6a bc d4 bc c0 11 ce 3d
       -0.053780444 0.1153436 -0.02596875 0.10061979
000110 a5 c9 90 bd 01 14 55 3c 27 22 b0 bc 3d 45 81 3a
       -0.07069711 0.013005258 -0.02150066 0.0009862554
000120 c2 d6 78 bd c9 10 04 3c ba ab 5a bd 97 c9 20 bd
       -0.060751684 0.0080606425 -0.053386427 -0.03925475
000130 91 ba 49 3c 28 49 b6 bc ed fb b0 bc 58 24 48 bc
       0.012312547 -0.02225168 -0.021604503 -0.012215696
000140 ab e5 d9 bd 60 c4 c8 3d e2 57 5a 3d 69 1b 9d 3d
       -0.10639509 0.098030806 0.053306468 0.07671244
000150 bf 68 aa 3d 12 41 07 3e 34 39 c6 bd 23 ce a5 3d
       0.0832076 0.13208416 -0.096788794 0.08095958
000160 28 2a ba bd f3 a6 05 3e 3f 7a a0 bb f3 ee 4a bc
       -0.09090072 0.13051967 -0.0048973854 -0.0123860715
000170 b2 03 0a 3e 7b 7f 09 bd dc d4 31 bd a7 f8 8b bd
       0.13477972 -0.03356884 -0.04341589 -0.06834536
000180 d8 cd 2a 3d 8d a3 96 bc 21 2f 88 bb 07 8e 9a bd
       0.041700214 -0.018388534 -0.004156009 -0.07546621
000190 6f 21 97 bc 83 5a e2 3d 7a af 1a bd 61 b2 f0 bd
       -0.01844856 0.1105242 -0.037765004 -0.11752773
0001a0 92 ee 62 bd 50 5e d2 b7 25 fc 88 3d df 03 6c bd
       -0.0554033 -2.5077868e-05 0.06688718 -0.05762088
0001b0 67 56 3c 3b c2 34 63 bc ad 90 27 bd 00 27 c0 3d
       0.0028738023 -0.013867559 -0.040909458 0.09382439
0001c0 82 39 47 3d 5d 06 0e bd 20 dd c2 bd 55 74 8a 3d
       0.048638828 -0.034674037 -0.095148325 0.0676047
0001d0 9b ea fb bd 28 81 b6 bd 5a af 17 3e e1 70 9f 3d
       -0.12300607 -0.08911353 0.14812985 0.07785202
0001e0 7c 81 ec 3d 6a bf bf ba 05 81 c6 3d c3 bb 9d bb
       0.11548135 -0.0014629189 0.09692577 -0.0048136427
0001f0 4b 64 da 3c 03 4d e4 bd e7 a5 93 bc e1 6e d7 bc
       0.026659152 -0.11147501 -0.018023444 -0.026297988
000200 91 35 9d 3d 5d 8b b6 bc 89 52 04 3d 8e 72 a9 bc
       0.076762326 -0.02228325 0.032305274 -0.020684507
000210 1b 43 e3 3d ca 82 ca 3d c7 3f 05 bd 19 27 ce 3c
       0.11096784 0.09888227 -0.032531526 0.025165128
000220 b7 1d 3f bd 42 b8 bc bd 75 b1 80 bd a0 00 bc 3d
       -0.046659198 -0.09214832 -0.06283847 0.09179807
000230 76 c6 f6 bd db 9b a4 3d b2 24 7e bd f6 84 0f bd
       -0.12049572 0.080375396 -0.062046714 -0.03503891
000240 70 27 08 3e ea aa e1 bd c6 d9 1a bc ef f3 e3 3c
       0.13296294 -0.110189274 -0.009451335 0.027826278
000250 b5 55 0a bb 2f fa c1 3d ab 82 0f 3d 3f 0e c8 3b
       -0.0021108214 0.09471547 0.035036724 0.006105214
000260 08 0c a5 bd 44 50 8a bd 0d 27 08 be 36 2a de 3c
       -0.080589354 -0.06753591 -0.13296147 0.027119737
000270 8a 99 b4 3d e9 87 bd 3d 67 36 c3 bd c1 b3 c1 3d
       0.08818348 0.092544384 -0.09531861 0.094581135
000280 cd 4a d6 bd ff b1 71 3b aa 55 ac 3c 6b 74 e4 3d
       -0.10463486 0.0036879776 0.021036942 0.111550175
000290 49 1c dc bd d9 8d d0 bd b6 c4 cf 3c e4 12 9b bd
       -0.107475825 -0.10183305 0.025362354 -0.075719625
0002a0 19 00 7b 3d 0b ce 9e bc 4a e8 a7 3d 66 a0 ec 3c
       0.06127939 -0.019385358 0.081986025 0.028885078
0002b0 a2 52 52 bd d7 61 87 bd 12 0f f9 3b 27 75 e7 bd
       -0.051348336 -0.06610458 0.0076006735 -0.11301642
0002c0 97 59 98 bd 3c 94 1a 3d d5 10 c3 3c 90 54 f9 bc
       -0.07438963 0.037739024 0.023811737 -0.03043583
0002d0 bf 48 31 3d 93 4c a8 3d 53 b7 5f bd b0 7c c7 bd
       0.043282267 0.082177304 -0.05461819 -0.09740579
0002e0 55 16 35 bd 00 63 21 3c 93 c2 7e bc db f8 d4 3d
       -0.04421075 0.009850264 -0.01554932 0.10399028
0002f0 f8 ef 8a bc 93 db f1 3c e1 11 24 bb 60 cf 4d 38
       -0.01696013 0.029523646 -0.002503507 4.906894e-05

gru.bias_hh_l1 f4 [192]
000000 8e ad 34 bd 5b 63 d2 3d 6f e8 9e bd 47 86 e0 bd
       -0.044110827 0.10272857 -0.07759177 -0.10963111
000010 1c d5 69 bd 44 12 7e 3d b7 31 c0 3d db d1 c6 bd
       -0.057088003 0.06202914 0.09384482 -0.097079955
000020 28 af f4 3c 1c 48 09 3d 31 da cb bc fe fc 06 3d
       0.029868677 0.033516034 -0.024884315 0.032956116
000030 9f de be bc cd 2c 8c 3d 73 d3 8d 3d de 8e 70 3c
       -0.023299513 0.068444826 0.06925096 0.0146825
000040 07 b1 e1 3d 84 6e 59 3d d3 f3 ef bd a8 4d 3f 3c
       0.110200934 0.05308391 -0.11716428 0.01167623
000050 5c cb 8e 3d 3f f9 f5 bd 1c 6b 03 bd b9 f4 b1 bd
       0.069723815 -0.120104305 -0.03208457 -0.08689255
000060 6a cf d2 bd 2c 97 94 3d 84 07 a0 bd fc 21 e6 bd
       -0.10293467 0.07255396 -0.078139335 -0.11236951
000070 df 12 01 3e 7b e2 8d 3d 44 dc 4b bd 21 e1 8c 3c
       0.12604855 0.06927963 -0.04977061 0.017197194
000080 d7 80 b2 bb 5f a8 49 3d 29 7d 19 3d 81 2f 13 be
       -0.005447488 0.049232837 0.037472878 -0.1437359
000090 3e 47 b1 bb d3 f6 92 bd da 05 0e 3d f0 10 a6 bd
       -0.005410104 -0.07175984 0.03467355 -0.08108699
0000a0 9c 5a 12 bd f5 06 50 3c 2d 81 67 3d 61 dd ca 3d
       -0.035730943 0.012696971 0.056519676 0.09905506
0000b0 73 ab d2 3d 85 8f 0a ba bb b7 a2 3d 22 70 9e bc
       0.102866076 -0.00052856683 0.079452 -0.019340578
0000c0 35 ef 17 bb 0e f9 2c bc 41 65 80 3d 45 3e 16 3d
       -0.002318335 -0.010557426 0.06269313 0.03668048
0000d0 0e d1 ac bd 43 00 b3 3c 1e cc f5 3d 32 eb d2 3d
       -0.084383115 0.02185071 0.12001823 0.10298766
0000e0 6e b0 ec 3d d2 17 cc ba c5 88 98 3d a6 23 94 bd
       0.11557089 -0.0015571064 0.07447962 -0.07233362
0000f0 a8 d2 b0 3d 1c f9 a7 3d 12 61 ca bd 32 2a 06 3e
       0.086339295 0.08201811 -0.09881796 0.13102034
000100 e0 77 47 3c 6c 7e 34 3d d0 e5 9a bb 79 09 f2 bc
       0.0121745765 0.044065878 -0.004727103 -0.029545533
000110 82 0c 10 bd ee 8d 06 3e 62 9e 1e bc bf ee 4b 3b
       -0.03516818 0.1314008 -0.009681316 0.0031117646
000120 6f 9c 03 bc 0e 1f d2 3c ab df 15 bc 2a ea 48 bd
       -0.008032902 0.025649574 -0.009147565 -0.04905144
000130 bf de 0d 3e a7 be 2e 3e 95 8e eb bb 45 8f de bd
       0.13854502 0.17064916 -0.007188628 -0.1086717
000140 ac 58 7f 3b 16 e7 b5 3c 89 84 2b 3e fc e4 85 3d
       0.0038962765 0.022204917 0.16749777 0.06537816
000150 08 b9 d7 bd a5 b0 20 bc ff cf d8 3d ec b4 0a 3e
       -0.10533339 -0.00980774 0.10586547 0.13545579
000160 20 7e f3 3d 14 80 88 3d 08 84 12 be 38 f9 02 bd
       0.11889291 0.06665054 -0.14308178 -0.031975955
000170 3b 8a b1 3d fc 54 4d 3d d3 fe 16 bd 5f 29 55 bd
       0.086689435 0.050129876 -0.036864113 -0.052041408
000180 4f ce dd 3d c1 f7 bc 3d 23 74 19 3e f1 f9 3b 3d
       0.10830366 0.09226943 0.14985709 0.04589266
000190 fe 50 e7 3d 12 46 0d 3d b6 5e 3f 3c 0b e1 c7 3d
       0.11294745 0.034490652 0.011680296 0.097597204
0001a0 6e d1 9d 3c 1e 55 b2 bd 56 c4 da 3d 5c 49 be 3d
       0.019264903 -0.08707641 0.10681979 0.09291336
0001b0 7c eb 84 bd fc ea 89 bd 63 79 15 bc 0f b1 12 3e
       -0.064902276 -0.06734273 -0.009123179 0.14325355
0001c0 ca 36 87 3c f9 6a 33 3c 6f 52 c0 bd 8b b4 41 bd
       0.016505618 0.010950797 -0.09390723 -0.04729132
0001d0 64 c0 7e bd ac c7 8a 3d ad cb 02 bc 26 2f 2d 3e
       -0.062195197 0.06776366 -0.00798313 0.16912517
0001e0 3d f5 18 3e a7 d6 8e bc 85 01 2b bd 65 39 6f 3c
       0.14937301 -0.017436339 -0.041749496 0.014601086
0001f0 45 22 89 bd b2 82 43 3d bf 40 d5 bd 07 a0 c7 3d
       -0.066959895 0.047732063 -0.1041274 0.0974732
000200 c6 09 a4 3d e8 15 c4 3d a4 e3 57 bd 35 9e 90 bb
       0.08009677 0.09574491 -0.05270733 -0.004413391
000210 9e df b1 3d 97 57 a6 bd 77 8c 91 bd ea 75 3e 3b
       0.0868523 -0.08122175 -0.0710687 0.0029061981
000220 a3 97 bf bd f3 2f 5f bd df 5b 68 bd da 5a dd bc
       -0.09355094 -0.054489087 -0.05672824 -0.02702086
000230 c5 af e5 bd c9 16 82 3d 6f 11 79 bd 08 7c 4d bd
       -0.11215166 0.06352002 -0.06080764 -0.050167114
000240 cb 49 29 3d 54 32 8b bd 33 c2 67 3d 1e d5 e0 bd
       0.04133014 -0.06796709 0.056581687 -0.10978149
000250 67 89 63 bd d7 22 a2 bd 1a 12 8b bd 96 25 38 3c
       -0.05555096 -0.079168014 -0.06790562 0.01123943
000260 0e a0 f6 bd fb eb c5 bd 48 f5 84 bc 94 5d a6 3c
       -0.12042247 -0.0966415 -0.01623024 0.020308293
000270 9c 65 08 be ee 76 1b 3d 88 ba 50 3d b3 57 62 bd
       -0.13320011 0.037955217 0.05095914 -0.055259418
000280 3f b2 a5 bd 46 0f 9e bd fa 0d 94 3b 4c 8f fc 3d
       -0.08090638 -0.07717757 0.0045182677 0.12332019
000290 20 34 45 3d cd 37 96 bd e6 a8 31 bd 9d 6a e1 bd
       0.048145413 -0.07334862 -0.043373965 -0.11006663
0002a0 23 2f 51 3d b8 9f 7e 3d 73 e5 04 bd 44 bb 2f 3d
       0.051070344 0.06216404 -0.032445382 0.0429032
0002b0 ac 94 7f bd 5c 29 25 3d 3b a2 8d 3d 87 8d fe 3c
       -0.062397644 0.040322646 0.06915709 0.031073345
0002c0 59 03 b4 3c ca 5f 56 bd 1e 66 e5 3d c8 99 3f 3d
       0.021974253 -0.052337445 0.11201118 0.046777517
0002d0 22 77 52 3d 1e a2 1f bc c0 95 1d 3b 45 e1 16 3d
       0.051383145 -0.009743242 0.0024045557 0.036835928
0002e0 3d f4 23 bd ff 77 8e bd be a1 7a 3d 9d 84 1a 3d
       -0.040027846 -0.06956481 0.061189406 0.037724126
0002f0 8d 8c eb 3c 49 87 c4 3c a7 5b 0d 3d e4 a6 af 3d
       0.028753543 0.02399029 0.034511235 0.08576754
