timeseries_model.pth (torch, 169398 bytes, 10 tensors)

gru.weight_ih_l0 f4 [192, 19]
000000 15 0e b2 3c 1b 16 68 bd 64 2f e8 bb e6 4c 7a 3d
       0.02173523 -0.056661706 -0.0070857275 0.061108492
000010 a6 05 84 3d 6d 00 4b bd e0 bd b3 3c 17 f5 b8 3d
       0.0644639 -0.049560953 0.021941125 0.09031122
000020 74 80 c2 3d 62 5f 54 3c 8f 05 8d bd 63 ab b7 3d
       0.09497157 0.012962194 -0.06885826 0.08968236
000030 5c d4 42 3c 98 44 09 be 21 f3 a2 3d 7d 3b 9f bd
       0.011891451 -0.13405073 0.079565294 -0.07775018
000040 0a f2 3f 3d c2 36 e8 3c 7c 4d b0 3c 3d d2 d4 3d
       0.046861686 0.028346423 0.021521322 0.10391662
000050 cf 07 8a 3d 05 bf c3 bd 8c 15 51 3d 5d 75 c9 bd
       0.067397706 -0.095579185 0.05104594 -0.098368384
000060 a5 a6 f9 3d 4e 31 08 3e 01 a6 07 3e 50 e7 ae 3d
       0.12189988 0.13300058 0.13246919 0.08540213
000070 ac 04 69 3d 29 29 8c 3d ff ef 96 3d eb 02 c7 3d
       0.05688922 0.06843788 0.07369994 0.097173534
000080 75 e4 15 3d 8c 35 61 bd 9d 2b 5e bd dc ad 60 3d
       0.036594827 -0.054982707 -0.05424081 0.054853305
000090 19 99 01 3e 9a ae 1d 3a 03 a5 f3 bd 3e cd 22 bd
       0.12656058 0.00060150924 -0.11896708 -0.039746515
0000a0 2a 70 79 bd 11 1b 7e bd b7 31 90 bd f2 a4 12 3d
       -0.060897984 -0.06203753 -0.07040732 0.035801835
0000b0 2a e4 c5 3d 28 5b af bb 61 f2 86 3d fa 8b 00 ba
       0.096626595 -0.005351443 0.06589199 -0.00049036706
0000c0 62 1c f0 bd 51 5c 1a 3d 99 cb 5a bd 19 7f d6 3d
       -0.117241636 0.037685696 -0.053416822 0.10473461
0000d0 95 a8 1e 3a af 73 ca bd 10 9d 3c bd 43 e0 e3 bb
       0.00060523424 -0.09885346 -0.046048224 -0.0069542243
0000e0 96 70 45 3d 82 08 6b bd b8 89 a8 bb 1a 6f ed bc
       0.048203073 -0.05738116 -0.0051433705 -0.028983641
0000f0 9f c1 2e be 68 f1 24 be 4d 1a 07 3d 32 10 14 3d
       -0.17066048 -0.16107714 0.032984067 0.036148258
000100 73 c3 13 be d5 98 28 be 2c 88 48 bd e0 c2 9f b9
       -0.14430027 -0.16464551 -0.04895799 -0.00030472036
000110 67 e6 52 bd b3 c3 17 bd 49 85 55 bc 28 c0 fa bd
       -0.05148926 -0.037051868 -0.013032266 -0.12243682
000120 43 67 32 be 68 c2 d6 bc af b8 13 be 3d 59 71 bd
       -0.17422204 -0.026215747 -0.1442592 -0.058922995
000130 db 7d f2 3c 89 e9 c4 bd 48 86 76 bc fd d1 83 3d
       0.029601028 -0.09614856 -0.015046664 0.064365365
000140 7d ef e7 bc 26 ed e9 3c 95 f6 79 bd 9f 96 98 bd
       -0.02831244 0.028555464 -0.061026175 -0.07450604
000150 09 1a ab 3d e0 22 34 bd 7b 56 8d bd 29 a4 52 bd
       0.08354575 -0.043978572 -0.069012605 -0.051426087
000160 69 17 1b bd 09 88 ef 3d 5f 61 02 3e 6f 68 0e bd
       -0.037864123 0.116958685 0.12732457 -0.034767564
000170 75 9d 45 3a 52 45 d4 3d 98 6b c5 3d 8c c9 ab 3d
       0.00075384165 0.10364784 0.096396625 0.083880514
000180 2a 46 a2 3c 96 d7 11 bd d6 ce 68 3d d4 4f 04 3e
       0.019808847 -0.03560599 0.05683788 0.12921077
000190 4c d8 0d 3e 98 1e 64 3d 90 cc 99 3c 1e 31 a7 bd
       0.13852042 0.05569324 0.0187743 -0.08163665
0001a0 7e a8 c7 3d 17 48 8d 3d 44 da 4e 3d dc 82 ae bc
       0.09748934 0.06898516 0.050501123 -0.021302633
0001b0 22 1d ca bd 91 3c a9 3d 67 93 ca 3d 89 36 8f bd
       -0.09868838 0.08263505 0.09891396 -0.06992824
0001c0 2e 8a 79 bd 98 a7 3f bd 60 39 bc 3d 3b 67 89 bd
       -0.060922794 -0.04679069 0.09190631 -0.06709143
0001d0 ce 9a 4e bc 2f 29 9f bb 08 68 bb 3d c6 cb 36 3e
       -0.0126101505 -0.0048572044 0.09150702 0.17851171
0001e0 50 7c 0d 3e d2 95 68 3d 98 7d df 3c 47 e9 0d 3c
       0.13816953 0.056783505 0.027281567 0.008661575
0001f0 3f 7e b4 3d dc ed d8 3d 82 5a 69 3d 83 0f b1 3d
       0.08813142 0.10592243 0.05697108 0.08645537
000200 9e 69 b9 3d ed b1 a9 bd 09 71 64 bd ae 86 d2 3b
       0.09053348 -0.0828589 -0.05577186 0.0064247465
000210 2d c8 70 bd 5e 75 1f 3e 0a ee ee bd 68 7f b4 bd
       -0.058784653 0.15572116 -0.11666496 -0.08813363
000220 10 1d 4a 3e 20 33 9d bc 6e e0 43 bc 97 ab 36 bd
       0.19737649 -0.019189417 -0.011955364 -0.044597235
000230 f8 eb 07 bd 25 74 38 3e 9a e8 17 3e 07 8e 27 3e
       -0.03318402 0.18013056 0.14834824 0.16362773
000240 f2 1a 0c 3e e4 7a 41 3e ab 00 16 3e fd fa 51 3e
       0.13682154 0.18894535 0.14648692 0.205059
000250 34 0e bb 3c f2 1c 45 3e fb 68 34 bd 05 cd 91 bc
       0.022833921 0.19249323 -0.04404543 -0.017797956
000260 e3 cb 8f bd 59 4f a6 bd 38 1f c8 3c 09 45 ad 3d
       -0.0702131 -0.08120603 0.024428949 0.08460433
000270 a3 68 00 3e 11 45 10 bc ce 73 21 bd 07 dc e4 3d
       0.12539916 -0.008805529 -0.03941708 0.111747794
000280 b9 eb e4 3c ce aa a0 3c ad 1d 64 3d 1a c7 d4 3b
       0.027944433 0.019612696 0.055692364 0.0064934613
000290 f0 c5 ae 3d 40 8c c3 3d ca 35 be bd 81 a5 61 3d
       0.08533847 0.09548235 -0.09287603 0.055089477
0002a0 1e f2 f2 3d d4 24 05 3d a8 e6 06 3e ef a1 86 3d
       0.118625864 0.032505825 0.13173926 0.06573855
0002b0 b7 0c b6 3d 47 ff b4 bd 1b e2 a7 bd 32 b5 c2 3c
       0.08889144 -0.08837753 -0.08197423 0.023768041
0002c0 98 7d fe bd ff 6e 19 be 06 86 7d bd d3 d2 84 3c
       -0.12426299 -0.14983748 -0.061895393 0.01621381
0002d0 ea 99 91 3d 2f 47 87 bc 1e b4 43 3d 0c 89 2c bd
       0.07109435 -0.016513435 0.047779195 -0.042122886
0002e0 56 8c 5d bd 39 a3 ec bd 9c 05 d8 bd 2f 0a 3e 3d
       -0.054088913 -0.1155457 -0.10547945 0.04639643
0002f0 d8 4d 3b bd 41 b4 22 be 79 83 85 bc 5a ca 91 bd
       -0.045728534 -0.15889074 -0.016298043 -0.071186736
000300 01 00 50 bd 3b 10 31 3d e7 ec df 3d cf 2c d8 3b
       -0.050781254 0.04322837 0.109338574 0.0065971385
000310 0c 05 b6 bd 8d 24 aa bc 58 b2 b6 3d 43 98 d2 bd
       -0.08887681 -0.020769382 0.08920735 -0.10282948
000320 92 7d df 3d 85 d6 7b 3c b9 7c b1 bd 96 f1 74 3d
       0.109126225 0.01537097 -0.08666367 0.059800707
000330 36 53 25 bd 62 e3 af b9 c4 36 e6 bc da ad 11 3c
       -0.04036256 -0.00033548014 -0.028102286 0.008891547
000340 ab 49 ab 3d 0d 84 d2 3d c2 a5 9d 3a 74 74 97 bc
       0.083636604 0.10279093 0.0012027549 -0.018488146
000350 b4 b1 c1 3d f3 70 1c bc 30 a8 0d 3e cb 94 a4 3d
       0.09457722 -0.009548414 0.1383369 0.080361925
000360 3a cc 8a 3d 66 7c b0 bd 3d f8 8e bd 7f 60 2a bd
       0.067772344 -0.08617477 -0.069809414 -0.041595932
000370 ee 8e d1 bd a8 0e d0 3c 6b a7 34 3c fc af 23 bc
       -0.1023234 0.025397614 0.011026244 -0.009990688
000380 06 38 65 bd c4 45 50 bd d2 00 e4 bc 46 6e e5 3d
       -0.05596163 -0.050847784 -0.027832422 0.112026736
000390 c1 6c 99 3d 97 ca d7 bd b0 4b 95 bb d1 81 f0 3c
       0.07491446 -0.10536688 -0.004556142 0.029358776
0003a0 0c f1 61 bc a6 f2 c7 3d 3e 9d cb bd c2 e7 b3 bc
       -0.01379038 0.097630784 -0.09942101 -0.021961097
0003b0 7d 51 ae bd 3d 6d d1 bd 72 fa 90 bd 2c c3 db 3d
       -0.085116364 -0.10225914 -0.07079019 0.107305855
0003c0 60 09 42 3c dc 4d d7 3d 2d 72 58 bd 67 c4 09 bd
       0.0118430555 0.10512897 -0.05284326 -0.03363457
0003d0 e3 6b 9f 3d 3d b1 87 3c 84 26 c5 3d 64 30 f3 bd
       0.0778425 0.016564006 0.09626487 -0.11874464
0003e0 11 04 d3 3c 48 78 fe bc 54 08 f4 bd 03 cc 00 3e
       0.025758775 -0.031063214 -0.11915651 0.12577824
0003f0 31 fa ce 3d 0b af 6e 3d e2 fa c1 3d d8 5e 0a 3d
       0.10106314 0.058272403 0.0947168 0.033781856

gru.weight_hh_l0 f4 [192, 64]
000000 c6 e3 4b bd 1e 9d 00 3e 12 2b 43 bd db e0 06 bb
       -0.04977777 0.12559935 -0.047648497 -0.0020580802
000010 c2 25 cf 3d 61 02 b9 bd 18 9c 94 3d c4 c8 27 3d
       0.101146236 -0.09033657 0.07256335 0.04096295
000020 a6 2f fe bd 43 8a a5 bd b6 c2 ea bc 65 b3 e2 3d
       -0.12411432 -0.08083012 -0.028657299 0.11069373
000030 d6 d0 54 3d 9d 5d 30 bd 82 10 47 bd d2 57 d7 bd
       0.051956974 -0.043058027 -0.048599727 -0.10514797
000040 8d ff 77 3d d8 13 01 3e 29 13 a4 bc 2a 7e ed bc
       0.060546447 0.12605226 -0.020028668 -0.028990824
000050 de a3 6d 3c c3 3a 05 be 9c e5 0d 3c 2c 0a b9 bd
       0.014504401 -0.13010697 0.0086607 -0.09035143
000060 0c 28 d2 bd a1 ab 85 bd 72 64 43 3d 47 d2 c1 bc
       -0.102615446 -0.06526876 0.047703214 -0.023659838
000070 2e 6d f4 3d a5 5d b0 3d 33 ac 2b bd b8 f6 da bc
       0.11934887 0.08611611 -0.04191227 -0.026728973
000080 10 9d 2d bc 48 ab d2 3d 1b be 60 3d 42 af e3 3d
       -0.010596529 0.102865756 0.0548688 0.11117412
000090 6d 89 04 3e ad e9 8c bc 1c 77 14 3d 93 f2 a1 bd
       0.12943049 -0.017201269 0.036246404 -0.079075955
0000a0 f4 c9 cd bb cd dc 7e bc 72 67 d5 bd fc ae 0a 3e
       -0.006280178 -0.015555573 -0.10420121 0.13543314
0000b0 33 62 b9 3d 82 15 fb 3c 2c fe bc 3d 77 59 d7 3b
       0.09051933 0.030649904 0.09228167 0.0065719443
0000c0 04 9e 8b 3d 6d ef b8 bd ca a9 03 bd e5 1d 8e bd
       0.068172485 -0.09030042 -0.032144345 -0.06939296
0000d0 72 1d b2 bd b7 c0 90 bd 77 04 fb 3c 95 18 47 bd
       -0.086970225 -0.070680074 0.030641777 -0.048607428
0000e0 00 6d 3c bd 25 c2 6d bc a1 1d 04 be 2c ce 98 3d
       -0.046002388 -0.01451162 -0.12901928 0.07461199
0000f0 6e 0c 49 3d 47 3e 7b 3d 88 26 b2 bd bd f2 f5 bb
       0.04908412 0.06133869 -0.086987555 -0.0075057433
000100 28 32 0b ba a1 4f 91 bc 16 8c cd bc ab 7a 88 bd
       -0.0005309903 -0.017738165 -0.025091212 -0.06664022
000110 89 87 94 3c dd 20 64 bd d9 8e 96 3d a0 39 ff 3c
       0.018131034 -0.055695403 0.07351465 0.031155407
000120 aa 96 74 3c 15 f3 61 3c 94 9e 69 3d 7d 9d 8c 3d
       0.014928499 0.013790865 0.057035998 0.06865976
000130 92 df ca 3d 20 86 94 3d 3d 1d a5 3c ce 69 0f 3d
       0.09905924 0.07252145 0.020155543 0.035013013
000140 10 f9 94 3d 34 23 02 3e df d8 72 3c 33 67 e2 3d
       0.072740674 0.12708741 0.014822214 0.1105484
000150 82 b5 83 3c bd 8d 07 be 82 0d 26 3d d2 54 ee bc
       0.01607776 -0.13237663 0.040540226 -0.02909318
000160 33 ea c3 3d e5 81 02 3c 52 11 56 bc fb e5 c2 3d
       0.09566154 0.00796554 -0.013065653 0.095165215
000170 e2 89 2c bd e9 f1 0c bd 51 0b f8 bd 6a d9 7f bd
       -0.042123683 -0.03441039 -0.121115334 -0.0624632
000180 76 7b 30 3c 4f a4 69 bc 43 4a ea bd 6d 35 dc 3d
       0.010771623 -0.014260366 -0.114399455 0.10752378
000190 e3 54 04 bd 54 16 a5 bd 00 0c 5a bc 53 27 68 3d
       -0.032307517 -0.080608994 -0.013308525 0.056678127
0001a0 53 73 d6 3d 61 22 e9 bd 67 18 78 bd 83 e6 b3 bd
       0.10471215 -0.113835104 -0.060570147 -0.08784201
0001b0 b1 0e 2a 3d b7 a5 e2 bd b3 43 06 be 33 20 51 3d
       0.041517917 -0.11066764 -0.13111763 0.0510561
0001c0 fd 92 f4 3c 87 ff 0b bd 01 16 78 bb 48 35 51 3d
       0.029855246 -0.034179237 -0.0037854912 0.051076204
0001d0 24 b2 77 3c 3c a1 86 bc 60 63 97 3b 69 89 d4 bc
       0.015118156 -0.016434304 0.0046200007 -0.025944429
0001e0 6c 77 2a 3c fb fd d8 bd 39 f2 5d bd fe aa ba bd
       0.010404449 -0.10595318 -0.05418608 -0.091146454
0001f0 93 68 9b 39 e4 6a 09 be da 93 e9 3d 37 1e 4a bc
       0.00029641818 -0.13419682 0.114051536 -0.012336305
000200 52 ff ad 3d b5 1d 81 3d 1f 20 95 bc 6d 7f 05 be
       0.08495964 0.06304494 -0.018203793 -0.1303689
000210 b6 9b a9 3d bf b8 72 3d ab bc 90 bd cf 4c 84 bd
       0.08281653 0.05925822 -0.070672356 -0.064599626
000220 1c 11 05 3d c3 f8 98 bd b4 be ad 3d 08 45 76 bd
       0.03248702 -0.074693225 0.08483639 -0.060124427
000230 2f be af 3c 76 c6 25 3c 1c a1 32 3c 91 33 1f 3c
       0.021452991 0.010118118 0.010902669 0.009716884
000240 0c d6 03 be d9 74 fe 3d 9b c5 da 3c 91 91 e1 bc
       -0.12874621 0.12424631 0.026705554 -0.027535232
000250 f6 3a 93 bd a2 39 f8 3c 81 59 dc bd 96 c3 ad bc
       -0.0718898 0.030300919 -0.10759259 -0.021211427
000260 0d f0 d4 bd 4a 55 91 bd eb 0e ed 3d 85 5a 1a 3d
       -0.103973486 -0.07096346 0.11575111 0.037683982
000270 c7 c3 bd 3d a1 fc 89 3d 97 d4 8a bd c4 d4 86 bd
       0.09265857 0.06737638 -0.067788295 -0.065835506
000280 8d 90 87 3d 3a 46 8c bd 7a 93 c0 bd 87 50 87 bc
       0.06619368 -0.06849332 -0.09403129 -0.01651789
000290 4c 6e 25 bd f9 ac 97 bd 9c 0f ce 3b f6 b9 04 3d
       -0.04038839 -0.07406039 0.006288482 0.03240391
0002a0 39 42 88 bd 38 7a 34 bd ac 75 ac 37 ae f3 50 bd
       -0.06653256 -0.04406187 2.0558793e-05 -0.05101364
0002b0 d9 cf 92 bc a7 bb 60 3d b2 e9 15 3d 6e 78 a9 3d
       -0.017921375 0.05486646 0.036599822 0.08274923
0002c0 0c f9 9a 3c 24 28 56 3d c2 9c cc 3d cf 19 24 bd
       0.018917583 0.052284375 0.09990837 -0.040063675
0002d0 50 a8 75 bd 99 47 7a 3c a3 29 a6 3b 8b d6 ed bc
       -0.05997497 0.015275859 0.0050708815 -0.029032966
0002e0 f8 95 b8 bd 3f e9 e1 bd 62 18 2a 3d 9f b2 b4 bd
       -0.09012979 -0.11030816 0.04152716 -0.08823132
0002f0 14 e7 b9 3c 2f cc 5b bc 2a 46 ae bd a7 45 67 bd
       0.022693194 -0.01341538 -0.085094765 -0.05646291
000300 3f ed 05 3e 80 73 02 bd 34 99 eb bd dc 6d 1c bc
       0.13078783 -0.03184843 -0.115038306 -0.009547677
000310 3e c7 ae 3c de 5b ed bd ce c1 e0 bd 31 7c e3 bd
       0.02133524 -0.11589788 -0.10974465 -0.11107672
000320 b7 90 cf 3d 51 1d 2c 3d 3e 85 d9 3d 8d 25 d8 3a
       0.10135024 0.042020146 0.10621117 0.0016490683
000330 8f 8f 5d bd a1 ca f9 bd 39 5d eb bc fa f9 77 3d
       -0.054091986 -0.121968515 -0.028730975 0.06054113
000340 6c 7c fd bd 76 22 be 3d a7 46 8e bd 7c fd 8b 3d
       -0.12377247 0.09283917 -0.069470696 0.06835458
000350 34 a7 cc 3b 20 9a e3 bd f1 f5 5b bd c3 18 76 3c
       0.006245518 -0.111133814 -0.053701345 0.015020552
000360 94 00 aa bd d1 dd 74 3d 91 00 8c bc 66 94 b5 bd
       -0.083008915 0.059781853 -0.017090114 -0.088661954
000370 0c 75 54 bd d1 34 23 3d 43 42 9c 3d 46 b6 04 be
       -0.051869437 0.03984529 0.07629826 -0.12960157
000380 27 b7 f5 3c 91 4f ad 3d f1 d8 f3 bc c4 77 bd 3d
       0.02999456 0.08462442 -0.029766532 0.09251359
000390 ad 01 43 3c df 94 b8 bd f2 9f 40 bd ae 0d 25 3d
       0.011902255 -0.0901277 -0.047027536 0.04029625
0003a0 79 08 88 bd 4d 1b eb bc 0d 33 4b 3c 30 37 c3 bd
       -0.06642241 -0.028699541 0.012402308 -0.095320106
0003b0 52 7c e6 3d 0d 35 af 3d 05 aa 65 3d 1b 3a f4 bc
       0.11254181 0.085550405 0.056070346 -0.029812863
0003c0 24 54 49 3d 22 95 1e 3c 13 19 a3 bd 85 62 0e 3d
       0.04915251 0.009679111 -0.07963767 0.034761924
0003d0 e8 9e 02 be 51 c3 a4 3d e1 57 c5 3d 6c b9 c3 3a
       -0.1275593 0.08045066 0.09635902 0.0014932579
0003e0 d6 bd c6 bd 8d ed ed bd e0 85 a6 bd 47 2b 5c bc
       -0.09704177 -0.11617575 -0.081310034 -0.0134380525
0003f0 63 76 b5 bc 75 ae 5d bd 8d 04 b5 bd e6 0d bc bc
       -0.022151178 -0.054121453 -0.088387586 -0.022955846

gru.bias_ih_l0 f4 [192]
000000 e3 53 20 3d e2 62 f6 bd 7e bc b3 3d 14 3f f1 bd
       0.0391425 -0.12030579 0.087761864 -0.11779609
000010 30 7c 36 bd 91 6c bc bd 17 ff c8 3d 6c a0 43 3d
       -0.04455203 -0.09200395 0.098142795 0.047760412
000020 46 9e c5 3c 65 c4 00 bd 9b 20 70 3d d5 c7 e3 bd
       0.024123322 -0.031437296 0.058624845 -0.11122099
000030 95 a9 b8 bc fc 37 a7 bb 2c bf f9 3d 3d de 65 bc
       -0.0225418 -0.0051031094 0.12194666 -0.0140300365
000040 37 20 ec 3d c0 df 92 3d 81 61 a8 bd 14 c6 af 3d
       0.11529582 0.07171583 -0.082217224 0.08582702
000050 07 82 3f bd f2 e9 06 3e c9 29 ce bd ca 29 1c 3b
       -0.046754863 0.1317518 -0.10066564 0.002382862
000060 f7 ab 4a bd 9c 14 e1 3d 32 bb 08 3e 1e ae 66 3c
       -0.049480405 0.10990259 0.1335266 0.014079599
000070 d8 1d de 3d 04 b5 e4 3d 40 0b e2 bd 34 46 9a bd
       0.10845536 0.111673385 -0.11037302 -0.075329214
000080 3c ea 1d 3e 5c 2c 0f bd 40 9c 80 3c 10 db c6 bc
       0.15421385 -0.034954414 0.015699506 -0.024274379
000090 30 5d a7 3d 72 b0 93 3d 7e b5 24 bd 7d 23 98 3c
       0.08172071 0.07211389 -0.040212147 0.01857161
0000a0 75 02 a6 bd 10 6d 70 3d 0a 28 fe 3b 2a f9 dc 3d
       -0.081059374 0.05869776 0.007756238 0.10789712
0000b0 96 58 92 3d 1b 68 49 3c b5 fe e4 bd d3 b5 ec 3c
       0.07145803 0.012292887 -0.11181394 0.028895294
0000c0 c5 b6 b9 bd 7c 3e 77 bd 6b 9b e0 3d 0f a6 85 bd
       -0.09068064 -0.060362324 0.109671436 -0.06525814
0000d0 45 23 16 3d e4 d7 2f bd ba 48 6c 3d b8 29 15 bc
       0.03665473 -0.0429305 0.057686545 -0.009104185
0000e0 bc d4 bc bd 68 f0 81 3b e7 c9 e7 3c 74 dd c0 b9
       -0.09220263 0.0039654262 0.028294517 -0.0003678609
0000f0 55 4b fe 3c 5e 37 1f 3d fb d6 79 bd a9 4d 5d bd
       0.03104178 0.03887116 -0.060996037 -0.05402914
000100 ed be 19 be 25 af 9f bb aa 3d e1 3d cf 80 e7 bd
       -0.15014239 -0.004873174 0.109980896 -0.11303865
000110 38 53 16 3e b6 f9 0e 3d 43 6b 1f be 1d 77 d5 3d
       0.14680183 0.03490611 -0.15568261 0.1042311
000120 81 d0 30 bd 0d 1c 2d be cc 1b 8d 3d dd 6a 41 bd
       -0.043167595 -0.16905232 0.068900675 -0.047221053
000130 9b 22 4e 3d c8 fd 56 3d f7 b5 82 3d 0b 2b 48 3d
       0.05032597 0.05248812 0.06382363 0.048869174
000140 f9 aa 93 bd 4b 21 bb bd 69 61 d9 bd 61 94 ab 3d
       -0.07210345 -0.091372095 -0.10614283 0.083779104
000150 c7 96 a7 3d e6 ac 85 3d 98 50 77 3c 58 3b 6d bd
       0.08183055 0.065271184 0.015094899 -0.057917923
000160 20 0b e8 3c b1 d7 8c bc fa c7 25 bd a1 99 d4 bd
       0.028325617 -0.017192693 -0.040473916 -0.10380865
000170 cd 8f ee bd 18 eb 08 3e b3 0b ef bd 75 60 ae 3d
       -0.116485216 0.13370931 -0.11672153 0.085144915
000180 03 30 04 be f9 28 82 bd 61 e6 36 be 19 81 8b 3d
       -0.1290894 -0.06355471 -0.1786132 0.06811733
000190 cc 33 79 3d 28 bc 2b 3e d6 46 6b 3c 44 b9 1f 3d
       0.060840413 0.16770995 0.01436015 0.038995042
0001a0 07 76 05 be 67 55 ca bd af 00 0c 3c 88 d9 91 ba
       -0.13033305 -0.098795705 0.008545085 -0.0011127451
0001b0 9c ef 50 bd 61 c9 83 bd 46 b1 2f 3d a3 1c 0f be
       -0.05100976 -0.06434894 0.04289367 -0.13975768
0001c0 e5 9b aa bd e0 ae 12 bd 5b 98 4c bd 8a 0f 68 3d
       -0.08330516 -0.035811305 -0.049949985 0.056655444
0001d0 30 79 5b 3c 89 c5 8e 3d 43 74 10 3e e1 90 2a be
       0.013395593 0.069712706 0.1410685 -0.1665683
0001e0 21 07 9f 3d 1d 99 1e 3e dc c8 6f bd 19 8b a1 3d
       0.077650316 0.15488096 -0.058541164 0.07887859
0001f0 7e f9 54 bb b1 6c f8 3d fb 11 cb bd 9a e5 ad bc
       -0.0032497342 0.12130106 -0.09915539 -0.021227647
000200 5f 4a c7 bd 37 d1 e5 3d a4 65 8e 3d 05 79 67 3d
       -0.09730982 0.11221545 0.0695298 0.056511898
000210 b0 67 a7 bd 00 82 c1 3d 02 70 12 3e 32 73 19 be
       -0.08174074 0.09448624 0.1430054 -0.1498535
000220 ce 4c dc bc f3 dc fc bd 3a 3b 81 bb f6 63 95 bd
       -0.026892092 -0.1234683 -0.003943828 -0.07294457
000230 d8 f9 bb 3d 73 75 87 3d e2 8d cc 3d 20 d9 0b 3d
       0.09178513 0.066141985 0.099879995 0.034142613
000240 97 15 00 bd 03 94 3a 3c a2 a0 db bc 12 75 d6 bc
       -0.03127059 0.011387828 -0.026809994 -0.02617887
000250 61 45 dc 3d 1c cf c3 3d 41 c3 74 3c dc 16 c0 3d
       0.107554205 0.09560987 0.01493913 0.0937936
000260 fb b1 94 3b d1 87 60 bc a1 65 3b bd 15 59 d8 bd
       0.0045378185 -0.013704256 -0.045751218 -0.10563866
000270 df 40 ba bd 3b e6 6d 3d ad 9f d1 bb bb 98 9d 3d
       -0.090944044 0.058080893 -0.0063972087 0.07695147
000280 d0 95 87 bc 8e b1 8f bd 55 5b f9 3d 2f c2 38 bd
       -0.016550928 -0.07016288 0.12175623 -0.045107063
000290 48 67 c3 3d 7e 52 2c 3d eb 4d 9d bd e4 f5 a6 bd
       0.09541184 0.04207086 -0.07680877 -0.08152369
0002a0 81 d0 de bc 01 8b dc 3b 7c fa 4e 3d d0 ab 7a 3a
       -0.027199032 0.0067304377 0.05053185 0.0009562345
0002b0 f6 71 94 bc e3 f8 b4 3d 22 f4 89 bd 72 54 f7 bd
       -0.018120747 0.08836534 -0.06736018 -0.120766535
0002c0 64 6a 40 3d ce c9 92 3c b4 46 9a bd b0 40 7f bd
       0.046976462 0.017918494 -0.07533017 -0.06231755
0002d0 9a 59 8d 3d 6a 75 97 bc 24 1d ec bd 04 c7 e2 bd
       0.06901856 -0.018488605 -0.11528996 -0.110731155
0002e0 5d 40 3f ba 3b 50 a7 bd 1f 50 76 bd d8 8f 8c 3d
       -0.00072956627 -0.081695996 -0.060135003 0.068633735
0002f0 b9 a9 c3 bd 00 c3 00 bd 09 2f c4 3d 74 49 de 3d
       -0.095538564 -0.031435966 0.09579284 0.10853854

gru.bias_hh_l0 f4 [192]
000000 86 2a 5d 3d b4 42 ab bd 67 ce 06 be 93 c9 69 bc
       0.05399563 -0.08362332 -0.13164674 -0.01426925
000010 c0 ba f6 bd a6 4a 89 3c 09 34 df 3d cd cf 09 3e
       -0.120473385 0.016759228 0.10898597 0.13458176
000020 7f 1d e4 3d b8 84 cf bd 07 57 91 3d e3 19 dc 3c
       0.111384384 -0.10132736 0.07096677 0.026867812
000030 ae d3 ac bb 4e b9 a5 bc 4c 91 7f bd 45 08 a1 bd
       -0.0052742576 -0.020229962 -0.062394425 -0.078629054
000040 8b fb f3 3b d2 f6 d6 3d 11 b0 32 bd 8f 5b c8 bc
       0.0074457577 0.10496296 -0.04362494 -0.024457721
000050 18 51 c5 3d b2 f0 9d 3d e5 78 b4 3c 71 9a 6b 3c
       0.09634608 0.077119246 0.022030303 0.014380083
000060 65 f1 af bd c3 b2 a7 bc c7 01 17 bd 1d 86 89 bd
       -0.08590964 -0.020470982 -0.03686693 -0.06715033
000070 25 6d 31 bc 78 1e 28 3d f7 91 4d bc e1 61 01 be
       -0.010829245 0.041044682 -0.012547008 -0.12634994
000080 87 e4 77 3d 06 cd dd bd b2 c0 06 be 3d f4 d0 3d
       0.060520675 -0.10830121 -0.13159445 0.10202835
000090 43 95 b1 bd c2 bf fd bb 2c 87 dc 3d 5d cb 03 bd
       -0.086710475 -0.0077438066 0.107679695 -0.032176364
0000a0 86 8e c2 3c b1 6d e2 bd e1 b1 ca bd 00 8a ab bd
       0.023749601 -0.11056078 -0.09897209 -0.08375931
0000b0 37 a2 f6 bd c8 35 00 3e 2a b8 74 bd 7c 14 bd bd
       -0.12042659 0.12520516 -0.059745945 -0.09232423
0000c0 0d 5e 31 bc 18 ed 18 3e 74 94 e6 bc c5 12 6f bc
       -0.010825646 0.14934194 -0.02814696 -0.014591877
0000d0 7d 1e 26 3d af 43 96 3d fb 12 d4 bd 30 41 0a bd
       0.04055642 0.07337128 -0.10355183 -0.033753574
0000e0 1a b1 4b bd 52 bd 56 bd 09 c3 7d 3c d7 19 58 bd
       -0.049729444 -0.052426644 0.015488395 -0.052759018
0000f0 7f bb a5 bd bc ac dd 3d 8f c7 9d 3d 99 37 bb 3d
       -0.08092403 0.10823962 0.077040784 0.09141464
000100 52 6b 30 3c 33 58 b9 bd 09 1f 80 3d 1f 38 2a 3d
       0.010767775 -0.09050026 0.062559195 0.041557427
000110 66 81 93 bd 94 27 1c 3c 6e 59 46 bd ef ee f6 3d
       -0.07202415 0.009530921 -0.04842513 0.12057292
000120 35 e3 fa 3b 17 af 8f bd 6c 03 ee 3d 8b 44 05 bc
       0.0076564797 -0.070158176 0.116217464 -0.008134018
000130 88 94 c8 3d 6f 54 b0 bd 7c 1c 1c bb 6c 2b 1a be
       0.09793955 -0.086098544 -0.002382069 -0.15055627
000140 bb 46 d3 bd 38 0d ea bd 29 e7 7d bd 0f 6d 6d 3d
       -0.10316225 -0.114283025 -0.06198803 0.057965335
000150 8c 16 f6 3c f1 47 15 3e 91 11 fa 3d cb 93 ae 3d
       0.030040048 0.14578225 0.12210382 0.08524283
000160 d0 44 c8 3d d6 13 df bd 9b 91 2c 3d ec 45 3c 3d
       0.0977875 -0.10892455 0.042131048 0.04596512
000170 e6 6b 1d 3b 8b 4c c8 3b 8a e2 10 be 86 71 17 3c
       0.0024020611 0.0061126403 -0.14148918 0.009243375
000180 63 28 3d bd ce 71 21 bd 9a f4 44 be 28 ac ec bd
       -0.046181094 -0.039415173 -0.19233933 -0.11556274
000190 a5 bc ae bd 35 69 e6 3d 4b 8e 85 bd 4d 74 12 be
       -0.08532075 0.112505354 -0.06521281 -0.14302178
0001a0 de a7 bc bd a9 29 25 be c2 81 d0 3d 2d 49 5c 3c
       -0.092117056 -0.16129173 0.10180999 0.013445181
0001b0 0d 65 5e bd 57 c0 ee bc 1e e9 4e bd ad fd b8 bc
       -0.05429559 -0.02914445 -0.050515287 -0.0225819
0001c0 b8 43 d1 bd 54 f9 88 bd 2f 5a b8 3d 04 40 b4 bd
       -0.102179945 -0.066881806 0.09001576 -0.088012725
0001d0 6e e2 57 3d f8 d8 72 3d f9 e7 ad 3d 8c 99 32 be
       0.052706175 0.05928895 0.08491511 -0.17441386
0001e0 56 8d 53 bd ba 90 67 bd 2c 29 73 3c 10 22 d2 3b
       -0.05164846 -0.056534506 0.014841359 0.006412752
0001f0 cd c9 4f bd b1 5d 4b bd 3f 7e ce bb 6c ae bc bc
       -0.05072956 -0.049649898 -0.006301671 -0.02303239
000200 f5 f4 b6 bd 08 e5 16 be ba 69 fe 39 a3 4a 19 bd
       -0.089334406 -0.14735806 0.00048525428 -0.037424695
000210 ef 9a 3d 3d 43 7e 06 be e0 f3 22 3d 80 b4 a7 bd
       0.046290334 -0.13134103 0.03978336 -0.081887245
000220 ee a4 51 3d 00 8b aa 3d c4 e4 03 be b7 69 ad bd
       0.05118268 0.083272934 -0.12880236 -0.08467429
000230 af 09 f1 bc 0d 6e 9d bd 49 1b 2d 3c ff 8f 1a bd
       -0.029423563 -0.07687006 0.010565587 -0.03773498
000240 c2 2e 8e bc 55 3d b1 bd ac 8f 55 3b 2c c7 8d 3c
       -0.01735628 -0.08654276 0.0032586856 0.017306887
000250 94 28 da bc ee c8 97 bd 34 14 ec 3c b4 98 f7 bd
       -0.026630677 -0.07411371 0.028818227 -0.12089673
000260 82 d8 e2 bd 66 1f 8c bd f2 6f 08 be 20 cb 48 bd
       -0.11076452 -0.06841926 -0.13323954 -0.04902184
000270 95 dd 3b bd fb 3d ac 3d 8c a2 03 be fb f0 77 bd
       -0.045865614 0.08410259 -0.12854975 -0.06053255
000280 cc 00 3d bd ad 22 63 bd 26 8b d7 3a 57 07 5f 3d
       -0.046143338 -0.05545299 0.0016444668 0.05445036
000290 ef dc 49 3d 95 2d ba bd 7e 72 66 bd f6 ca e2 bd
       0.049282964 -0.09090725 -0.056261532 -0.11073868
0002a0 40 0c f6 3d 9d cf de bc 73 ce db 3d fd b5 02 bd
       0.12014055 -0.027198607 0.107327364 -0.03191184
0002b0 6a da bc 3d 8e 43 76 bd 80 24 63 b8 0a af 8d 3c
       0.09221347 -0.06012302 -5.415501e-05 0.01729538
0002c0 de a4 05 3d 13 9c da 3d 93 4b 21 3b 0b 35 93 3d
       0.032627933 0.106743 0.0024611696 0.071878515
0002d0 4e 3e ae 3d d3 1b a2 3d e6 f9 49 bd b4 9b c3 3c
       0.085079774 0.07915463 -0.049310587 0.023877956
0002e0 73 33 f6 3d b9 d8 f2 3d b0 41 cd 3d 14 34 32 bb
       0.12021532 0.11857743 0.100222945 -0.0027191686
0002f0 6d 3a 44 bd 81 6b 6a bd 7c b6 bf bd 5a 29 a2 bd
       -0.04790728 -0.05723143 -0.09360978 -0.079180434

gru.weight_ih_l1 f4 [192, 64]
000000 73 65 c1 3d 0d 6c 00 bc 94 c7 aa bd 5d cd 3a 3d
       0.09443178 -0.007838261 -0.08338848 0.045606006
000010 62 4e 24 3d 7c a4 99 bd c3 45 83 bd 36 c2 98 bc
       0.040113814 -0.07502076 -0.0640979 -0.018647294
000020 a8 8a 97 bd 71 c4 08 3e d3 f0 8f bd 36 75 f9 3a
       -0.073994935 0.13356186 -0.070283554 0.0019032124
000030 bf 57 9a bd 62 d0 5d 3d db 40 b3 3c a9 9c eb 3d
       -0.075362675 0.054153807 0.021881511 0.1150449
000040 ca a0 e1 3c 0c 8d ca bd 58 9d 03 bd 64 7f 69 bd
       0.02754249 -0.09890184 -0.032132477 -0.057006255
000050 3b e9 20 bb 9d 4e fc bd b5 60 17 bd 40 a4 01 3d
       -0.0024553079 -0.12319682 -0.03695746 0.03165078
000060 21 b7 69 bc 78 bc 77 bd dd e4 9e bd 3f e7 a5 bc
       -0.014264853 -0.060482472 -0.07758496 -0.020251868
000070 c6 4a 92 bd b4 2f 34 bd 01 2f d3 bd d9 43 57 bd
       -0.07143168 -0.043990806 -0.103117 -0.05255494
000080 44 6a cb 3c 3e ad 03 bd 61 68 d3 3d d4 ff 8e bc
       0.024830945 -0.03214764 0.10322643 -0.017455973
000090 ee 4d 28 3d d4 6b ed 3a 43 8e b4 3d e2 6e c1 3d
       0.041089945 0.00181138 0.08816197 0.09444977
0000a0 27 27 92 3d 00 90 04 be b5 a2 bd 3d bb 2e 15 3d
       0.07136374 -0.12945557 0.092595495 0.03642152
0000b0 b3 41 c9 bd 9b bd 49 3d 97 c5 bc 3d da 9c d4 bd
       -0.09826984 0.049253087 0.09217375 -0.103814796
0000c0 d9 e7 99 bd d4 50 ab bc da a9 f4 3d 07 0a 89 3c
       -0.075149246 -0.020912565 0.11946459 0.016728414
0000d0 22 89 de 3d e4 19 ee bd 29 e2 3f bd dc dc 3f 3d
       0.10866 -0.11626032 -0.046846543 0.046841487
0000e0 e1 ac cd 3d fd b7 b1 bd 2c f6 3a 3d 70 31 03 3e
       0.1004274 -0.08677671 0.045644924 0.12811828
0000f0 a6 55 c6 3d 58 05 6c bd f9 13 aa 3d c1 e2 b9 3d
       0.09684305 -0.057622284 0.08304591 0.09076453
000100 d2 b0 1a bd d2 32 1a 3d 2e 55 e3 3d 19 43 d1 bc
       -0.037766285 0.037646122 0.11100231 -0.02554469
000110 83 c0 93 3d 24 25 99 3d b8 ff ed bb f9 50 73 bd
       0.07214453 0.07477787 -0.00726315 -0.059403393
000120 48 ca ab bd c5 10 0e 3d e8 8e c4 3c 9c 4a 18 3e
       -0.083881915 0.03468396 0.023993924 0.14872211
000130 9c b9 c2 3c 64 f1 05 3e 2b 0b 81 3d 8d a6 69 3d
       0.023770146 0.13080364 0.06300958 0.0570436
000140 86 c4 4f 3b 00 04 66 bd ee 38 20 bd 88 87 71 bd
       0.003170283 -0.05615616 -0.039116792 -0.058967143
000150 4e 01 1b bd 8f e0 e3 3d e6 46 32 bd c4 ac a5 bc
       -0.03784304 0.111268155 -0.043524645 -0.020223983
000160 c5 4f bc 3d e5 e1 e7 bc 60 2e 8f bd c2 0c 28 3d
       0.09194902 -0.028305957 -0.06991267 0.04102779
000170 27 64 58 3c 0b 71 c7 bd 88 b5 13 3e 4d 69 a7 bd
       0.013207472 -0.09738358 0.14424717 -0.081743814
000180 af fa aa bd 53 95 49 3c 18 98 b5 3c a8 d8 c0 3d
       -0.08348595 0.012303668 0.02216725 0.09416324
000190 54 8f a5 3d 9a ee 19 bd 90 13 35 bd b8 21 eb 3c
       0.08083978 -0.037581064 -0.04420811 0.028702602
0001a0 fc dd de 3d e1 b8 d8 3d 30 6d 9f bd bd 7c d1 bd
       0.10882184 0.10582138 -0.07784498 -0.1022887
0001b0 30 08 14 be 8e 20 c8 3d 2d b9 b2 3d d7 59 92 3d
       -0.14456248 0.09771834 0.08726726 0.07146042
0001c0 d9 8e 3c bd 1c 1d 12 3e 54 af bf 3d 6f 08 a6 bd
       -0.046034668 0.14268917 0.09359613 -0.08107077
0001d0 12 8c 49 bd a9 37 67 bd d2 8d b3 bd 69 fd 34 3d
       -0.049205847 -0.056449566 -0.087672845 0.044186983
0001e0 7b 89 0a be fd 54 98 bd 6e 38 37 bd 10 32 6a 3d
       -0.13529007 -0.07438085 -0.04473155 0.05717665
0001f0 35 23 62 bd d7 0f 0b 3e fd e7 54 3d fc 2c 90 bd
       -0.055209357 0.13580261 0.051979054 -0.0703983
000200 03 fb b2 bd cb d5 b5 3c a2 09 e7 3d 73 59 9e bd
       -0.08739283 0.022196671 0.11281134 -0.07731905
000210 d1 0e 63 3d 31 89 bf bd 52 a7 fd 3d 3e d3 1a bd
       0.055434052 -0.09352339 0.123854294 -0.037799112
000220 7a ae ea bd 7f a9 8c 3d d8 bc 03 bb a1 25 d2 bd
       -0.1145906 0.06868266 -0.0020101573 -0.102610834
000230 b9 86 b3 bc 42 99 49 3d 50 67 c5 bd 67 e3 64 3d
       -0.021914827 0.049218424 -0.09638846 0.05588093
000240 28 12 39 bc 65 31 8b 3d d6 60 39 bc 35 39 0d bc
       -0.011295833 0.06796531 -0.011314591 -0.008619596
000250 83 db 9c 3d 0d dd 22 3d 61 0e af bd 00 3a 09 3d
       0.07659056 0.03976159 -0.085476644 0.03350258
000260 1f 34 e3 bd 2b d2 8d 3d bf 4a c9 bd b8 54 22 3d
       -0.11093926 0.06924852 -0.0982871 0.039631575
000270 40 c7 14 bd dd 7a d3 3c 2a 43 03 bb 95 67 0a 3d
       -0.036322832 0.025815422 -0.0020029047 0.03379019
000280 a9 0c cb 3d f2 4d 23 bd 2b 8e eb bd 08 83 da 3d
       0.09914524 -0.039869256 -0.11501726 0.106695235
000290 73 06 1c 3d 74 a0 07 bd d2 8b ee bb 3c ac b7 bd
       0.038092088 -0.033112004 -0.0072798515 -0.08968398
0002a0 f7 8f cc 3d d7 66 bc 3d d2 cb b7 bd d1 7e 8d 3c
       0.099883966 0.09199303 -0.089744225 0.017272385
0002b0 6d 20 54 bd 77 71 b5 bd 1a 34 f6 bd e5 9e cc 3d
       -0.051788736 -0.08859532 -0.12021656 0.09991244
0002c0 e3 62 fd bd 8d d2 cb bd ae 73 e3 bd 8b 04 44 bd
       -0.12372377 -0.09952269 -0.111060485 -0.047855895
0002d0 0a 6f 08 3d 4b e7 af 3d 1e 98 fc bd 2c ea 35 bd
       0.03330902 0.085890375 -0.123337016 -0.044412777
0002e0 b8 5a 7b bd b7 cb 8c 3c 41 64 f7 3c 31 72 5d 3d
       -0.061365813 0.017186983 0.030199172 0.05406398
0002f0 fb 70 43 bd c8 b2 13 3d 95 cd 8f 3d a0 60 db bd
       -0.04771517 0.03605917 0.070216335 -0.10711789
000300 02 1f d6 bc e4 08 83 3d 43 4a ae bd bc 31 e0 3d
       -0.026137833 0.0639818 -0.08510258 0.10946986
000310 41 48 e5 3b 6c 49 c9 3d c0 64 f3 ba 79 ea fe bd
       0.0069971387 0.09828457 -0.0018569455 -0.12447066
000320 33 6d a4 bd dd dd 15 3d 6f 09 99 bd fc 68 ff 3b
       -0.080286406 0.03658854 -0.074725024 0.0077944975
000330 33 11 89 bd 58 5a 88 3b 1b af aa bd 12 58 e7 3b
       -0.066927336 0.0041611604 -0.0833418 0.0070600593
000340 fe 02 19 bc d6 1a 70 3d 13 b1 c2 bd 22 e0 0f 3d
       -0.009339092 0.058619343 -0.095064305 0.03512586
000350 49 7a 97 3d 92 31 bd bc 80 62 31 bd 56 8a 9a bd
       0.07396371 -0.023094926 -0.043306828 -0.07545917
000360 42 2a 2f 3d e6 ff c0 3c f6 dd ca bd 2b 56 19 3c
       0.04276491 0.023559522 -0.09905617 0.009358923
000370 49 fc d4 bd 12 5d 98 bd 18 18 f4 bd d5 2d 43 3c
       -0.10399682 -0.07439627 -0.11918658 0.011912783
000380 2d 0b ea bd fc 4b 6c 3d ce 45 b4 3c 4a 10 04 be
       -0.11427913 0.05768965 0.022005942 -0.12896839
000390 45 94 5d bc 4a 36 6a bd 6b 9f fe bd 54 c7 aa 3d
       -0.01352412 -0.05718068 -0.1243275 0.083388
0003a0 05 e4 81 3c de 5a 59 bd fa ad 92 3d 59 df bf bd
       0.015855798 -0.053065173 0.0716209 -0.09368772
0003b0 bc 4d e6 3d 8f d7 9e 3d 53 e3 3e bd 4c c1 9c 3c
       0.112452954 0.07755958 -0.046603512 0.01913514
0003c0 1b 32 e3 3d 5f b9 02 bd 1f d3 11 3d fc 6b 91 3d
       0.11093541 -0.031915065 0.03560173 0.071006745
0003d0 19 73 03 3c f6 d3 64 3d 28 39 7b ba c4 5f c1 3d
       0.008023047 0.055866204 -0.0009583407 0.09442094
0003e0 bd 49 8b bd 49 af 35 bd 56 c1 12 bd a8 80 ee 3d
       -0.06801174 -0.044356618 -0.03582891 0.11645633
0003f0 7d b2 d8 bd 6c 3f e3 3d 54 e2 ad bd b8 9f 8d 3c
       -0.10580919 0.11096081 -0.08490434 0.017288074

gru.weight_hh_l1 f4 [192, 64]
000000 cb 73 2c 3d f6 bc c5 3d bd c7 8e bb d9 85 8c bc
       0.042102616 0.09655182 -0.0043573068 -0.017153667
000010 28 03 0b bd 8c ed 1f 3c a3 c8 74 bd 8b 39 be bd
       -0.033938557 0.009761225 -0.059761655 -0.09288319
000020 35 6f 0c 3d d4 ad 3f 3d c4 cf dc 3d 33 b2 9b 3d
       0.034285743 0.046796635 0.10781816 0.07602348
000030 aa b7 72 3d 39 8b 9d 3d fd 07 39 bd f9 1b 08 be
       0.059257187 0.0769257 -0.045173634 -0.1329192
000040 b0 75 82 3d 6f 7e ec bd bd 49 cd bc 12 4b 89 3d
       0.06370103 -0.11547553 -0.025059575 0.06703772
000050 89 57 d7 3d de 06 ac bd 52 cc 96 3d b1 7f 15 bd
       0.10514743 -0.08399747 0.0736319 -0.03649873
000060 12 0e 9f 3c 34 23 0f 3d 48 88 a6 bd 2a 18 7b 3d
       0.019415889 0.03494568 -0.08131462 0.06130234
000070 52 c6 26 bd 2e ab 52 bd d4 b0 72 3d 6c f8 a7 3d
       -0.040716477 -0.05143278 0.059250668 0.082016796
000080 13 ab 6f bd 4c 01 b1 3d 91 02 8d bd a0 9b 09 bd
       -0.05851276 0.086428255 -0.06885255 -0.03359568
000090 2e 7b ea 3d 35 9e 30 3d 6a 23 49 3d 47 1c 05 3e
       0.11449276 0.043119628 0.04910604 0.12999068
0000a0 db 0a d1 3d 4c 78 72 bd 1c ae 5d bd 89 ba db bc
       0.10207149 -0.059196755 -0.05412112 -0.026822345
0000b0 f7 51 f8 bd 75 ec 7e 3c 74 88 71 bd 3d 0e e1 bd
       -0.121250086 0.015559305 -0.058968022 -0.10989044
0000c0 e8 e7 f3 bd fc 6f ff bd c3 2e 67 bd 38 51 29 bd
       -0.11909467 -0.12472531 -0.05644108 -0.04133722
0000d0 ca e6 1b bd 82 11 c3 3d 5e 16 04 bc 9a c5 f5 3c
       -0.038061894 0.09524824 -0.008061973 0.03000145
0000e0 0f ae 21 bc c8 1d 37 bd f2 22 20 3d 2f 58 86 3b
       -0.009868159 -0.044706136 0.039095826 0.004099868
0000f0 a9 f9 ae bd 24 68 02 3e 30 19 04 3e d5 2b 55 bc
       -0.08543713 0.12735039 0.12900233 -0.013010939
000100 18 39 41 bd 5f 3f 72 3d a0 62 70 3c 27 7f 0d 3b
       -0.04717359 0.059142467 0.0146719515 0.0021590681
000110 db 2f c1 bd b9 1c b9 bd 92 8d 37 3d 12 35 90 3c
       -0.09432956 -0.090386815 0.044812746 0.01760343
000120 d4 67 85 3d 4b ef b3 bc 78 92 a4 3d dc bd b8 3d
       0.06513944 -0.02196469 0.08035749 0.09020588
000130 14 cf c4 bd 3e 10 3b 3c 10 27 b7 3d e5 3a 59 3c
       -0.096098095 0.011417447 0.089429975 0.01325867
000140 7f 70 b8 3d 20 bb 48 3d 3e 73 93 3d 9c 02 13 bc
       0.09005832 0.04900658 0.07199715 -0.00897279
000150 51 8d 05 bc 30 03 4a 3c ea de ac bd a0 55 c4 3d
       -0.008151368 0.0123298615 -0.08440955 0.09586644
000160 80 d5 b9 bd 2e dc 8c bd 8f 0c 35 3d de 25 bb 3c
       -0.09073925 -0.068779334 0.04420143 0.022845205
000170 ff 4e ba bd f8 85 90 3d ba b8 03 3d 0a 41 8e 3c
       -0.090970986 0.070568025 0.03215859 0.017364997
000180 1a e9 d9 bd d7 29 2c 3d 31 8e 5e bd 06 62 97 bd
       -0.10640164 0.04203209 -0.054334823 -0.07391743
000190 26 e6 37 3d d8 ae 9a bd 38 bd bf bd b2 9c 04 be
       0.04489722 -0.0755288 -0.093622625 -0.129504
0001a0 87 93 4c bd 66 95 32 bd f8 33 8a 3c 1a 3f 72 bd
       -0.04994538 -0.04359951 0.016870484 -0.05914221
0001b0 54 57 02 3e 64 3d a4 3d 0f a8 22 3d b6 53 87 3d
       0.12728626 0.08019522 0.039711054 0.066077635
0001c0 d4 d0 04 3e ed f5 bf 3d 50 46 93 3d 4e 95 6d 3d
       0.12970287 0.093730785 0.071911454 0.058003716
0001d0 e0 12 13 bd 85 52 4c 3d f8 dd a5 3d a6 62 a1 3c
       -0.035906672 0.049883384 0.08098978 0.01970036
0001e0 54 05 27 3d d5 a9 d2 bd e3 76 d1 3d bf 60 bf bd
       0.040776566 -0.10286299 0.10227754 -0.09344625
0001f0 ce c2 bf bd c8 82 20 3d 6f c0 c0 bd d9 cc aa bb
       -0.09363328 0.039187223 -0.09411704 -0.005212408
000200 44 f5 53 3d 73 5d ba bc 37 a1 a0 3d 88 2d 99 bd
       0.051747575 -0.022749638 0.07843249 -0.074793875
000210 99 e6 b3 3d 8e 51 83 3d 0a 9b ad bd 2b 1a ee 3d
       0.087842174 0.0641204 -0.08476837 0.11626085
000220 49 dc e5 3d 88 80 c3 bd 05 dd 11 3d 5d 8e a1 3d
       0.11223657 -0.09546 0.03561117 0.07888482
000230 94 0c e0 bd 3b f4 28 3d 1b da 12 ba 11 c3 46 3d
       -0.10939899 0.04124854 -0.0005601958 0.048525874
000240 27 f5 ac 3d d3 63 97 bc b9 a8 c9 3d e8 fd c8 3d
       0.084451966 -0.018480217 0.098466344 0.09814054
000250 16 be 94 bd 94 be 4d 3c 7f 14 9f bd 95 42 d6 3d
       -0.072628185 0.012557644 -0.07767581 0.10461918
000260 b6 1c b8 3c 2e c8 3f bd ff a1 30 3d ad 61 3e bd
       0.022474628 -0.046821766 0.04312324 -0.04647987
000270 8c 0e 2e 3a c2 da a8 3d 47 b4 b6 bd b8 79 10 bd
       0.0006639741 0.0824485 -0.08921104 -0.03527233
000280 10 ff e0 bd c8 4b 45 3d 1a 69 a5 bb f9 d9 6c bc
       -0.10986149 0.048167974 -0.0050479295 -0.014456266
000290 74 5d bd 3d 92 1b 49 bd 82 52 ee 3d 37 bd 62 bc
       0.092463404 -0.04909856 0.11636831 -0.013839058
0002a0 2f 40 db 3d 16 2b 9f bd 02 70 00 3d 62 57 cc 3c
       0.107056014 -0.0777189 0.03135682 0.024944011
0002b0 32 65 db bd 0b 02 99 3d b1 46 8f 3c cb 9a c2 bd
       -0.10712661 0.07471093 0.017489763 -0.09502181
0002c0 9c 22 27 3d 1b 2c ec bc 0c d7 dc 3c 53 0d 08 3e
       0.04080449 -0.028829625 0.026958011 0.13286333
0002d0 aa 60 e8 bd db 3a 66 bd a2 d3 8d 3c dc db 94 bd
       -0.11346562 -0.056208473 0.017312828 -0.07268497
0002e0 b2 bf f6 bd c6 bd 07 bc bb 89 2d bd 2b 07 e3 bd
       -0.12048282 -0.008284992 -0.042367678 -0.110853516
0002f0 ed 6f a5 bd 80 0f ce 3d c7 12 db 3d bb a8 5e bd
       -0.08077989 0.1006155 0.10696941 -0.054360133
000300 47 2e 6b bc 1b d9 4e 3d 2f 01 a0 3d b6 13 a2 3c
       -0.014354295 0.050500017 0.07812726 0.01978479
000310 1f 33 5e ba ba a7 81 bc 35 97 f0 bd 93 56 db 3d
       -0.00084762456 -0.015827049 -0.117475905 0.10709872
000320 b6 bb c1 3d 68 38 7b bd 85 be 84 bd 01 43 9a bc
       0.09459631 -0.06133309 -0.06481651 -0.018830778
000330 6c 23 06 bd ed 60 96 3d ca 6b 09 3d 1e ba 16 bd
       -0.032748625 0.07342706 0.03355006 -0.03679859
000340 fc c4 84 bd d6 ad b0 3c 43 de cc bd 77 2a aa 3d
       -0.06482884 0.021567266 -0.100033306 0.08308881
000350 6b b7 1f 3d 6a 08 fd bd 40 6d 12 3d 1e a7 60 3d
       0.03899328 -0.123551205 0.03574872 0.054846875
000360 30 c3 f0 bd 94 4c 72 bd 0e f8 bc 3d 8f c4 96 3d
       -0.11755979 -0.05915506 0.09227 0.07361709
000370 29 aa f1 bd 05 14 fa 3c e3 8c 8e bc 58 f8 70 3d
       -0.118000336 0.030527124 -0.017401164 0.05883059
000380 1d 73 a7 bd 90 e4 a2 3d ab 7d b9 bc 49 89 23 bd
       -0.08176253 0.07953751 -0.022642931 -0.039925847
000390 9e 3a 32 3c 45 c0 8d 3d a4 3c af 3c 9c bc 0f 3c
       0.010878233 0.06921438 0.02139122 0.008772995
0003a0 5d d8 f3 bc f2 33 de 3d 72 38 a3 3b e0 a0 81 3c
       -0.029766256 0.108497515 0.004981094 0.015823781
0003b0 db ca b2 3d 03 1b e2 3c 9f 9f a6 bd 5a 04 da 3d
       0.08730098 0.02760077 -0.08135914 0.10645361
0003c0 27 7b c8 bd da 40 8b bd 45 c0 3f 3d b5 dc bc bd
       -0.097891144 -0.06799479 0.046814222 -0.09221784
0003d0 b7 41 b9 3d a6 97 38 3d 17 80 ac bc 8e 31 09 3d
       0.09045737 0.0450665 -0.021057172 0.033494525
0003e0 20 43 b9 3d 4f c7 fc bd 03 63 da bd 35 1e b4 bd
       0.09046006 -0.123427026 -0.10663416 -0.08794824
0003f0 35 05 af bd 8f 31 a6 3c ff ce d4 3d af 4c 9b bd
       -0.08545915 0.020287303 0.10391044 -0.075829856

gru.bias_ih_l1 f4 [192]
000000 3e 27 ac 3c b4 cb ab bd a4 a8 f4 3d 4f a9 06 bd
       0.021014806 -0.08388463 0.11946228 -0.03287631
000010 e5 18 05 be 1a 58 01 be 4f 1a 93 bd 5c db a6 bd
       -0.12997778 -0.12631264 -0.07182752 -0.08147308
000020 60 fe 0a 3c 57 d6 27 3d bc 92 d1 bd 5a f1 ea 3c
       0.008483499 0.040975895 -0.102330655 0.028679539
000030 45 50 bc bd 36 a0 27 3d a6 0a a4 3d 6a 72 a2 3c
       -0.09194998 0.040924273 0.080098435 0.019829948
000040 70 0a eb bd 00 3c 26 bd e0 ce f4 bc 92 e2 e9 bd
       -0.114766 -0.040584564 -0.029883802 -0.11420168
000050 df 36 cb 3d 7f a8 b8 bd 66 54 d6 3d 6a 55 f1 bb
       0.09922575 -0.09016513 0.104653165 -0.0073649185
000060 68 90 d2 3d 2b 23 5f 3d 61 e8 ea 3d 9c 5f 51 3d
       0.102814496 0.0544769 0.11470104 0.05111657
000070 d8 aa d4 3d 79 12 74 3d 10 cd c3 bd 4f f8 2d 3d
       0.10384148 0.05958793 -0.09560597 0.042473134
000080 a9 b6 d7 bd 04 6d 56 bd ce 34 27 3d 27 ae 27 3e
       -0.105328865 -0.05235006 0.040821843 0.16375028
000090 10 d5 fb bc 55 29 ec 3c 12 bc a4 3d 8e f2 b4 bc
       -0.030741245 0.028828302 0.08043684 -0.022088315
0000a0 0a dd e3 3d b4 41 d0 3d d1 2b 0a 3d c9 2e 97 3d
       0.11126144 0.10168782 0.033733193 0.073819704
0000b0 d9 0e bc 3d 7e ba 8a bd 54 ec 20 bd 57 c2 80 3d
       0.091825195 -0.06773852 -0.03928788 0.062870674
0000c0 7a f6 d1 bc cb 31 86 3d 01 5c 71 bd b3 60 96 3d
       -0.025630224 0.06552466 -0.058925632 0.07342663
0000d0 ce 4f df bd 68 19 8c 3d b6 76 15 3c ec 5a ca 3d
       -0.109038934 0.06840783 0.009122541 0.09880623
0000e0 4c 7d 91 3d 4c 1e fe bd 95 e6 69 bb ef b5 2b bb
       0.071039766 -0.124081224 -0.0035690416 -0.002620097
0000f0 3e 6b eb bc 0b 60 ae 3d a5 68 fa bd 41 28 70 bd
       -0.02873766 0.085144125 -0.122269906 -0.05863214
000100 f0 a4 4a bc 08 26 bb 3d 8b 2b 84 3c 3d c4 74 3d
       -0.012368426 0.09138113 0.016134044 0.05975746
000110 96 4a ed bd 45 7e 96 bc 8b d0 1d 3e 74 41 56 bd
       -0.11586492 -0.018370757 0.15411584 -0.052308515
000120 8e a6 79 bd f4 84 89 3d 3f 63 29 3e 83 ab 80 bb
       -0.060949855 0.06714812 0.16541766 -0.003926696
000130 4c 16 89 3c f9 d9 03 be 26 14 98 3c 03 f8 2f 3d
       0.016734265 -0.12876119 0.018564295 0.04296113
000140 03 2b 1b 3e 30 7b 85 bc c6 ee 20 bd a8 16 92 3d
       0.15153126 -0.016294092 -0.039290212 0.071332276
000150 5b 79 8d bc 2d 55 bf bc af 87 8f 3d 46 33 87 bd
       -0.01726978 -0.023356045 0.070083015 -0.066015765
000160 b6 96 32 3d f0 a1 05 bd c4 c7 55 be 5a 27 19 3d
       0.04360076 -0.03262514 -0.20876986 0.037391044
000170 d5 29 85 3d 24 ee 52 3d c8 8c 0b 3e 6b 43 1e 3d
       0.065021195 0.05149664 0.13627923 0.038638514
000180 ba a1 f1 3c 80 ad 5e bd 3d ea e4 bd 62 43 47 bd
       0.029496063 -0.05436468 -0.1117749 -0.048648246
000190 01 a8 a1 bb 53 42 3f 3e 06 1a 18 3e cb b3 77 bd
       -0.0049333577 0.18677644 0.14853677 -0.0604742
0001a0 e9 e0 da bc fe dc 99 bd 08 39 1f bc db 19 7b 3d
       -0.026718574 -0.07512854 -0.009718187 0.061303955
0001b0 77 59 31 3d 97 ee b9 bb 2f 18 02 be 2d 58 32 3e
       0.04329821 -0.005674194 -0.12704538 0.17416449
0001c0 0f 9a 9b 3d 3c 12 27 be 08 e1 b5 3c 69 ec f3 3d
       0.07597744 -0.1631555 0.02220203 0.11910326
0001d0 49 51 50 bd 6f aa 06 bd 2a 78 41 3c a5 f8 1f 3e
       -0.05085877 -0.032877382 0.0118084345 0.15622194
0001e0 29 72 d7 bd 9f 0e f7 bc dc 15 a2 3d 2f 3e da bc
       -0.10519821 -0.030158339 0.079143256 -0.02664098
0001f0 a5 81 15 3e 58 e9 90 bd b1 a2 0f 3e 16 4d 03 3e
       0.14600237 -0.07075757 0.14026906 0.12822375
000200 68 d6 df 3d f3 d5 05 bc 4f 89 b4 bc 71 13 0c 3d
       0.109295666 -0.008168685 -0.02203813 0.03419823
000210 33 a7 bc 3d 3b bb af bd 85 29 0e bd a4 a7 2a bc
       0.09211578 -0.08580633 -0.034707565 -0.010415945
000220 57 9a 1d 3d 72 58 80 bc 37 5a 4b 3d 41 4d 6c 3d
       0.038477268 -0.015667174 0.049646582 0.057690863
000230 24 e5 80 3d f2 32 75 bd c9 6c 3e 3d 8f c8 9a bd
       0.06293705 -0.05986304 0.046490464 -0.07557785
000240 bf ed e9 3d 40 cc d1 bb f7 e3 db 3c 13 d7 85 3d
       0.114222996 -0.0064025223 0.0268421 0.06535163
000250 b5 e8 d6 bd e4 e7 b7 bd b1 b3 97 3b a1 d6 b3 3b
       -0.10493604 -0.089797765 0.004629575 0.0054882322
000260 c2 ec c7 3d 31 c8 f3 3d 5d 36 fb 3d 8f 98 d6 3c
       0.09761955 0.11903418 0.12266228 0.026195792
000270 b1 6e 18 3c 68 7e aa 3c c7 52 27 3d 84 90 8e 3c
       0.009303735 0.020812228 0.040850427 0.017402895
000280 00 74 90 3d dd 2b dd 3d a9 92 e0 3d 38 d5 53 bc
       0.07053375 0.10799382 0.10965473 -0.012929253
000290 ab 21 3a 3d a0 3f b4 3d 34 22 50 3d ca 04 c7 3d
       0.045442265 0.08801198 0.05081387 0.0971771
0002a0 a3 8c a3 bd f6 a8 c9 bd 66 35 6e 3c cb 50 88 3d
       -0.07985809 -0.0984668 0.014539098 0.06656035
0002b0 a1 8c 86 3d 82 78 cb bd 63 de c6 bc 2e 2e e7 bd
       0.065697916 -0.099350944 -0.024275964 -0.11288105
0002c0 ec 82 a3 3d 5d 40 da bd 72 7a 54 bd d4 60 d8 3d
       0.07983956 -0.106568076 -0.051874585 0.105653435
0002d0 a9 23 eb 3c fc 59 a1 bd 96 07 dd 3d 17 48 a7 bd
       0.028703528 -0.07878491 0.107924625 -0.08168047
0002e0 2c 73 4a 3d 43 c5 a5 bd 58 c4 95 bd 97 97 5a 3d
       0.049426243 -0.08094265 -0.0731284 0.053367224
0002f0 00 c8 6a bb 30 dc d6 bd a3 f6 82 bc 72 cd a2 bd
       -0.0035824776 -0.10491216 -0.015986746 -0.07949342

gru.bias_hh_l1 f4 [192]
000000 1c 83 60 bd 48 6f ae 3d cc 4d b6 3d a1 ff a5 3d
       -0.054812536 0.08517319 0.08901557 0.08105398
000010 80 66 a5 bd a1 d4 1b bb 13 df ac bd 02 bb d1 3c
       -0.08076191 -0.002377786 -0.084409855 0.025601868
000020 54 63 b0 3d ba 30 b8 3d f8 5b df bd 9f 85 50 bd
       0.08612695 0.08993669 -0.109062135 -0.05090868
000030 cb 8e e9 bd 4e ae ae bb 56 3d 00 be e5 7f dd bd
       -0.11404189 -0.0053308373 -0.12523398 -0.108154096
000040 43 c6 52 3b f7 a0 7d 3d 78 ca 02 3d 79 0b 78 3d
       0.003216163 0.061921086 0.03193137 0.060557816
000050 c1 5e 07 be f4 10 b7 3c 39 ed 64 3d 4e 92 af 3d
       -0.1321974 0.022346951 0.055890296 0.08572827
000060 97 54 44 3c 11 23 e5 bb 78 42 da bd cb 48 e0 3d
       0.011983058 -0.0069927056 -0.10657209 0.10951384
000070 5e fb 19 3d 78 6d 63 bd 27 86 43 bb 1a 91 89 bd
       0.037593238 -0.05552432 -0.00298346 -0.06717129
000080 b3 ad eb bd a6 45 46 bd a0 3e 90 3d cd 08 8f bc
       -0.1150774 -0.048406266 0.07043195 -0.017460251
000090 7e 68 ab 3d 3d 79 89 3d 1f 66 82 bd 1f 83 9d bd
       0.0836954 0.067125775 -0.06367134 -0.07691025
0000a0 40 5c 40 bd 7a c3 62 bd 9f 2d c4 bc fa fc b7 bd
       -0.046962976 -0.055362202 -0.023947535 -0.08983798
0000b0 5b d9 35 3d 1f 6b 88 bc f3 4d ac bd 27 6b 62 3d
       0.04439674 -0.016652642 -0.08413305 0.05527797
0000c0 6c c1 04 be 92 1d d6 bc db 4b c4 bd ed de 5e 3d
       -0.1296441 -0.026137147 -0.09584781 0.054411817
0000d0 0a b5 cd 3d bf 5f b5 3d 1e 0c 02 be bf 18 59 bd
       0.10044296 0.08856153 -0.12699935 -0.053002115
0000e0 ac 9a f9 bd c8 8a 44 3d 09 31 4f 3d 11 9a 08 3c
       -0.121877044 0.047983915 0.050583873 0.008337514
0000f0 cc 87 9d 3c bc 37 5b 3d 6b d5 bf bd c7 35 b0 bd
       0.019229792 0.05351995 -0.09366878 -0.08604007
000100 69 30 ad bd a7 2e 48 bd b6 91 9d bd 20 3c 8d bc
       -0.08456499 -0.048872616 -0.07693808 -0.017240584
000110 4d 5e ef 3d 3d bb 12 be 75 2c b4 3d 8a b2 b9 bd
       0.11687908 -0.14329238 0.08797542 -0.09067257
000120 4f bc dd 3d 2c 97 94 3d 0f ca 3b bd a7 7e 07 bd
       0.10826933 0.07255396 -0.045846995 -0.03307977
000130 cd aa 02 3e 95 41 e4 bd ac 6c 29 3d 07 51 e2 bd
       0.12760468 -0.11145321 0.041363403 -0.11050611
000140 0c 29 bd 3c ba 1d 3b 3d 17 e6 dc 3d b6 e8 81 bc
       0.023090862 0.045682646 0.10786074 -0.015858036
000150 ee e6 67 3c b8 92 69 bd 23 ca be 3c f0 a5 54 bd
       0.014154179 -0.057024688 0.023289746 -0.051916063
000160 5c b1 3c be ba 2a 2b 3d ba 91 ea bd 05 ab ee bb
       -0.18427032 0.041788794 -0.114535764 -0.0072835707
000170 d3 18 01 3d 36 6d 2a be 4e a0 22 3d a4 46 c6 3b
       0.031517815 -0.16643223 0.03970366 0.0060509015
000180 ca 31 15 be 94 07 09 3b fb 6c 35 bd d6 b0 13 be
       -0.14569774 0.0020909058 -0.044293385 -0.14422926
000190 8a 36 24 3d af c3 bc bc b4 13 70 bc 0d 23 0c bc
       0.040091075 -0.023042528 -0.014653135 -0.008553279
0001a0 70 42 ca bd 31 0d 51 3d 62 58 97 bb a2 95 8c 3d
       -0.09875953 0.05103797 -0.0046186903 0.06864478
0001b0 97 a5 8c bd 92 cd af 3c c6 db 95 3d 96 cf 2e 3e
       -0.06867521 0.021460328 0.07317309 0.17071375
0001c0 71 ea a0 3c a0 f7 bf bc 8e 46 1b 3e 64 5d 2a 3d
       0.01964304 -0.023433506 0.15163633 0.04159297
0001d0 91 d3 24 3d 27 b6 23 3e fb 67 f9 3d c7 7b 06 bc
       0.040240828 0.15987454 0.12178036 -0.008208222
0001e0 89 d6 e5 bd 1f 4d 0c bd 37 a4 19 bb 3a 96 a7 bd
       -0.1122256 -0.034253236 -0.0023443827 -0.0818295
0001f0 31 c3 8c bc 8b 3f fc bd 8d 7b b8 bd 59 18 0b 3c
       -0.017182918 -0.12316807 -0.090079404 0.008489692
000200 89 4f cc bd 62 f0 2a 3d c4 2c a2 3d 17 d4 b4 bd
       -0.099761076 0.041733153 0.079186946 -0.088295154
000210 f9 3e 09 3d a5 85 43 bd 91 c6 32 3c 9a 27 3f 3d
       0.03350732 -0.047734875 0.0109116 0.046668626
000220 41 fb a5 bc 04 95 d3 bd 58 af a7 3d be c3 db bd
       -0.020261409 -0.10331157 0.08187741 -0.10730694
000230 07 a1 ab bd ad 9d 30 bd 94 23 3e bd 2b 75 92 bd
       -0.08380323 -0.04311912 -0.04642065 -0.07151254
000240 19 92 37 bc 73 13 a3 3d a7 b3 64 bd 5c 9f bd 3d
       -0.011204266 0.07962694 -0.055835392 0.09258911
000250 e5 27 8d bd a6 09 ea bc 3c 9e b9 bd b7 c9 79 bc
       -0.06892375 -0.028569054 -0.09063384 -0.0152458465
000260 c6 91 cf bd 20 bc 5a 3d b8 25 dd 3c 27 59 f4 3c
       -0.10135226 0.053402066 0.026995525 0.029827667
000270 a7 d6 0b 3b 68 f7 14 bd 08 b7 bc 3d da c9 b8 b9
       0.002133766 -0.036368757 0.09214598 -0.00035245606
000280 3f 47 93 3c 86 e6 ca 3c 51 69 b4 bd b6 47 f1 3d
       0.017978309 0.024768125 -0.0880915 0.11781256
000290 74 e9 6c 3b 21 f2 10 bd 8b 73 b4 3c 56 e1 bf bd
       0.003614989 -0.035387162 0.022027751 -0.09369151
0002a0 4e 77 99 3c e0 0b 47 bd 6b 2d e6 3d 91 75 4f 3c
       0.018733647 -0.04859531 0.112391315 0.012662307
0002b0 2e f0 d0 3d 0a e2 ff bd e3 f0 37 3b 12 31 eb bd
       0.10202061 -0.124942854 0.0028067164 -0.11483969
0002c0 70 34 d0 3c 7b ab 42 3c b3 a7 cf bc e2 17 6f 3b
       0.02541563 0.011881704 -0.02534852 0.003648274
0002d0 3b f5 26 3d 42 96 18 bc 59 72 fc bc a4 03 e3 bc
       0.040761214 -0.009313168 -0.030816244 -0.027711697
0002e0 db f0 ab ba f8 36 05 bd 09 c7 90 3d be 7c eb 3b
       -0.0013118045 -0.032523125 0.07069213 0.0071865013
0002f0 92 56 74 bd 4d b0 ca 3d 36 f1 5b bd 09 81 88 3c
       -0.059652872 0.09896908 -0.053696834 0.016663091
